first_checkpt.pth.tar (torch_old, 23110 bytes, 6 tensors)

lstm.weight_ih_l0 f4 [64, 54]
00000000: 8f2c f8bd 9a9e 0cbf 8e5a bbbe f629 723f
00000010: f87d 2a3f b730 7fc0 3364 1b3f a52a 0440
00000020: 9ee6 d0bd 2478 ccbb facd 7abe d3e9 d4be
00000030: 14b1 66bf 6efb 5abf e0e9 9e3f 87c9 333f
00000040: 6f71 40be 689c c3bf 9f0e e13e 6c32 0340
00000050: 4b11 afbf 1033 03c0 f96a f1bd abbb 9a3f
00000060: e2ae 1a3d 2a88 213f bd7d 2dbf 1765 943e
00000070: bb56 0140 9263 4f3f 5c3e 94bf 72bd 46bf
00000080: c96e 973d 867d 00c0 f781 6e3f 369d cb3f
00000090: 2346 833e f62b dabf c151 113f 4ab3 81be
000000a0: 9730 48be c4bd 263e fe2b da3e d10d 85bf
000000b0: 349f 52bf 4f74 c1be d4a3 4bc0 fe70 943f
000000c0: b203 02c0 df81 2bbe b553 713f b72f a63e
000000d0: 226e 4abe a610 d6be dd42 ee3f 5ac2 1240
000000e0: e1ec fd3f a64a ff3f 4dc5 cf3f 24e0 1840
000000f0: f608 3140 294f 0740 cbf8 1d40 f280 d83f
00000100: 44b0 0440 3cf9 0940 791d 1e40 701a 2a40
00000110: e962 1440 f674 723f 22a0 6d3f 6fa1 e73f
00000120: 52bf f13f 314b d23f 8ba8 0440 25a1 0d40
00000130: 190d f23f c4c3 ff3f 4992 0440 852d 673f
00000140: 1832 553f 9c83 0f40 1e87 e83f 8ee4 0d40
00000150: dabf 1340 478f 383f 8b93 4a3f 8179 f73f
00000160: 0375 a83f 9bf3 1d40 9a54 fb3f 0feb 4140
00000170: bb4f 663f 06bf f23f f1c5 d63f 4828 e13f
00000180: bc08 d8bd 9a11 2540 8faf b1bd a6ae e73f
00000190: fff6 2440 4097 2e40 2c10 e03f 8571 f3bf
000001a0: 1ebe 1c40 cfa0 1c40 0102 44be cd0f 2bbf
000001b0: f25a bc3e 2f48 87be 461f c73e a66e 0d3f
000001c0: 33ea c83e 96a7 eb3f 8e4f e03d 006b 49bd
000001d0: f330 273f 884d ab3e 504b f73d 058e e0bd
000001e0: 31fa 7c3f a3c8 273f b9bb ec3e 6963 0f40
000001f0: 1355 173f f526 023f c6f5 023f d4d8 ab3b
00000200: 0cd5 883f 2d79 b2be 72d1 0ebf d86e f63f
00000210: 32cd 16be 5d2d 6dbf 20a8 cd3f 736a 4940
00000220: a2b8 bc40 9af6 853f cba2 3740 b229 eb3f
00000230: 5351 ee40 8fb4 5f40 6112 56c0 8317 74bc
00000240: 50fd b540 2b92 6340 e903 c2c0 db9f d8bf
00000250: 4660 0d40 7f3f bc3f 0dde 86bf 0436 003f
00000260: 7c60 4240 8ee4 05c1 ee3f 483f 1a67 de40
00000270: 3fc2 c6ba 7f84 ad3d f8c3 0740 2924 353f
00000280: 57a2 bebc ff64 0abf fc38 17c0 a79f c2c0
00000290: d836 2040 15c0 22c0 d1f1 8ac0 92cc e2bf
000002a0: 7c6d 3d3f 69e3 0b40 f203 3a3f e3e8 dfbf
000002b0: 544b 57bf 8935 6dc0 5d24 afc0 cc98 47c0
000002c0: 23fa 56bf 1675 21c0 fef8 7c3e d6ab 69c0
000002d0: e0b0 debf 2634 75bf e1da 56bf 9079 4fc0
000002e0: 73c8 abbd dacd 9dbe 2be1 253f 52db f8bf
000002f0: 76e2 6abf 1817 1fc0 c5cd 98bd 1e7f 7c40
00000300: 416a a93e 01a1 fb3e cc5b df3e 73e1 883f
00000310: cc73 d1c0 aaa6 0240 1893 973f 1ca7 0841
00000320: 0ee3 1e40 3a89 e73e 91ce 19c0 c806 e8c0
00000330: f4c6 6dbf 204c 10bf afb3 8240 2d4e 40bf
00000340: fce2 abc0 07e2 0dc0 4aa1 e33e a6c6 46be
00000350: 76d7 89c0 c8b6 90c0 3eef bb3d 6c49 3840
00000360: ad55 3f3f 7267 543d ebba 0840 bbe3 4840
00000370: 25fa b540 6a1d 0340 6e70 68bf 5657 1041
00000380: cab3 0640 f5b0 c93f a169 433f 1295 01c0
00000390: 2f8b 593e c3c1 2e3f e7ce 94bf e139 8ebf
000003a0: d2f8 8140 c2d9 c73e d85c eb3f 1594 53bf
000003b0: 59f8 ed3f 688d 3940 e585 4b40 8a26 8040
000003c0: 66bf d83f b82d 2640 9ec3 2340 5e55 1dbe
000003d0: 935e 1ec0 b82e 293f 8221 4240 a8a3 493f
000003e0: 188e 3b3e 043e b03f fe2c af40 75f4 3fbf
000003f0: 8b32 40c0 7612 26c0 3167 023f bad4 b040
-0.12117874 -0.54929507 -0.36592525 0.9459528 0.66598463 -3.9873483 0.60699767 2.0651028
-0.10200237 -0.006239908 -0.24492636 -0.41584644 -0.9011395 -0.855399 1.2415123 0.7022938
-0.18793271 -1.5282106 0.43956468 2.0499525 -1.3677152 -2.0499916 -0.117879815 1.2088522
0.037764437 0.63098395 -0.67769986 0.28983375 2.0209186 0.8101131 -1.158153 -0.7763282
0.073941775 -2.0076613 0.9316706 1.5907352 0.25639448 -1.7044666 0.5676537 -0.253321
-0.19549786 0.16283327 0.42611688 -1.0394841 -0.82274175 -0.3778405 -3.1818743 1.1596982
-2.0314755 -0.1674876 0.9426835 0.3245828 -0.19768575 -0.41809577 1.8614155 2.2931123
1.9837915 1.9944656 1.6232086 2.3886805 2.766172 2.1142066 2.46831 1.6914351
2.0732584 2.155837 2.4705489 2.6578636 2.318537 0.9470972 0.9282247 1.8096141
1.8886511 1.6429197 2.072787 2.2129605 1.8910247 1.9981618 2.0714285 0.9030383
0.8327956 2.2424078 1.8166234 2.2170749 2.3085847 0.72093624 0.7913138 1.9333955
1.3160709 2.4679935 1.9635193 3.0299718 0.8996541 1.8964546 1.6779157 1.7590418
-0.10548541 2.5791993 -0.08676063 1.8100173 2.5775754 2.7279816 1.7504935 -1.9019018
2.4491038 2.447315 -0.1914139 -0.66820985 0.36788136 -0.2642226 0.38891047 0.5524696
0.3924118 1.8410518 0.10952674 -0.04917431 0.65309066 0.3345759 0.120749116 -0.10964588
0.9881926 0.6554052 0.4623697 2.2404425 0.5911419 0.50840694 0.5115627 0.005244354
1.0690017 -0.34858075 -0.5578834 1.9252577 -0.14726713 -0.92647344 1.6066933 3.1471221
5.897538 1.0465882 2.869311 1.8372099 7.4474273 3.4953954 -3.3448718 -0.014898184
5.687172 3.5557964 -6.0629773 -1.6923784 2.209001 1.4706877 -1.0536515 0.5008242
3.037139 -8.3682995 0.7822255 6.9500856 -0.0015164091 0.08472537 2.121336 0.707583
-0.023270769 -0.5406036 -2.362853 -6.081989 2.5033474 -2.5429738 -4.3420186 -1.771868
0.73995185 2.185755 0.7266227 -1.7492946 -0.84099317 -3.7063925 -5.473189 -3.118701
-0.8397543 -2.5227714 0.24704358 -3.651113 -1.7397728 -0.957827 -0.8392773 -3.2417946
-0.08387842 -0.30821115 0.64796704 -1.9441931 -0.917518 -2.4857845 -0.074611224 3.9452586
0.33088878 0.49146274 0.43624723 1.0693802 -6.5453854 2.0414224 1.1841764 8.540798
2.4826083 0.45221883 -2.4032328 -7.250828 -0.92881703 -0.5636616 4.084434 -0.75119287
-5.371458 -2.2169206 0.4445899 -0.19411716 -4.3075514 -4.522312 0.09176491 2.8794813
0.74740106 0.051856466 2.1364086 3.1388996 5.686785 2.0486703 -0.90796554 9.021322
2.1047235 1.5757128 0.7633305 -2.0247235 0.212445 0.68264407 -1.1625642 -1.1111413
4.0616236 0.39033324 1.8387709 -0.8264783 1.8591415 2.8992558 3.1800473 4.0047045
1.693341 2.5965405 2.5588145 -0.15364596 -2.4745224 0.6608691 3.0332952 0.78765345
0.18315923 1.3768926 5.474242 -0.74982387 -3.003085 -2.5948768 0.5093871 5.5259676

lstm.weight_hh_l0 f4 [64, 16]
00000000: 361a e53e bd4d afbd 2313 d33e ef8a b03e
00000010: 83dc 91be 97b5 c93e add4 96bf 5a88 caba
00000020: dacc 10bf ec2b 643e df08 683e c9f9 b7be
00000030: 456b 343e 7df0 cbbe 1080 cb3c d51f 03bf
00000040: 6f32 7c3e 8c3c 43c0 7fe4 d23e ad69 dabe
00000050: 3a30 7dbd be4d ebbd 24e5 ac3f d638 72be
00000060: d56e 9a3e e053 a53e 6344 8ebe 2d44 fb3e
00000070: b69e 183f 687c a93e 2046 b5be 0801 0b3e
00000080: d106 0d3f 46a2 033d 5aac 95c0 d930 363f
00000090: 26f9 01bf 256d de3e 27af 10c0 0ed0 6b3f
000000a0: c7fc 0bc0 5f9b f33e 83a7 a1bd 6b54 863e
000000b0: 24d6 e13e 9406 cdbe 4665 0bbf 97e3 3c3e
000000c0: b550 1e40 9b0e d43d 3b41 70bf 4eac 943f
000000d0: 3e4d 7c3c db4c bcbf 5563 05bf b16a 8b3f
000000e0: 01e0 2e3e 4559 a73e 4ef1 3140 e095 e0be
000000f0: cab7 4b3f a071 2ebf 4204 0e3f 908a 29c0
00000100: 24ca 9ebd d6a0 163f 03ba 80be 7164 853f
00000110: b1d9 283f 583d 243f 1706 d9bf ecff 8f3e
00000120: 7469 be3d d980 65be ee5d ea3e 5595 52bc
00000130: 7cd4 32be 7ddc cc3d 8657 de3e cff2 24bf
00000140: 92c1 d2be db31 263f dbcd 1940 ddab 833e
00000150: ffce babe 85ed 0840 e34d cc3f 252a 0d3f
00000160: c404 14bf db95 443e b119 febe af13 b3bd
00000170: 740d 1c40 02d6 0ebe 1f28 df3e b349 8abf
00000180: 41fa f73c 3c67 79be 8980 d5bc dff6 06bf
00000190: 1171 eebc 51b6 51bf 47fd 1640 def0 aabe
000001a0: 0c62 1f3f 43b7 b23d bafd d9be 0a97 213f
000001b0: 0298 9c3e 6e30 463e e649 b0be b4ce 863e
000001c0: 544f 693f 302c df3f 9338 1cbf 1723 563f
000001d0: 1b07 333f c6bd 003f 33dd 1abf ab57 ae3f
000001e0: 701d f2bf 8d47 893f d844 01c0 eabc 81bf
000001f0: 169b f73f d904 a63f 0449 2a3e cac5 c43f
00000200: a01a 20bf 4d21 b6bf e95d 123f cd05 dc3f
00000210: 31ba 15bf f8d9 fc3e a0a1 713e 1777 2840
00000220: c182 9abf 7f18 19c0 8076 29c0 b912 bf3f
00000230: 6674 b23f c679 9ebf f65e f8bd 7db6 4ac0
00000240: 1d38 de3e a9ff a23e b2f9 9e3d 994a 3e3f
00000250: 30d4 d23d 10e6 033f 09ea d33f 7438 11be
00000260: 85ee 32bf a413 16bf b624 3ebf 4b06 633f
00000270: ad33 bdbe 6cbc e5bd a578 2bbf c20d bdbf
00000280: f94f 993f 86be 393f ccd0 b03f 2e09 9f3f
00000290: 7174 4bbf 8bb9 71bf 84e1 723f 7772 75be
000002a0: 7021 f6be 0f82 893f 8a6d 2e40 d9ff 24bf
000002b0: 31a9 2840 890b 0bbf b4f2 e93c c501 29bf
000002c0: 929a 583f 67a4 1dbe a9b5 b6be 9913 a03e
000002d0: b40b 0a3e 5a71 fdbd 4673 0fc0 cc4f ed3e
000002e0: b97a bebd ce0e c8bc dd1e 923c b372 803f
000002f0: ac18 4d3f 0d91 293e 1b50 d8bd 7fb7 a73f
00000300: 6b9f 383e ee5f 5bbf 4fb8 9e3e 38cf 38be
00000310: dca9 b3bc 38d9 a8be dfa1 eabd 89c6 0abe
00000320: 2c0c 94be fce6 4a3f 941c ddbe 490e ee3e
00000330: 5cf8 6240 b90b 093f be75 5fbe df73 123d
00000340: 2e97 e1bc c8c6 9c3f 8846 5c3f cef0 b83e
00000350: 4cf5 403f 2679 c63f 7dc9 463e 028b a8bc
00000360: db3e 29c0 1c3b 473f 8ba4 1cbe 0301 223e
00000370: c96e 29bf 8050 f3bf 5c09 27bf bf05 b83e
00000380: 3a56 f33e 6835 113e aff5 2c3e 0970 2a3f
00000390: ee84 593e a5a5 203e c21f 413d a14d 383f
000003a0: 6d2a 95be b0a2 e63e 13da d2be 662c e53d
000003b0: 9cf6 ca3e 1698 92be 629f 2d3f 0d63 79be
000003c0: 7a58 893e 0476 0abf b2ea 623f 82df c2be
000003d0: 356f 9fbd 23a2 ddbe 63b7 81be 4902 3abe
000003e0: 5954 0e3e 34c0 343f 7b2c 703d 1b6b e63e
000003f0: 1885 af3f bebd db3d af3f b0be 2ef8 063f
0.4474656 -0.08559749 0.41225538 0.34480998 -0.2848855 0.39396355 -1.1783653 -0.0015452013
-0.5656258 0.2228238 0.22659634 -0.35932758 0.17619045 -0.39831915 0.024841338 -0.51220447
0.24628614 -3.0505705 0.41189954 -0.4265875 -0.06181357 -0.114894375 1.3507428 -0.23654494
0.30162683 0.32290554 -0.2778655 0.49075451 0.59617174 0.33102727 -0.35405064 0.13574612
0.55088526 0.032137178 -4.677289 0.71168286 -0.50770795 0.43442646 -2.2606905 0.9211434
-2.1873033 0.47579476 -0.078932784 0.2623628 0.4410869 -0.4004408 -0.54451406 0.18446194
2.473676 0.10354348 -0.93849534 1.1615083 0.015399275 -1.4710954 -0.52104694 1.0891935
0.17077638 0.32685295 2.780353 -0.43864346 0.79577315 -0.6814213 0.55475247 -2.6490822
-0.07753399 0.58839166 -0.25141916 1.0421277 0.6595717 0.64156103 -1.6954983 0.2812494
0.09297457 -0.22412433 0.45774788 -0.012852986 -0.17463869 0.10002992 0.4342615 -0.64432997
-0.41163307 0.64919823 2.4031894 0.2571706 -0.3648605 2.139497 1.5961269 0.5514243
-0.5781977 0.1919779 -0.49628976 -0.08743989 2.438321 -0.13948825 0.43585297 -1.0803741
0.030270698 -0.24355787 -0.026062267 -0.52720445 -0.029106649 -0.8191882 2.3592088 -0.33386892
0.6225898 0.08726361 -0.4257639 0.6312109 0.30584723 0.19354412 -0.3443138 0.26329577
0.9113667 1.743536 -0.61023825 0.8364729 0.6993272 0.5028957 -0.60493773 1.3620504
-1.8915234 1.072496 -2.019827 -1.0135777 1.9344203 1.2970229 0.16629416 1.537286
-0.62540627 -1.4228913 0.57174546 1.718927 -0.5848723 0.49385047 0.23596811 2.6322687
-1.2071153 -2.3921201 -2.6478577 1.4927589 1.3941772 -1.2380912 -0.12127487 -3.1673882
0.43402186 0.31835678 0.07762469 0.74332577 0.10294378 0.5152292 1.6555797 -0.14181691
-0.698952 -0.5862372 -0.74274766 0.8868148 -0.36953488 -0.11217579 -0.66980964 -1.4769824
1.1977531 0.7255634 1.381372 1.2424676 -0.7947455 -0.9442374 0.9487536 -0.23969446
-0.48072386 1.0742816 2.7254357 -0.6445289 2.6353266 -0.54314476 0.028558113 -0.66018325
0.84610856 -0.15394746 -0.3568547 0.31264952 0.13481027 -0.12375136 -2.2414107 0.46349943
-0.09300751 -0.024421122 0.017836982 1.0035003 0.8011577 0.16559239 -0.10562154 1.3102874
0.18029563 -0.8569325 0.3099999 -0.18047798 -0.021931581 -0.32978225 -0.11456656 -0.13552298
-0.28915536 0.79258704 -0.43185866 0.46495274 3.5464087 0.5353351 -0.21822259 0.035755035
-0.027537908 1.2248163 0.8604512 0.3612122 0.75374293 1.5505722 0.19412799 -0.020574097
-2.6444614 0.7782457 -0.15297143 0.15820698 -0.6618467 -1.9008942 -0.65248656 0.35941884
0.47526723 0.14180529 0.16890596 0.665772 0.21242115 0.15688188 0.047149427 0.7199345
-0.2913393 0.45045996 -0.41182002 0.11190109 0.39641273 -0.28631657 0.67821324 -0.24354191
0.26825315 -0.5408633 0.88639367 -0.38061148 -0.07784883 -0.43287763 -0.25335225 -0.18164934
0.13899364 0.7060578 0.05863617 0.4500359 1.3712492 0.1072955 -0.34423587 0.5272244

lstm.bias_ih_l0 f4 [64]
00000000: e4d1 82bf 04d1 3b3e a14e 573e 7e6c be3f
00000010: a6f2 58bf 4b11 b73c 5582 bfbe b5c2 1c40
00000020: a918 5b40 c674 0a3e df8f babd 0d9a 9bbf
00000030: f50a d43e 16cd 6bbe e914 66bf 7e6c 8abf
00000040: 3efe eb3f 8a42 e53f 2643 d13f 2550 a93f
00000050: c9e5 0040 4a50 0a40 1e94 2c40 b3bf 2dbf
00000060: d252 fe3e 908a d03f 4d09 e03e ad68 0140
00000070: a96c 1740 638d 303f 5d11 0f40 92c4 1b40
00000080: 4674 07be fb47 8abf 765e 733f 3346 aabf
00000090: 1e2c 8cbe 53df 063f 3c5d 543f 6ba0 cfbf
000000a0: 6ea9 c43f fa8f a33e 0f64 73bf e630 893e
000000b0: 9ec8 093f 68f0 263f bbdf 703f 661f e8bd
000000c0: 78aa ac3d 8f69 bc3f 7bc8 763f f768 543f
000000d0: 80bf 7cbe 2e9f a83f e1ef e93f 96e9 de3e
000000e0: f664 833f aa56 9a3f 6475 e53f 011b 923f
000000f0: 3c99 2740 937e 0f3f 6513 183f c0d0 0940
-1.0220304 0.18341452 0.21026088 1.4876859 -0.8474525 0.022347113 -0.37404123 2.449384
3.4233801 0.13521108 -0.091094725 -1.2156388 0.4141461 -0.23027453 -0.89875656 -1.0814359
1.8436964 1.7910931 1.6348617 1.3227583 2.014025 2.1611505 2.6965404 -0.67870635
0.49672562 1.6292286 0.43757096 2.022014 2.366007 0.6896574 2.2354348 2.4338727
-0.13227949 -1.0803217 0.9506601 -1.3302673 -0.2737741 0.52684516 0.82954764 -1.6220831
1.5364206 0.31945783 -0.9507455 0.2679512 0.5382174 0.6521058 0.94091386 -0.11334114
0.08430952 1.4719714 0.9639966 0.82972664 -0.24682426 1.3173578 1.827633 0.43537587
1.0265186 1.2057698 1.792645 1.1414491 2.6187277 0.5605251 0.59404594 2.153366

lstm.bias_hh_l0 f4 [64]
00000000: e233 7abf dd77 ad3e bf8a 9c3e f283 be3f
00000010: cd16 75bf 0fdf 72bd a7e5 19bf 157b 1540
00000020: 9d3c 5540 99f5 a03d 6bcd 1a3e 11db a8bf
00000030: 4de1 d33e e411 0b3e 7529 5dbf fa35 99bf
00000040: ef5a 1040 a637 f03f 941b ba3f bdeb 993f
00000050: 421a 1b40 f81a 0a40 4898 1e40 f40a f7be
00000060: c357 043f 36d5 c83f 6a6b 2f3f 3909 fa3f
00000070: bdb5 1940 5926 363f 052e 0a40 f44e 1040
00000080: 3d92 a63d 1df6 7bbf 5173 803f e5f9 c4bf
00000090: 0dc9 4cbe 4c4f 4d3f 4054 ae3e 313b b1bf
000000a0: 7c09 f63f a6b5 fa3e ece6 87bf bdb2 713e
000000b0: 6e3f a43e e0ab 2f3f d0c3 383f ea3a a7be
000000c0: 5979 db3e 6bfe c63f d0af b53f 1077 803f
000000d0: f50a 86be 44db 953f 073d e03f 919b 1a3f
000000e0: 3eaf 983f 800e 943f 249f e23f 61ea 9a3f
000000f0: fcdd 3840 8756 df3e 1d53 093f 1e19 1940
-0.97735417 0.3388051 0.30574605 1.4884017 -0.95737916 -0.059294757 -0.60116047 2.3356373
3.3318245 0.07859344 0.15117423 -1.3191854 0.41382828 0.13581043 -0.86391383 -1.1969597
2.2555501 1.8766983 1.4539666 1.2025067 2.4234776 2.157896 2.4780445 -0.48250544
0.51696414 1.5690067 0.68523276 1.9534065 2.4017174 0.71152264 2.1590588 2.254819
0.081333615 -0.98422414 1.0035192 -1.5388762 -0.1999857 0.8019912 0.34048653 -1.3846189
1.9221644 0.48966712 -1.0617347 0.2360334 0.32079643 0.68621635 0.72173786 -0.32662135
0.42866018 1.5546392 1.4194279 1.0036335 -0.26180235 1.170754 1.7518624 0.60393625
1.192848 1.1566925 1.7704816 1.2102777 2.8885489 0.43620703 0.53642446 2.392158

fc1.weight f4 [54, 16]
00000000: 660c 533f 63c7 03c0 12d7 dec0 821c 153f
00000010: 2172 3c40 d42c 34bf 5127 3ac0 2515 a740
00000020: 8c0b 7740 3edd 86c0 819f 3bc0 3ae1 df40
00000030: d5e4 ff3f b1ff 60bf 66e7 0ec0 7161 3340
00000040: eba2 6040 5a7f a5c0 7321 0441 20e5 24c0
00000050: be8f 80bf ab31 d7c0 cabe efbf 47da ce40
00000060: c6d3 6ebf 3972 7040 d697 7f40 dcb1 13c0
00000070: 8b33 b63f 7696 b3c0 9952 8240 7186 90be
00000080: a7ef 3040 f22b e1c0 a23e 2f3f e7a4 c240
00000090: 6d5f c1c0 2807 3440 965c 513f 0c91 d1c0
000000a0: b30f 15bf 7a4b 8c3e c04e 2b3f 17bf 6740
000000b0: 7775 60c0 c3d7 6f40 b859 b4bf 078c 9c3d
000000c0: 4683 0d41 1303 3cc0 4a1d d440 5f6c 23bf
000000d0: 5298 dec0 0c36 1440 2d51 8d40 d996 b7c0
000000e0: a02a bfbf 4ca4 b73f 8b9a cbbf fec8 9a3f
000000f0: 9399 3c40 eb80 82c0 23c0 e53f 7d8b b2bf
00000100: da44 a840 001f b5c0 5d14 11c1 996c 38c0
00000110: 391f c040 7fa7 5ebf c501 babf 948e ca40
00000120: 4fd2 963f f7a6 5cbc f13f 89c0 7aaf 28c0
00000130: 27f8 4d40 4c7e db3f 9c72 86c0 7158 dbbf
00000140: 046b 9440 7180 cc3e af33 2540 4323 4940
00000150: 1626 303f 94cf b0c0 403b cd40 266b 4d3d
00000160: 4b35 b23f c59b 62c0 032d 103f b086 d3c0
00000170: e693 bb40 4cb7 7ac0 2c9c 2ac0 cd0d 13be
00000180: b267 9540 91ef 6d40 b89d 8b40 cb4c 3b40
00000190: c126 97c0 3393 99bf f0f8 1d40 af2e aec0
000001a0: 5b6b 43c0 463c 8fc0 369d 2dc0 0da8 47c0
000001b0: 8b3e c340 60cc 4240 1c09 0740 b2da 33bf
000001c0: 9c19 bebf 706b e3bf 00a3 0dc1 d705 9c40
000001d0: 7907 6cc0 0d2e 48c0 4122 0140 3f41 06c1
000001e0: 3bf1 0840 1623 54bb ec9c 4240 ef05 9340
000001f0: fbe4 7040 6a85 a9c0 a14f aabe 990c 8040
00000200: 2700 9640 2081 c5bf 8edb f3c0 bafc 2f40
00000210: 40d1 f340 6ea7 64be 2726 4740 3d6e 00c1
00000220: 9899 5bbe f134 a740 1166 c3bf 52d7 5640
00000230: 05a2 95bf 5b1a 013f da53 84c0 cd20 6f40
00000240: e8b0 9a40 7b02 bdbf 7118 53bf 6791 0840
00000250: 9016 8ac0 540b 64c0 536e 4240 7da6 6740
00000260: 2860 dfbe 8eff 84c0 743c edbf b3d8 12c0
00000270: 2f9a 2340 e879 efbf a3d6 dcbe b83a 0641
00000280: 0854 4440 4c26 d6c0 3153 0540 06d3 7240
00000290: f3d9 8ac0 28b6 f0c0 f5b5 38be 22f2 223f
000002a0: 040b 1fc0 c7b4 b73f d822 25bf 170f 9240
000002b0: 0b07 ccc0 e1c0 953c 3dd2 a33e 2ad2 cb3f
000002c0: 10b2 a740 8112 0e3f a0a6 0141 e09a 94be
000002d0: c7af 5240 4f24 5ec0 a998 c4bf c29e c7c0
000002e0: fcc7 1ac0 4234 9140 c11a a840 a144 8540
000002f0: dc0f 5540 2e5f d7c0 15b3 34c0 3c2a 1ec1
00000300: 2bbf 2840 63f3 aa3f 334c e340 abeb 65c0
00000310: 97cc 1241 8b9d 13c1 15a2 3a40 274d 6c40
00000320: e7af ebbf e711 843f 5102 2040 0746 1f40
00000330: b847 3140 ef89 1bc0 6408 4b40 be81 7840
00000340: 0080 fb3f 6090 4540 597c 8d40 b099 70be
00000350: de0a c1c0 6ba5 d040 3c0c a540 2f03 c840
00000360: 029f 65be f8c8 a13e 6b4c c13f 1ea9 c53f
00000370: a61a 6740 abcf f63f f41a 89bf 5cc1 4f3f
00000380: 723d 7ebf bdf4 eebf 24a6 15c1 e6eb 5640
00000390: d6e1 b63f 8988 bbbf ad03 7040 49d6 d140
000003a0: bf9e 9d40 e472 a240 749f 203e 84bf 013f
000003b0: 681d 6040 122a 77c0 14e3 8c40 392c fdbf
000003c0: ba07 4fc0 c2c3 09c0 0d42 3840 7beb 4440
000003d0: 53f0 1240 20a1 06c1 94b1 8d40 e303 7540
000003e0: 556f df3e 53cc c9bf f08e 4e3f eedc 3c3e
000003f0: 9eb1 0f40 797b 6dc0 743a fdc0 febb 87c0
0.82440794 -2.0590446 -6.9637537 0.58246624 2.9444659 -0.703809 -2.9086497 5.221331
3.8600798 -4.214507 -2.9316103 6.9962435 1.9991709 -0.87890154 -2.2328734 2.8028224
3.5099437 -5.171796 8.258166 -2.5764847 -1.0043867 -6.724813 -1.8730099 6.464145
-0.9329189 3.7569716 3.9936423 -2.3077307 1.423448 -5.612117 4.0725827 -0.2822757
2.7646272 -7.0366144 0.68454945 6.0826297 -6.0428987 2.8129368 0.817819 -6.548956
-0.5822708 0.27401334 0.6691704 3.6210382 -3.5071695 3.747544 -1.408988 0.076438956
8.844549 -2.9376876 6.6285753 -0.63837236 -6.956094 2.3157988 4.416159 -5.737164
-1.4934883 1.4347014 -1.5906538 1.2092588 2.9468734 -4.078237 1.794926 -1.3948818
5.2584047 -5.660034 -9.0674715 -2.8816283 6.0038114 -0.8697433 -1.453179 6.3299046
1.1782931 -0.013467542 -4.2890553 -2.6357102 3.218271 1.7147918 -4.2014904 -1.7136365
4.6380634 0.39941743 2.5812795 3.1427772 0.68808115 -5.525339 6.4134827 0.050151013
1.3922514 -3.5407574 0.5631868 -6.6101913 5.861804 -3.9174376 -2.665782 -0.14360733
4.668908 3.717747 4.363003 2.926562 -4.7234807 -1.1998047 2.468319 -5.4431987
-3.0534275 -4.4761076 -2.7127204 -3.119632 6.1013846 3.043724 2.109931 -0.7025558
-1.4851565 -1.7767162 -8.852295 4.875713 -3.687956 -3.1278107 2.0177157 -8.390929
2.1397235 -0.0032369546 3.0408278 4.5944743 3.7639759 -5.297536 -0.33263877 4.001538
4.6875186 -1.5430031 -7.620551 2.7498002 7.619293 -0.22329494 3.1117036 -8.026914
-0.2144531 5.2252126 -1.5265523 3.356892 -1.169007 0.5043084 -4.135236 3.736377
4.834095 -1.4766382 -0.8245917 2.1338747 -4.315254 -3.5631914 3.0379837 3.6195366
-0.4362805 -4.1561956 -1.8534074 -2.2944763 2.5562856 -1.8709078 -0.43132505 8.389336
3.0676289 -6.692175 2.0832026 3.7941298 -4.339105 -7.522236 -0.18038161 0.63650715
-2.4850473 1.4352044 -0.6450629 4.564342 -6.3758597 0.018280448 0.31996337 1.5923512
5.240486 0.55496985 8.10318 -0.2902441 3.2919786 -3.470966 -1.5359088 -6.2381296
-2.418456 4.537629 5.253266 4.1646276 3.329093 -6.7303686 -2.8234303 -9.885311
2.636668 1.3355526 7.1030517 -3.592509 9.174949 -9.225963 2.9161427 3.692209
-1.8413056 1.0317963 2.5001414 2.4886491 2.7700024 -2.4302938 3.1723871 3.8829188
1.9648438 3.086937 4.421429 -0.23496127 -6.0325766 6.5201926 5.1577435 6.2503886
-0.22423938 0.3159864 1.5101446 1.5442235 3.6110015 1.9282125 -1.071135 0.8115442
-0.9931251 -1.8668438 -9.353062 3.358148 1.428767 -1.4651042 3.7502244 6.557408
4.925628 5.0765247 0.15685827 0.50682855 3.5017948 -3.8619428 4.4027195 -1.9779121
-3.2348466 -2.152573 2.8790314 3.0768726 2.2959182 -8.414337 4.427927 3.8283622
0.43639627 -1.576548 0.80686855 0.18443653 2.245216 -3.7106612 -7.9133854 -4.2416983

fc1.bias f4 [54]
00000000: 9675 12bf ac2c 86c0 0379 61c0 caa0 1dbf
00000010: d561 0ebf bbb5 9dbf 226b b7c0 59f6 253b
00000020: 0ade 8dbf 97cd 52bf c6c9 01bf 73f6 09c0
00000030: 53e0 25c0 126a 86be 3971 cf3f dccb 393f
00000040: c1b8 49c0 25eb 07be e33e 6fbf 1eed cfbf
00000050: e863 a7be 3c8d 17c0 cacb c5bf e77c d53e
00000060: db88 e3bf 4f03 d4bf c34a 54bf 8c51 14c0
00000070: c85c 41bf 5b17 2ec0 a00f 443e 19fe 9ebf
00000080: 0b02 a6c0 7990 4dc0 40ec 02c0 445f 8cbf
00000090: 5c83 a8c0 956f 34bf bfb6 40c0 36b5 13bf
000000a0: 4adf 3cc0 a7d6 4fbf abf8 57bf 4067 b4c0
000000b0: 8b1c 90c0 8791 0ec0 cdff 0dbf f1b0 d6bd
000000c0: 5da7 12c0 ad58 22bd 7c89 14c1 555a bfbf
000000d0: 8d16 73c1 a7d4 90c0
-0.5721067 -4.192953 -3.523011 -0.6157347 -0.5561803 -1.2321085 -5.7318277 0.0025323837
-1.1083386 -0.82344955 -0.50698507 -2.155667 -2.5918167 -0.262528 1.6206428 0.7257669
-3.1519015 -0.13273294 -0.9345533 -1.6244237 -0.3269341 -2.3679953 -1.5452816 0.41696855
-1.777614 -1.656351 -0.8292658 -2.3174772 -0.755322 -2.7201755 0.19146585 -1.2421294
-5.1877494 -3.211943 -2.0456696 -1.0966573 -5.266035 -0.7048276 -3.011154 -0.5769838
-2.9511285 -0.8118691 -0.8436381 -5.6376038 -4.5034842 -2.2276323 -0.55468446 -0.10482968
-2.291465 -0.03963535 -9.2835655 -1.4949442 -15.193006 -4.5259585
