last_checkpt.pth.tar (torch_old, 23110 bytes, 6 tensors)

lstm.weight_ih_l0 f4 [64, 54]
0.037131604 0.17550015 -0.4403344 0.6233202 0.33251768 0.084874116 -0.41767633 1.8582186
0.26063827 -0.14475837 -0.7431209 0.14237149 0.48263758 -0.30364874 -0.38908353 0.4291092
0.8559973 -0.28486192 -0.5428718 1.1818696 -0.4278481 -0.50427914 -0.43266442 0.9094926
-0.75779957 -0.2860979 -0.08751951 0.26313603 1.2707182 0.7145223 0.4793125 -0.26174244
0.45264444 -2.156853 0.25670254 1.097659 -0.7006824 -1.9648263 -0.23306037 -0.23772219
-1.1365173 0.11891483 -0.46598944 0.19749251 -0.012518188 -2.143396 -0.08988492 -1.6166229
-3.8436413 1.5525302 -0.33771712 -1.3299608 -0.19768575 0.70118743 4.581968 4.5639277
3.8651407 4.0694065 4.499683 4.6805444 4.370545 4.314603 4.5393043 4.34012
4.4854293 4.7293224 4.584578 4.7523465 4.542444 4.499449 3.6801715 4.346018
4.3843594 4.1087885 4.370186 4.745479 4.5003467 2.069542 4.3194995 3.9027967
4.9629073 4.364461 4.3665423 4.0495944 4.766608 3.8394716 3.4664614 3.5428646
5.2680044 3.5658484 4.192263 3.9072647 3.488187 3.6070178 4.847478 3.620393
1.5640656 3.0213208 4.102016 3.9572768 4.6177917 3.059288 3.288146 2.1799695
4.164882 3.7047331 -0.1914139 0.85433203 1.9264388 0.9704371 1.1755118 1.3454126
1.8125612 4.1844864 2.2685587 1.3774778 2.007519 1.915624 1.1467247 1.9426172
2.3138115 2.304395 1.7715032 1.4965439 3.0088654 2.1034536 0.978961 0.6947977
3.1007957 0.90218073 1.4034977 -0.094766684 1.5752492 1.486027 0.1684237 3.3221195
-0.77797025 4.3339467 0.84758323 3.455143 3.643508 1.3097612 -0.041579187 -2.1826732
1.7656457 0.648267 -3.0940886 -2.4592009 1.100825 0.5077687 -1.4612234 2.5593283
1.1840445 -6.420855 0.83338374 3.1196802 -1.1463305 -2.7775578 3.5002806 3.2295756
-0.023270769 1.7774191 -2.395687 -4.416992 -0.60589546 -4.4600163 -4.134974 -2.772339
-2.501487 -1.8933281 -2.9870198 -2.5206547 -2.2848134 -3.8464286 -9.248327 -2.6400921
-1.7167081 -4.1873665 2.5198216 -3.479967 -2.8573737 -2.2146199 -1.7425436 -5.0444365
-2.5394804 -4.687892 -3.650948 -3.718068 -3.2643154 4.616542 -0.8070638 -0.5307483
0.18454525 1.6240411 -0.35717458 -1.3418742 -3.8249407 -1.8797988 -0.9819932 9.852452
0.44777143 -0.919505 -1.8909894 6.125557 -0.3552512 1.1969726 9.67832 -5.6484222
-3.7983596 1.1749481 -1.5972311 -1.5613745 -1.2650468 -1.8406872 0.09176491 7.3081484
2.6814942 1.3330638 1.1579452 2.5567605 5.8540034 2.4805515 1.4077407 2.1398172
3.697469 -0.12691592 2.3668005 4.2824726 3.008052 1.8684057 3.2194607 2.5583475
2.159814 6.5822644 2.6512575 -3.8019989 5.2453275 5.109753 2.2513664 6.4625435
3.2117302 2.1881015 -2.2959137 -1.012629 2.4608316 -10.787251 2.0950093 -1.0409423
-2.351755 0.48447666 3.5819738 -3.2175643 2.300507 1.8280408 0.72406834 0.8727496
00000000: 4f17 183d 50b6 333e 8373 e1be ea91 1f3f
00000010: c23f aa3e 7bd2 ad3d acd9 d5be 1bda ed3f
00000020: 6172 853e 8a3b 14be 2c3d 3ebf d5c9 113e
00000030: 461c f73e d977 9bbe f535 c7be 33b4 db3e
00000040: a422 5b3f 6cd9 91be a5f9 0abf 8147 973f
00000050: e80e dbbe 7018 01bf 3186 ddbe 82d4 683f
00000060: 27ff 41bf 6d7b 92be 6e3d b3bd c4b9 863e
00000070: e5a6 a23f efea 363f 7368 f53e 1b03 86be
00000080: 03c1 e73e e109 0ac0 846e 833e 1780 8c3f
00000090: ec5f 33bf 6e7f fbbf 61a7 6ebe 726d 73be
000000a0: 6679 91bf 9e89 f33d 2b96 eebe 7a3b 4a3e
000000b0: 1619 4dbc 662d 09c0 9615 b8bd 80ed cebf
000000c0: 38fe 75c0 4fb9 c63f 42e9 acbe 283c aabf
000000d0: 226e 4abe 0581 333f 7b9f 9240 b20b 9240
000000e0: 775e 7740 9438 8240 67fd 8f40 05c7 9540
000000f0: 81db 8b40 3a11 8a40 fb41 9140 43e2 8a40
00000100: a388 8f40 9c56 9740 ddb4 9240 3913 9840
00000110: b45b 9140 7cfb 8f40 ee87 6b40 9412 8b40
00000120: ac4c 8c40 327b 8340 90d8 8b40 f7da 9740
00000130: d702 9040 6073 0440 5739 8a40 6cc7 7940
00000140: 23d0 9e40 aaa9 8b40 b7ba 8b40 4796 8140
00000150: 0e88 9840 e7b9 7540 81da 5d40 4bbe 6240
00000160: 7e93 a840 dc36 6440 0527 8640 a010 7a40
00000170: 753e 5f40 61d9 6640 8a1e 9b40 85b4 6740
00000180: 4d33 c83f 525d 4140 b743 8340 0644 7d40
00000190: f3c4 9340 60cb 4340 fc70 5240 9f84 0b40
000001a0: b746 8540 591a 6d40 0102 44be 81b5 5a3f
000001b0: 8c95 f63f 916e 783f 2c77 963f 7b36 ac3f
000001c0: 0102 e83f 50e7 8540 1130 1140 3151 b03f
000001d0: 317b 0040 2b33 f53f e0c7 923f aea7 f83f
000001e0: 7d15 1440 357b 1340 9ec0 e23f c08e bf3f
000001f0: 4091 4040 fc9e 0640 309d 7a3f 43de 313f
00000200: 7073 4640 51f5 663f d0a5 b33f 0915 c2bd
00000210: c4a1 c93f 2236 be3f 4377 2c3e 9b9d 5440
00000220: 0f29 47bf b1af 8a40 37fb 583f 1021 5d40
00000230: 3c2f 6940 41a6 a73f f04e 2abd ebb0 0bc0
00000240: ae00 e23f d3f4 253f 8c05 46c0 8c63 1dc0
00000250: d5e7 8c3f 21fd 013f 5e09 bbbf 09cc 2340
00000260: c58e 973f a577 cdc0 a358 553f d7a8 4740
00000270: f5ba 92bf 82c3 31c0 9904 6040 5eb1 4e40
00000280: 57a2 bebc 7882 e33f f052 19c0 0058 8dc0
00000290: f71b 1bbf 74b8 8ec0 b551 84c0 016e 31c0
000002a0: 5d18 20c0 9358 f2bf 552b 3fc0 6852 21c0
000002b0: 623a 12c0 e32b 76c0 26f9 13c1 45f7 28c0
000002c0: 17bd dbbf e8fe 85c0 c244 2140 c8b7 5ec0
000002d0: 36df 36c0 55bc 0dc0 ab0b dfbf 066c a1c0
000002e0: d986 22c0 3603 96c0 22a9 69c0 d3f4 6dc0
000002f0: 8bea 50c0 b6ba 9340 bc9b 4ebf 1fdf 07bf
00000300: 6ef9 3c3e 94e0 cf3f 96df b6be 89c2 abbf
00000310: d4cb 74c0 3f9d f0bf e863 7bbf a5a3 1d41
00000320: 4c42 e53e ae64 6bbf f10b f2bf 9004 c440
00000330: 7ce3 b5be 6636 993f 66da 1a41 e0bf b4c0
00000340: 5318 73c0 b364 963f 1272 ccbf 1fdb c7bf
00000350: 0eed a1bf a39b ebbf 3eef bb3d 5adc e940
00000360: 9a9d 2b40 d6a1 aa3f 8c37 943f f7a1 2340
00000370: ff53 bb40 5bc1 1e40 d930 b43f c4f2 0840
00000380: 55a3 6c40 3ff6 01be a979 1740 040a 8940
00000390: ed83 4040 eb27 ef3f a50b 4e40 f7bb 2340
000003a0: 643a 0a40 e9a1 d240 34ae 2940 f353 73c0
000003b0: b9d9 a740 1983 a340 6316 1040 28cd ce40
000003c0: fd8c 4d40 db09 0c40 40f0 12c0 d49d 81bf
000003d0: 447e 1d40 9598 2cc1 a214 0640 993d 85bf
000003e0: 2783 16c0 530d f83e 0f3f 6540 93ec 4dc0
000003f0: 823b 1340 3efd e93f 8b5c 393f 856c 5f3f

lstm.weight_hh_l0 f4 [64, 16]
-0.28936097 0.12941228 0.30976668 -0.43519473 -0.44629106 0.4359752 -0.346949 -0.04952092
0.7234994 0.29037854 0.40115863 -0.80710953 -0.042248715 -0.00709587 -0.12579635 -0.033104092
-0.0068253237 -3.6627612 0.010154657 -0.39873624 -0.24550058 -1.4090804 1.939908 -0.6454612
0.6885262 0.28601503 -0.20892282 0.6571666 0.68231523 0.045558993 0.024546154 1.5342051
0.8897007 0.79369485 -2.3819983 -0.2588142 -0.12357885 0.004198324 -1.0907308 0.34818462
-4.6721034 0.35861424 1.0193121 0.8290518 -0.26464862 -1.1178523 -0.32523844 0.99121326
1.8472605 -0.41897804 0.072774254 -0.34321913 -0.32452816 -0.55135584 -0.19002503 -0.21153624
0.46429405 -0.1318104 0.044725336 0.062450163 0.07565446 -0.12817113 -0.25386217 0.13251556
0.35783622 -0.9015332 0.12016725 0.18562308 2.1323285 0.15682714 -3.2014165 0.23281777
0.4827678 -0.27903518 -0.110080905 -0.22024673 0.24946569 0.19814466 0.017867802 -1.1812514
0.1677534 -0.51323783 -0.11084527 0.16943023 -0.24130854 3.049065 1.4898 0.19996263
-0.7046818 0.42214313 -0.41033205 0.6039423 1.9800068 -0.039218377 0.3394586 1.0905724
-0.22958867 -0.695979 0.098908834 -0.32285103 -0.0887283 -0.65421396 2.099691 -0.0604293
0.5528367 -0.007965613 -0.09735882 0.819573 0.54427373 0.028485289 0.018243784 -0.28298786
0.5107996 0.92724574 -0.38697615 -0.15083694 -0.19900715 0.4783368 -0.7297294 2.2149756
-2.3368676 -0.11561759 -0.23221274 -0.3649042 -0.4795599 1.1612033 -0.25586483 -1.0146102
1.6289935 -0.47651494 -1.8738884 1.0548525 -0.933917 1.401457 0.67552704 -0.1905261
-1.9628309 -1.7615596 -1.7184701 -1.1439509 2.1860669 -1.1226501 -3.4965556 -0.8458129
0.55665773 0.26015693 -0.16930592 -0.06987417 -0.18259233 0.09289428 1.5362798 0.14618625
0.81603414 0.37151897 -0.41201046 1.4334232 0.109886184 -0.052786477 -0.11906515 -2.353135
0.1243218 -0.3533429 0.8099159 0.72241503 -0.29538608 1.7778895 0.095265806 -0.5200497
-0.27749947 0.0026622082 1.0035384 0.59028834 2.3116682 -0.09091192 -0.7389895 2.7411296
0.08804437 -0.42328963 0.12072295 -0.0298615 -0.074114464 -1.0248849 -1.8429615 -0.18145502
-0.23384012 0.14755066 -0.3864391 0.5054888 1.5544871 0.12267782 -0.25548634 7.0468225
-0.2504174 -0.48589814 0.14423266 -0.18482654 -0.16865861 -0.61662096 -0.037133303 -0.13084064
0.32220736 0.38424912 -0.026671918 0.3966104 4.4970803 -0.015640588 0.03178324 5.1659
0.29704016 0.46354744 0.66344565 -0.17640808 0.32006413 0.933455 -0.07286328 -0.07995827
-1.0962299 0.22549912 -0.0659139 0.29466498 0.060224526 -0.3497867 -0.28596714 0.17687137
0.30190602 0.15157399 0.104177885 -0.22503793 -0.1269579 -1.152505 -0.2302093 -0.16080147
0.066656366 -0.12973455 -0.4392097 -0.37785193 0.09007751 0.052151784 -0.17273979 -3.2581506
0.40126738 -0.5071315 0.55009836 -0.47235313 -0.03197713 -0.22090052 0.29774842 -0.43860063
-0.124863535 0.3691045 0.13858482 1.2198977 2.259687 0.23739283 -0.5172938 0.35015324
00000000: 1f27 94be a784 043e bd99 9e3e d8d1 debe
00000010: 4380 e4be 2438 df3e 4da3 b1be 73d6 4abd
00000020: 4237 393f 7fac 943e aa64 cd3e bb9e 4ebf
00000030: fd0c 2dbd 7984 e8bb c2d0 00be 2898 07bd
00000040: f7a6 dfbb ae6a 6ac0 b85f 263c 2827 ccbe
00000050: 8164 7bbe bf5c b4bf e84e f83f f23c 25bf
00000060: 4143 303f 9070 923e ddef 55be 123c 283f
00000070: 36ac 2e3f 119c 3a3d 0415 c93c d560 c43f
00000080: 6dc3 633f 962f 4b3f a972 18c0 4b83 84be
00000090: e816 fdbd 1892 893b 119d 8bbf 4145 b23e
000000a0: df81 95c0 499c b73e d278 823f bd3c 543f
000000b0: 0680 87be c915 8fbf a785 a6be 27c0 7d3f
000000c0: 0873 ec3f 4a84 d6be ab0a 953d 6bba afbe
000000d0: 8e28 a6be a825 0dbf ec95 42be f59c 58be
000000e0: f3b7 ed3e 4ef9 06be ea31 373d becb 7f3d
000000f0: baf0 9a3d 4b3f 03be 39fa 81be 29b2 073e
00000100: 4f36 b73e e1ca 66bf 3f1a f63d fa13 3e3e
00000110: 1278 0840 4b97 203e 02e4 4cc0 c867 6e3e
00000120: 572d f73e b3dd 8ebe 1972 e1bd 5c88 61be
00000130: ef73 7f3e 6fe6 4a3e 7f5f 923c 3f33 97bf
00000140: 8cc7 2b3e 8e63 03bf d802 e3bd 1e7f 2d3e
00000150: 9619 77be e223 4340 c4b1 be3f 01c3 4c3e
00000160: 0766 34bf 2523 d83e 0b17 d2be f69b 1a3f
00000170: dd70 fd3f 73a3 20bd 85cd ad3e e097 8b3f
00000180: 4b19 6bbe ae2b 32bf b790 ca3d bb4c a5be
00000190: 2fb7 b5bd 917a 27bf 5661 0640 b784 77bd
000001a0: b586 0d3f 3482 02bc 1064 c7bd 89cf 513f
000001b0: 8655 0b3f fb59 e93c fd73 953c c9e3 90be
000001c0: c3c3 023f fa5f 6d3f bd21 c6be 0075 1abe
000001d0: 88c8 4bbe 90e8 f43e 8ccf 3abf 29c2 0d40
000001e0: 3d8f 15c0 eac8 ecbd 2dc9 6dbe b9d4 babe
000001f0: e088 f5be 4fa2 943f b700 83be bfde 81bf
00000200: dc82 d03f c4f9 f3be 93db efbf 6805 873f
00000210: 2f15 6fbf f162 b33f 57ef 2c3f 4619 43be
00000220: 0b3e fbbf c97a e1bf d4f6 dbbf fc6c 92bf
00000230: 85e8 0b40 00b3 8fbf 91c7 5fc0 3287 58bf
00000240: 1f81 0e3f 4a33 853e 885e 2dbe 301a 8fbd
00000250: 7cf9 3abe 5b3f be3d d1a4 c43f d9b1 153e
00000260: 9de7 503f bc37 be3e 09f3 d2be 697a b73f
00000270: 020c e13d a236 58bd 6ed8 f3bd c499 16c0
00000280: 6e9c fe3d 5ce9 b4be a656 4f3f 31f0 383f
00000290: d83c 97be e291 e33f b81a c33d fa21 05bf
000002a0: 6914 8ebe 7178 2e3b f273 803f 231d 173f
000002b0: 5ff2 1340 0730 babd 6a2e 3dbf ab6e 2f40
000002c0: 9b50 b43d 6bb9 d8be 983d f73d 1ba0 f4bc
000002d0: 53c9 97bd 6e2f 83bf 2ae6 ebbf 58cf 39be
000002e0: c973 6fbe 8517 173e 59db c5be b767 013f
000002f0: 6ff9 c63f 823e fb3d 1bcf 82be 927f e140
00000300: b636 80be a4c7 f8be bab1 133e 2b43 3dbe
00000310: d8b4 2cbe dfda 1dbf 1719 18bd 17fb 05be
00000320: 5df8 a43e 4dbc c43e 117f dabc 8510 cb3e
00000330: 15e8 8f40 b120 80bc 252f 023d 0e4f a540
00000340: a615 983e 1756 ed3e 93d7 293f 52a4 34be
00000350: 72df a33e e8f6 6e3f 5839 95bd 29c1 a3bd
00000360: 4351 8cbf 3ee9 663e defd 86bd 54de 963e
00000370: fead 763d 3e17 b3be 496a 92be c51d 353e
00000380: 6d93 9a3e 3636 1b3e 375b d53d 5870 66be
00000390: 4001 02be 4985 93bf fdbb 6bbe 24a9 24be
000003a0: 2283 883d 22d9 04be 18e0 e0be cf75 c1be
000003b0: 8f7a b83d 1c9d 553d b3e2 30be 8a85 50c0
000003c0: eb72 cd3e 5fd3 01bf 3fd3 0c3f 45d8 f1be
000003d0: 73fa 02bd bf33 62be 7b72 983e 4390 e0be
000003e0: 74b8 ffbd 44fb bc3e 2ee9 0d3e 9c25 9c3f
000003f0: b69e 1040 1b17 733e 5e6d 04bf 4947 b33e

lstm.bias_ih_l0 f4 [64]
-1.4707791 -0.22285756 0.012648781 1.5285101 -1.813832 -0.22117847 -0.781924 2.4901173
4.0581994 -0.075325675 -0.34347957 -1.2500716 0.07631872 -1.1694691 -2.3105874 -2.299128
2.312792 3.0356047 1.6380795 2.1485012 2.7650833 2.5911152 3.527322 -1.4899787
0.47539413 2.061988 0.9731948 2.2667167 2.60761 1.4492205 2.7257693 2.771707
-0.63628465 -1.2391416 1.6609268 -2.2702894 -1.1650282 1.3327572 1.0699439 -2.2013884
2.5495617 0.69115573 -1.772028 0.50098926 0.49485224 1.6763536 0.9988455 -0.42024654
0.38446715 2.268267 0.55114424 1.9871689 -0.7536251 2.0018222 2.5150323 0.9142611
1.2502424 2.5289164 1.3667847 1.8669503 3.7183154 0.5182035 0.7206495 4.652371
00000000: 7d42 bcbf c634 64be d53c 4f3c 38a6 c33f
00000010: a62b e8bf 9c7c 62be 2c2c 48bf 155e 1f40
00000020: c5dc 8140 5944 9abd 8edc afbe 5902 a0bf
00000030: fd4c 9c3d 2ab1 95bf aae0 13c0 ea24 13c0
00000040: c904 1440 5947 4240 97ac d13f 0b81 0940
00000050: 20f7 3040 d5d4 2540 a5bf 6140 9fb7 bebf
00000060: dc66 f33e 9df7 0340 4b23 793f e311 1140
00000070: 15e3 2640 0f80 b93f 0173 2e40 a663 3140
00000080: 8de3 22bf 319c 9ebf 4099 d43f 6c4c 11c0
00000090: a51f 95bf ca97 aa3f ecf3 883f 8ce3 0cc0
000000a0: 052c 2340 95ef 303f d0d1 e2bf d540 003f
000000b0: 465d fd3e c192 d63f 57b4 7f3f 8e2a d7be
000000c0: e1d8 c43e 492b 1140 ca17 0d3f 8d5b fe3f
000000d0: 93ed 40bf db1d 0040 4af6 2040 040d 6a3f
000000e0: f107 a03f c4d9 2140 cdf2 ae3f 3af8 ee3f
000000f0: e1f8 6d40 fca8 043f 7c7c 383f 39e0 9440

lstm.bias_hh_l0 f4 [64]
-1.4261047 -0.06746908 0.108135 1.5292258 -1.9237437 -0.30281216 -1.0090342 2.3763707
3.966528 -0.13194503 -0.10120751 -1.3536183 0.07600195 -0.8033863 -2.275756 -2.4146237
2.7245805 3.1212165 1.4571537 2.0282028 3.1745362 2.5878537 3.3088262 -1.2937545
0.49562162 2.0017252 1.2208556 2.1981366 2.6433203 1.471085 2.6493933 2.5926523
-0.42267033 -1.1430472 1.7137847 -2.4789371 -1.0912801 1.6079042 0.58084583 -1.964011
2.935322 0.8613594 -1.8830094 0.46907878 0.27742884 1.7104696 0.77967745 -0.63352084
0.7287938 2.3509338 1.006622 2.1610866 -0.7686102 1.8552179 2.4392571 1.0828369
1.4165932 2.479836 1.3446373 1.9357789 3.9881368 0.39386898 0.66303 4.8911433
00000000: 998a b6bf 3b2d 8abd e275 dd3d acbd c33f
00000010: 3c3d f6bf 320a 9bbe 0828 81bf 7516 1840
00000020: 98db 7d40 991c 07be e245 cfbd 5d43 adbf
00000030: e9a6 9b3d b9aa 4dbf fca5 11c0 3289 1ac0
00000040: 875f 2e40 03c2 4740 0384 ba3f 13ce 0140
00000050: 9a2b 4b40 659f 2540 cfc3 5340 bf99 a5bf
00000060: 1ec2 fd3e 441c 0040 ff44 9c3f 45ae 0c40
00000070: 292c 2940 834c bc3f a98f 2940 04ee 2540
00000080: 3f68 d8be 5f4f 92bf 4c5d db3f e8a6 1ec0
00000090: 11af 8bbf cecf cd3f 50b2 143f b664 fbbf
000000a0: 51dc 3b40 0d82 5c3f 7406 f1bf 182b f03e
000000b0: 270b 8e3e abf0 da3f f198 473f 6c2e 22bf
000000c0: 3b92 3a3f b375 1640 fdd8 803f 3e4f 0a40
000000d0: a3c3 44bf c877 ed3f ca1c 1c40 669a 8a3f
000000e0: ed52 b53f a2b5 1e40 131d ac3f 9ac7 f73f
000000f0: a23d 7f40 32a9 c93e 56bc 293f 3f84 9c40

fc1.weight f4 [54, 16]
2.914159 -3.9332702 -7.469212 2.0467553 2.8875098 -2.0135984 -2.2998571 6.667216
5.3407526 -3.9444072 -4.126622 10.949018 2.0130904 -2.77511 -2.54265 -0.6189115
10.199695 -6.747141 7.076758 -2.1780765 -6.9803677 -4.0398 -1.8938643 7.652232
-2.0715716 2.47856 9.527729 -0.48844042 5.8940578 -2.7671149 4.2810254 -1.1772236
0.6997267 -8.034726 4.491444 8.903759 -2.0962682 7.5323563 3.3618846 -7.4114885
-0.6470945 0.5184507 3.4183288 8.14655 -4.934872 -1.9040065 -4.820744 2.2687042
11.802814 -3.2385309 5.2630167 -2.5618093 -13.387543 6.5315714 3.4019895 -10.181863
-4.9566264 1.980028 -0.24819219 5.225565 2.1942577 -3.0368435 0.642897 -6.1216555
7.956531 -5.2024775 -10.079236 -4.084179 5.2650304 -3.5852532 1.9028958 7.296595
2.2675571 0.065014906 -7.242147 0.66995084 3.932134 -2.4608262 -7.556573 -4.4517055
5.7656403 -2.3470514 3.4497116 4.2076373 4.6419187 -6.3049936 5.963745 -2.694663
-2.7955723 -0.46303827 -2.580195 -8.815566 9.62486 -3.9461393 -4.673768 1.1258005
6.6814227 -2.3123975 4.203974 4.6215734 -8.078893 6.030016 4.2967806 -8.499515
-3.7570739 -0.59749347 -3.5385795 -4.42407 5.973328 1.5834466 -0.39594403 7.896336
-5.4642806 -3.6167526 -8.641442 6.035568 4.488648 1.2076697 3.2617455 -9.129922
0.64583606 -3.0297666 4.5709434 9.712952 3.3091254 -6.42585 -4.0099006 8.198307
8.430095 -3.8498898 -8.423819 4.2473054 4.285318 -1.6457384 4.0165796 -6.939026
0.15749125 3.5871704 0.28926387 3.139314 0.6739818 0.7575724 -5.4029937 13.760862
6.7226353 -3.1450686 2.7457337 2.2774565 -4.733681 -13.385975 4.1490717 6.880137
-1.8257792 0.28829977 -7.5947423 -0.6205923 3.909541 -4.789235 0.32790023 2.6835642
5.40649 -5.363685 5.360653 4.295901 -8.335848 -11.647747 6.2704134 1.2899271
0.007401482 2.7381752 -3.4456916 8.446282 -4.069414 -4.2932267 -2.4637778 4.3436317
7.822803 1.0242447 6.2343073 2.1913743 5.139669 -8.540936 -3.6890163 -4.0528517
-3.8252869 3.5521986 5.625377 4.8115416 5.5285735 -4.8183627 -5.873569 -14.297536
7.4513803 0.59605074 10.136541 -3.7315295 7.2927437 -8.124236 1.6534715 7.438201
-3.8680975 4.138124 4.385335 4.5827727 2.6750417 -2.782158 4.169054 9.460146
5.7757773 1.9550562 -1.4710269 0.98647326 -11.74028 9.447425 5.9070983 6.8526635
-1.7283987 -0.023845838 -5.1506834 2.6421862 1.2873489 0.33780596 -3.5967195 -1.230019
4.112353 -3.5697656 -9.052728 5.769359 4.300321 -6.1641583 6.2944717 7.059855
4.7376494 5.6674614 0.48279867 -0.8614839 4.0679708 -3.2697492 1.4062841 -8.627603
-3.4247932 -4.3076825 7.8953238 0.14087549 7.449457 -11.636519 5.2326436 6.2106614
1.0747995 1.74251 8.56796 3.6079836 4.353857 -7.345076 -8.628615 -7.5622315
00000000: 9581 3a40 b3ba 7bc0 c903 efc0 0afe 0240
00000010: f6cc 3840 ccde 00c0 dc30 13c0 d559 d540
00000020: 72e7 aa40 2b71 7cc0 4a0d 84c0 2d2f 2f41
00000030: 79d6 0040 679b 31c0 c7ba 22c0 fc70 1ebf
00000040: f331 2341 94e8 d7c0 cd74 e240 9b65 0bc0
00000050: 2c5f dfc0 0b46 81c0 256a f2bf 16df f440
00000060: a194 04c0 baa0 1e40 9471 1841 dd14 fabe
00000070: 1f9c bc40 6918 31c0 29fe 8840 43af 96bf
00000080: 4a21 333f 3d8e 00c1 e9b9 8f40 cc75 0e41
00000090: 4229 06c0 1009 f140 1e29 5740 ea2a edc0
000000a0: fca7 25bf 2fb9 043f e6c5 5a40 4558 0241
000000b0: 79ea 9dc0 7cb6 f3bf 8943 9ac0 7332 1140
000000c0: 53d8 3c41 1744 4fc0 a26a a840 aff4 23c0
000000d0: 6033 56c1 a202 d140 32ba 5940 e9e8 22c1
000000e0: af9c 9ec0 8f71 fd3f 1826 7ebe d437 a740
000000f0: b86e 0c40 a55b 42c0 e694 243f 9ae4 c3c0
00000100: e79b fe40 b27a a6c0 8d44 21c1 98b1 82c0
00000110: 217b a840 ca74 65c0 1792 f33f b57d e940
00000120: a81f 1140 8926 853d abbf e7c0 e681 2b3f
00000130: 15a8 7b40 2d7e 1dc0 72cf f1c0 5f74 8ec0
00000140: 2080 b840 1736 16c0 13c8 5c40 f7a4 8640
00000150: 998a 9440 82c2 c9c0 00d7 be40 5c75 2cc0
00000160: a8ea 32c0 5a13 edbe ea21 25c0 8f0c 0dc1
00000170: 6dff 1941 8c8d 7cc0 828f 95c0 3b1a 903f
00000180: 37ce d540 52fe 13c0 f486 8640 eee3 9340
00000190: 2543 01c1 e4f5 c040 3a7f 8940 03fe 07c1
000001a0: e673 70c0 55f5 18bf 1678 62c0 fb91 8dc0
000001b0: 8125 bf40 61ae ca3f 2db9 cabe c9ae fc40
000001c0: 63db aec0 e078 67c0 5943 0ac1 6023 c140
000001d0: 01a3 8f40 ec94 9a3f 70c0 5040 2914 12c1
000001e0: 8355 253f b2e7 41c0 2b45 9240 4068 1b41
000001f0: b6c8 5340 90a0 cdc0 1b51 80c0 442c 0341
00000200: abe1 0641 9864 76c0 f6c7 06c1 ede9 8740
00000210: 5321 8940 8ea7 d2bf d287 8040 800c dec0
00000220: 6345 213e 3394 6540 651a 943e 85ea 4840
00000230: 128a 2c3f 44f0 413f 53e5 acc0 7e2c 5c41
00000240: d41f d740 ce48 49c0 1aba 2f40 d9c1 1140
00000250: 517a 97c0 f42c 56c1 32c5 8440 152a dc40
00000260: 22b3 e9bf 079c 933e 2108 f3c0 23df 1ebf
00000270: eb35 7a40 6a41 99c0 8ae2 a73e 84bf 2b40
00000280: f701 ad40 4fa3 abc0 788a ab40 0578 8940
00000290: a25f 05c1 2c5d 3ac1 3aa7 c840 551c a53f
000002a0: 2288 f23b 433e 2f40 3686 5cc0 f923 0741
000002b0: a438 82c0 1d62 89c0 89ae 1dc0 08ff 8a40
000002c0: 6754 fa40 731a 833f 727f c740 7a3f 0c40
000002d0: 2b78 a440 ada7 08c1 d818 6cc0 f6b0 81c0
000002e0: 80d1 74c0 3957 6340 1703 b440 26f8 9940
000002f0: 13ea b040 0730 9ac0 47f4 bbc0 b5c2 64c1
00000300: b571 ee40 c896 183f 462f 2241 61d1 6ec0
00000310: 285e e940 dffc 01c1 f4a4 d33f be05 ee40
00000320: e98e 77c0 836b 8440 aa54 8c40 13a6 9240
00000330: e233 2b40 e00e 32c0 e468 8540 c25c 1741
00000340: 2bd3 b840 483f fa3f 9c4a bcbf 8389 7c3f
00000350: 30d8 3bc1 a728 1741 f306 bd40 0549 db40
00000360: 2b3c ddbf 5958 c3bc 66d2 a4c0 9419 2940
00000370: d9c7 a43f e7f4 ac3e a730 66c0 4371 9dbf
00000380: 6598 8340 0a77 64c0 f9d7 10c1 979e b840
00000390: 3b9c 8940 c940 c5c0 506c c940 55ea e140
000003a0: d39a 9740 d85b b540 6331 f73e 358a 5cbf
000003b0: d12c 8240 9243 51c0 1e01 b43f a90a 0ac1
000003c0: d02f 5bc0 89d8 89c0 7ea6 fc40 aa41 103e
000003d0: f461 ee40 2f2f 3ac1 d171 a740 bdbd c640
000003e0: 0893 893f 910a df3f 5d16 0941 34e9 6640
000003f0: cc52 8b40 dd0a ebc0 cf0e 0ac1 cdfd f1c0

fc1.bias f4 [54]
-2.7030427 -4.003956 -1.6268008 -3.9375222 -2.305182 -2.7666535 -6.191374 -2.5567796
-1.2712306 -1.2136278 1.7874455 -3.975292 -6.280098 -2.0287058 -0.8850104 -2.7737055
-2.9294877 -0.23991549 -0.6493481 -1.9934113 2.6629136 -3.0194473 -3.2734363 3.2506144
-1.5012792 -1.9566888 -0.4141122 -4.101883 -1.266631 -6.901045 -0.1151431 -1.6251651
-7.594228 -4.7305794 -0.75244445 -1.407157 -5.7302475 -0.4068672 -4.5723825 -0.5713001
-1.857842 -1.8494724 -0.5877441 -7.5245137 -2.5903568 -2.4565384 -0.37084925 -0.3565797
0.30424246 -2.394066 -16.023167 -6.048977 -17.214111 -6.2959194
00000000: a7fe 2cc0 6820 80c0 023b d0bf 5d00 7cc0
00000010: 1a88 13c0 da10 31c0 bc1f c6c0 47a2 23c0
00000020: afb7 a2bf 2858 9bbf 04cb e43f 2f6b 7ec0
00000030: 90f6 c8c0 51d6 01c0 0b90 62bf 6484 31c0
00000040: ba7c 3bc0 68ac 75be ad3b 26bf 1a28 ffbf
00000050: 2d6d 2a40 a03e 41c0 fb7f 51c0 110a 5040
00000060: eb29 c0bf c774 fabf 8406 d4be a042 83c0
00000070: f720 a2bf 5cd5 dcc0 25d0 ebbd 6905 d0bf
00000080: ea03 f3c0 e860 97c0 33a0 40bf b81d b4bf
00000090: 305e b7c0 e650 d0be f550 92c0 b940 12bf
000000a0: c4cd edbf 83bb ecbf 6676 16bf d1c8 f0c0
000000b0: 68c8 25c0 ed37 1dc0 f4df bdbe 9d91 b6be
000000c0: abc5 9b3e 6138 19c0 722f 80c1 3891 c1c0
000000d0: 80b6 89c1 2c78 c9c0
