Checkpoints/Old/checkpt.pth.tar (torch_old, 22846 bytes, 6 tensors)

lstm.weight_ih_l0 f4 [64, 53]
-0.076396525 -0.09941918 0.07314253 0.10786089 0.0012427866 -0.1803489 -0.055265725 0.16421771
0.15705246 -0.14612246 0.23210785 -0.24893335 0.060335428 0.1556285 -0.04236564 0.24638969
0.07021347 0.015149355 -0.2082111 0.20582277 0.21654719 -0.0067098737 0.24715641 0.2382215
0.11966103 0.1932953 -0.0787254 0.087409854 -0.15863466 -0.24452785 -0.18844289 -0.192386
0.1473662 -0.23383066 0.038553268 -0.04868409 -0.08168113 0.21972224 -0.041487247 -0.047278732
-0.0034051836 -0.1913786 -0.17258811 0.038633406 0.2497308 -0.12835065 -0.0914 0.18197918
-0.17223719 0.045159638 -0.20149547 0.22037119 -0.116889596 0.18980503 0.06735453 0.06777483
-0.08169162 -0.20159397 0.09559667 0.19525817 0.05610943 -0.11162004 0.06302139 -0.23829582
-0.1438942 -0.20503145 -0.13373023 -0.037284404 -0.0033064783 -0.13002667 -0.086318195 0.19765887
-0.06687188 -0.21651635 -0.14686567 -0.052940637 0.043860555 -0.05477795 0.062235594 -0.06329018
-0.22201982 -0.13624066 0.05886981 0.23773092 0.047813714 0.2444982 0.016456753 -0.1795004
-0.19752303 0.11265141 0.18105814 -0.11937365 0.116918474 -0.06848219 -0.19560236 -0.23853832
-0.04432392 -0.17889151 0.1273216 -0.1521028 0.06993544 -0.11617005 0.22006798 0.014040709
0.14773095 -0.05820355 -0.060305744 0.10643482 0.005504936 0.23113263 -0.04538542 -0.03853783
-0.06362441 -0.15843996 0.003804922 -0.20465788 0.20105976 0.09867415 0.009752303 0.10748106
-0.091196895 0.091979 0.097950846 0.095600754 0.1572397 -0.1686616 -0.24073762 0.19149056
0.11015192 -0.16374823 0.015507668 -0.2418448 -0.23954087 -0.0067151785 -0.091665894 0.20517308
-0.17961606 0.086791456 0.053234547 0.0027829409 -0.0054368675 -0.21149483 -0.030465692 -0.1601434
0.08617216 -0.15435821 -0.17003512 0.18709052 0.068531066 -0.16465083 0.22471428 0.16386151
-0.16302654 0.10597408 -0.23703226 0.031267077 -0.19346613 0.18611994 0.044163972 -0.021317631
-0.23608759 0.029631078 -0.0963285 -0.06709939 0.13863945 -0.14504752 -0.2096951 -0.18625206
-0.19654706 0.12566373 -0.22151509 0.003933102 -0.22379029 -0.013640791 -0.07196006 0.1004805
0.16526392 0.16132808 -0.028981805 -0.05117467 0.03999853 -0.24283862 0.0060754716 -0.11884165
0.24232855 -0.044356585 0.17009473 0.14098257 0.081718385 0.012419045 0.17986855 0.10199618
0.18046615 0.097417265 0.16076663 -0.1620177 0.0072444677 0.08370742 0.17601594 0.17382896
-0.07882857 -0.22413325 0.013954371 0.08937609 0.08930805 0.024936587 -0.089297295 -0.098071724
0.13615793 -0.02951467 -0.06850037 -0.08116102 -0.0899412 -0.23925242 -0.17510855 0.14344886
-0.22239712 0.12925726 0.032048196 0.24816203 -0.22504586 0.030303478 -0.07048112 -0.15433854
0.113224566 -0.20040622 -0.05796981 0.028184474 0.088367015 -0.0009148717 -0.1276046 0.19036952
-0.24301156 0.071807116 0.05853781 -0.03424245 -0.08639541 -0.2291756 -0.0131468475 0.12893933
-0.12184873 0.16284591 -0.01261428 -0.16951159 -0.13708651 -0.014839143 -0.027161837 -0.11939779
-0.14455235 0.026365519 0.14379251 0.221629 -0.2080923 0.14641973 0.019807875 -0.14810827
00000000: c875 9cbd 489c cbbd c0cb 953d 2ce6 dc3d
00000010: 00e5 a23a 62ad 38be 505e 62bd b028 283e
00000020: 5cd2 203e 20a1 15be aead 6d3e 62e8 7ebe
00000030: 4822 773d 145d 1f3e 9887 2dbd 944d 7c3e
00000040: 14cc 8f3d 0035 783c 4a35 55be 34c3 523e
00000050: 8cbe 5d3e 80de dbbb 9216 7d3e 56f0 733e
00000060: d810 f53d 34ef 453e c83a a1bd f003 b33d
00000070: 2071 22be 8265 7abe 2cf7 40be d600 45be
00000080: 2ae7 163e 4e71 6fbe 08ea 1d3d f868 47bd
00000090: 7048 a7bd defe 603e 88ee 29bd 58a7 41bd
000000a0: 8029 5fbb c0f8 43be f0ba 30be 103e 1e3d
000000b0: 6eb9 7f3e 5a6e 03be ec2f bbbd c058 3a3e
000000c0: f25e 30be 50f9 383d d454 4ebe fca8 613e
000000d0: d063 efbd 405c 423e 2cf1 893d 88cd 8a3d
000000e0: f04d a7bd a66e 4ebe 30c8 c33d c2f1 473e
000000f0: 00d3 653d 0c99 e4bd 5c11 813d d203 74be
00000100: 0059 13be c4f3 51be 94f0 08be 88b7 18bd
00000110: 80b1 58bb b625 05be 98c7 b0bd 1667 4a3e
00000120: 20f4 88bd 76b6 5dbe f463 16be 48d8 58bd
00000130: 20a7 333d d85e 60bd c0ea 7e3d 489e 81bd
00000140: 2a59 63be ac82 0bbe 7821 713d bc6f 733e
00000150: 50d8 433d bc5d 7a3e 50d0 863c f4ce 37be
00000160: 7a43 4abe c8b5 e63d 4e67 393e 2c7a f4bd
00000170: f472 ef3d 6440 8cbd fc4b 48be 6443 74be
00000180: 008d 35bd 562f 37be 9860 023e d6c0 1bbe
00000190: 503a 8f3d 90ea edbd 8059 613e 000b 663c
000001a0: c846 173e d866 6ebd 2803 77bd 80fa d93d
000001b0: c062 b43b 08ae 6c3e 10e6 39bd d8d9 1dbd
000001c0: 844d 82bd 163e 22be 005c 793b d691 51be
000001d0: 9ce2 4d3e ac15 ca3d 20c8 1f3c 081f dc3d
000001e0: 70c5 babd 7c5f bc3d 749a c83d 54ca c33d
000001f0: 7203 213e a0b5 2cbe ec83 76be 1a16 443e
00000200: 5497 e13d 9ead 27be e013 7e3c 2aa6 77be
00000210: 344a 75be 000b dcbb 54bb bbbd e418 523e
00000220: 46ed 37be b8bf b13d 780c 5a3d 0062 363b
00000230: c027 b2bb 1a92 58be 3093 f9bc a2fc 23be
00000240: 087b b03d 1410 1ebe b01d 2ebe a894 3f3e
00000250: 045a 8c3d 3a9a 28be 801b 663e 50cb 273e
00000260: 6ef0 26be f008 d93d 96b8 72be e811 003d
00000270: fc1b 46be 3a96 3e3e 48e5 343d 50a2 aebc
00000280: f2c0 71be e0bc f23c e047 c5bd 686b 89bd
00000290: 80f7 0d3e 5687 14be 50ba 56be dcb8 3ebe
000002a0: a243 49be fead 003e dad4 62be 40e1 803b
000002b0: 4829 65be a07d 5fbc cc5f 93bd b8c8 cd3d
000002c0: f23a 293e 3033 253e 406b edbc 889c 51bd
000002d0: 80d5 233d b0aa 78be c014 c73b 4063 f3bd
000002e0: fa24 783e 40af 35bd 502d 2e3e bc5d 103e
000002f0: f85b a73d 4079 4b3c 762f 383e 60e3 d03d
00000300: 1ecc 383e b482 c73d 02a0 243e f8e7 25be
00000310: 0063 ed3b cc6e ab3d 863d 343e 3800 323e
00000320: e070 a1bd 3083 65be e0a0 643c d00a b73d
00000330: 24e7 b63d d047 cc3c 80e1 b6bd d4d9 c8bd
00000340: fc6c 0b3e c0c8 f1bc ec49 8cbd c037 a6bd
00000350: 1833 b8bd 96fe 74be a84f 33be 42e4 123e
00000360: 12bc 63be 045c 043e f844 033d 301e 7e3e
00000370: 6c72 66be 003f f83c 6858 90bd ec0a 1ebe
00000380: 48e2 e73d 4a37 4dbe c071 6dbd 20e3 e63c
00000390: c4f9 b43d 00d4 6fba c8aa 02be 3af0 423e
000003a0: 06d8 78be 9c0f 933d 58c5 6f3d d041 0cbd
000003b0: 14f0 b0bd 02ad 6abe e065 57bc ac08 043e
000003c0: d48b f9bd 14c1 263e 20ac 4ebc 7294 2dbe
000003d0: 6860 0cbe e01f 73bc 8082 debc d486 f4bd
000003e0: 8805 14be 80fc d73c 583e 133e b6f2 623e
000003f0: 2616 55be 0eef 153e 2044 a23c b2a9 17be

lstm.weight_hh_l0 f4 [64, 16]
-0.06322038 0.18724972 -0.031055897 0.17694217 0.20586395 -0.11260033 -0.22842044 0.074047655
-0.15298867 0.098701775 -0.061884135 -0.17827904 0.13203412 -0.054831564 0.17666095 0.03481844
-0.23593968 0.003989041 -0.100537 0.21217623 -0.16036478 -0.11988628 0.07107052 -0.1678988
-0.15601212 -0.040379107 0.1053887 -0.14797807 -0.05497995 0.10589284 0.07218921 0.003491044
0.19337043 0.21615916 -0.017494857 0.14454034 0.19179797 -0.19810885 0.1465697 -0.18449089
0.11500481 -0.0919328 0.14584786 -0.09916186 0.114055455 -0.2073521 -0.030000031 -0.13373065
0.2176367 0.22361913 0.09966138 0.02284056 0.081582606 0.19459453 -0.043554038 -0.23658964
0.14416483 -0.20269012 0.028191805 0.21272406 -0.23578352 0.172966 0.11576527 -0.044766158
0.12989718 -0.13240051 -0.0043264925 -0.05413574 0.18282458 0.07289156 0.025220275 -0.06335971
0.06680554 0.18544537 0.18624413 -0.24252617 0.13354683 0.037750244 -0.12920544 0.24267
-0.13206947 0.2272239 -0.19042766 0.23352501 0.23294553 0.019624293 0.197288 0.14069715
0.14134353 -0.088740796 0.17802295 -0.19248393 -0.120874524 0.0041195154 0.100877225 0.026711464
0.07605383 -0.11189133 -0.112847865 -0.047891736 0.097731024 0.08670968 -0.115246415 -0.19315925
-0.12037158 0.06464225 0.08745465 -0.20380697 0.19320783 0.24827749 0.17989078 -0.034610033
0.09070325 -0.12824506 -0.19842452 -0.10591382 -0.14000687 0.010282755 0.029091269 0.044740528
0.24424776 -0.17680195 -0.034721762 0.12185085 -0.102137744 0.09959227 0.06640601 -0.23742166
0.18676978 0.17629269 -0.11167753 0.12900108 0.08463037 -0.24875003 0.0883109 0.08589801
-0.20403475 0.04494834 0.080426306 0.23002276 0.11634672 0.16078669 0.14555067 0.23936662
0.19026071 0.17926592 -0.03269902 -0.03545907 -0.119547814 -0.24956587 0.24028087 -0.16751632
0.24111953 -0.0005223751 -0.101911575 0.17787284 -0.07774809 0.08628005 0.17166185 -0.033424437
0.1913515 -0.12347373 0.090129286 -0.01659906 -0.12405622 -0.20759341 -0.1357485 -0.14542964
-0.2096766 -0.1565668 -0.19312292 0.015986979 -0.14612505 -0.21481279 0.07831022 -0.10668519
-0.11910555 0.13110778 0.10995117 0.0011975467 0.083002806 0.22182661 -0.00511837 0.20549482
-0.06823909 -0.20797479 -0.056255907 0.04151085 0.055660874 -0.15793377 -0.08424282 0.03270319
-0.20533615 -0.15342918 -0.06967944 0.22563678 -0.18670842 0.14828116 0.23608673 0.07873207
0.018746942 -0.21470284 0.115495205 -0.24818411 0.18474284 -0.14666405 -0.019389689 0.15334183
0.12537798 -0.081009686 -0.07889357 0.16870546 0.033510834 -0.17394894 -0.1369955 0.21005705
-0.010301858 0.19394869 0.12641564 0.2132898 -0.23355699 0.15708834 -0.23540068 0.16169313
0.2069529 -0.18106467 0.1214374 -0.19646779 0.09040645 -0.21142393 -0.14999983 0.21962795
-0.20308816 0.061286867 -0.12761882 -0.08216801 -0.09930697 -0.055261314 -0.10520339 -0.012304753
-0.2319586 -0.2436561 -0.07162678 0.12144992 0.07172158 -0.111276746 -0.21285689 -0.034537256
0.16244376 -0.0070983768 0.036866754 0.19422129 0.12518963 -0.119794875 -0.08719018 -0.029575706
00000000: b079 81bd 64be 3f3e f068 febc 5430 353e
00000010: 00ce 523e 009b e6bd 0ce7 69be 4ca6 973d
00000020: 10a9 1cbe 2824 ca3d 387a 7dbd c88e 36be
00000030: f433 073e 1097 60bd 9ce6 343e c89d 0e3d
00000040: 2c9a 71be 80b6 823b 58e6 cdbd ba44 593e
00000050: aa36 24be f086 f5bd 6c8d 913d aaed 2bbe
00000060: a4c1 1fbe 9064 25bd 08d6 d73d 9087 17be
00000070: a832 61bd 58de d83d f0d7 933d 00ca 643b
00000080: e602 463e d458 5d3e 6051 8fbc 6202 143e
00000090: b066 443e 0cdd 4abe 5e16 163e 2eeb 3cbe
000000a0: a487 eb3d 4447 bcbd 2459 153e 6015 cbbd
000000b0: e895 e93d 1c54 54be a0c2 f5bc b0f0 08be
000000c0: 28dc 5e3e 6afc 643e 441b cc3d 201c bb3c
000000d0: c814 a73d ca43 473e b865 32bd 8e44 72be
000000e0: f29f 133e 008e 4fbe 80f2 e63c 56d4 593e
000000f0: 3c71 71be 001e 313e 5816 ed3d b85c 37bd
00000100: c403 053e 0094 07be 40c5 8dbb 70bd 5dbd
00000110: 5e36 3b3e 2c48 953d c09a ce3c bcc2 81bd
00000120: 58d1 883d 64e5 3d3e c8b6 3e3e c858 78be
00000130: 80c0 083e 00a0 1a3d 6e4e 04be 7c7e 783e
00000140: 383d 07be 62ad 683e 78ff 42be 2e21 6f3e
00000150: 4689 6e3e 20c3 a03c de05 4a3e ea12 103e
00000160: 5cbc 103e bcbd b5bd a64b 363e 821a 45be
00000170: 108d f7bd 00fd 863b b898 ce3d 00d2 da3c
00000180: 1cc2 9b3d 4827 e5bd c81c e7bd 202a 44bd
00000190: 3427 c83d d894 b13d 5006 ecbd 8acb 45be
000001a0: 6085 f6bd 2863 843d 6c1b b33d c6b2 50be
000001b0: 46d8 453e 743c 7e3e 4a35 383e 40c3 0dbd
000001c0: a0c2 b93d ac52 03be cc2f 4bbe 58e9 d8bd
000001d0: f65d 0fbe 0079 283c d050 ee3c d841 373d
000001e0: 161c 7a3e 920b 35be 6838 0ebd f08c f93d
000001f0: 982d d1bd 08f7 cb3d e0ff 873d aa1e 73be
00000200: 9440 3f3e 1286 343e 30b7 e4bd dc18 043e
00000210: b052 ad3d 54b8 7ebe 58dc b43d 4ceb af3d
00000220: 7cee 50be c01b 383d 8cb6 a43d 168b 6b3e
00000230: 3047 ee3d 44a5 243e 3c0b 153e 861c 753e
00000240: b4d3 423e 7c91 373e 68ef 05bd 883d 11bd
00000250: 7cd5 f4bd 328e 7fbe 300c 763e 6689 2bbe
00000260: 0ae8 763e 00f0 08ba 04b7 d0bd 4c24 363e
00000270: 643a 9fbd 98b3 b03d 20c8 2f3e 10e8 08bd
00000280: a6f1 433e ccdf fcbd b495 b83d c0fa 87bc
00000290: 3011 febd 5e93 54be a801 0bbe 82eb 14be
000002a0: 76b5 56be 0c53 20be 04c2 45be 20f7 823c
000002b0: cea1 15be e2f7 5bbe 1c61 a03d c47d dabd
000002c0: 9ced f3bd 1e41 063e 142e e13d 00f7 9c3a
000002d0: 60fd a93d 8426 633e 00b8 a7bb 3c6d 523e
000002e0: f0c0 8bbd 58f7 54be 986c 66bd 4807 2a3d
000002f0: a8fc 633d 64b9 21be 8087 acbd c8f3 053d
00000300: a443 52be 8a1c 1dbe 18b4 8ebd 540d 673e
00000310: 7e30 3fbe 04d7 173e b8c0 713e 483e a13d
00000320: 3093 993c 10db 5bbe c088 ec3d fa23 7ebe
00000330: 3a2d 3d3e 1a2f 16be 20d7 9ebc a405 1d3e
00000340: 1663 003e 68e8 a5bd f492 a1bd 20c1 2c3e
00000350: a842 093d ac1f 32be 8c48 0cbe 3219 573e
00000360: 20c9 28bc 7c9a 463e 1a73 013e a468 5a3e
00000370: 9029 6fbe c4db 203e e00c 71be e292 253e
00000380: 76eb 533e 0469 39be 2cb4 f83d da2e 49be
00000390: 0427 b93d 847f 58be 8e99 19be 26e6 603e
000003a0: 58f6 4fbe f007 7b3d 82ae 02be b447 a8bd
000003b0: 7461 cbbd b059 62bd e074 d7bd e099 49bc
000003c0: 8e86 6dbe fc80 79be 10b1 92bd bcba f83d
000003d0: c4e2 923d 10e5 e3bd 28f7 59be f076 0dbd
000003e0: a857 263e 8099 e8bb 9801 173d f2e1 463e
000003f0: b631 003e 0457 f5bd c490 b2bd c048 f2bc

lstm.bias_ih_l0 f4 [64]
-0.17869046 0.21060717 -0.057195097 -0.11305687 -0.2227616 -0.0034995377 -0.19592306 -0.10423651
0.14161208 0.011608899 -0.24813578 0.17432389 -0.086648405 -0.0787456 0.24432263 -0.09470022
-0.14114761 -0.13075283 -0.027814448 0.07113451 0.21052596 0.035791248 0.13569883 0.21016201
0.20040232 0.029009402 -0.033803344 -0.15653387 0.019649237 -0.22857401 -0.05010307 0.11317882
0.0678398 0.19115415 -0.14162946 0.21935436 -0.0014037788 -0.13346243 0.21189386 -0.112170994
0.24005556 -0.21674031 0.06748885 0.17900175 0.05478719 -0.13851187 0.11378288 -0.03392735
-0.10979694 0.16723493 0.016655236 -0.2300097 -0.0703938 0.093238324 0.18030298 0.02898115
-0.03393334 -0.15925899 -0.1265629 -0.10264459 -0.2254929 -0.15627486 0.007838845 0.21730587
00000000: a2fa 36be 68a9 573e 6845 6abd 5c8a e7bd
00000010: 9e1b 64be 8058 65bb 0ea0 48be f479 d5bd
00000020: c202 113e 4033 3e3c 4e17 7ebe f681 323e
00000030: b874 b1bd 6045 a1bd b62f 7a3e 30f2 c1bd
00000040: 0089 10be 12e4 05be 20db e3bc f8ae 913d
00000050: 1e94 573e d899 123d a2f4 0a3e b634 573e
00000060: 4436 4d3e 20a5 ed3c 6075 0abd 6a4a 20be
00000070: 70f7 a03c 4e0f 6abe e038 4dbd 4cca e73d
00000080: 98ef 8a3d eabd 433e 5007 11be 6e9e 603e
00000090: 00ff b7ba 60aa 08be b4fa 583e e8b9 e5bd
000000a0: 20d1 753e 2cf1 5dbe 9837 8a3d 3c4c 373e
000000b0: 8868 603d 0ed6 0dbe 0007 e93d 68f7 0abd
000000c0: 38dd e0bd a23f 2b3e 9070 883c aa87 6bbe
000000d0: a02a 90bd bcf3 be3d 58a1 383e e069 ed3c
000000e0: b0fd 0abd ca14 23be b499 01be 5437 d2bd
000000f0: 9ce7 66be 8406 20be 806e 003c 6e85 5e3e

lstm.bias_hh_l0 f4 [64]
-0.03679329 -0.24941081 -0.19229966 0.10659641 0.033091277 0.10141572 0.019893348 -0.21710563
-0.15312925 -0.047121108 -0.12594482 -0.18508509 0.085420996 0.08519554 0.15565157 -0.0040397346
-0.053411484 -0.20677516 -0.18432987 0.0029445589 0.21282011 0.24949592 -0.19755656 0.059512377
0.17819211 -0.085238665 0.051234007 -0.1889239 -0.09114891 -0.22781157 -0.19282955 -0.096637845
-0.22381979 -0.12534988 0.20723891 -0.23713556 0.2251494 0.23125207 -0.2013714 -0.08558756
0.10575408 0.13942766 0.18645939 0.19575155 -0.15604103 -0.14007524 -0.07760504 -0.16713628
0.026858091 -0.15120837 0.17336357 -0.045820624 -0.10100725 -0.20405146 0.09434503 0.01011613
-0.1689252 0.006507188 0.0056183934 -0.24048313 -0.15294725 0.0749833 -0.027174592 0.06700736
00000000: 90b4 16bd 8c65 7fbe 34ea 44be 384f da3d
00000010: b88a 073d 0cb3 cf3d 60f7 a23c f050 5ebe
00000020: eacd 1cbe 1002 41bd aef7 00be f286 3dbe
00000030: 34f1 ae3d 007b ae3d 2063 1f3e c05f 84bb
00000040: 00c6 5abd debc 53be f8c0 3cbe 80f9 403b
00000050: 84ed 593e dc7b 7f3e 444c 4abe 40c3 733d
00000060: fe77 363e 9c91 aebd c0da 513d 4475 41be
00000070: 48ac babd 7047 69be 1c75 45be 10ea c5bd
00000080: 0431 65be b85b 00be 7036 543e aad3 72be
00000090: 908d 663e 58cd 6c3e 4e34 4ebe 8848 afbd
000000a0: 9895 d83d 20c6 0e3e 36ef 3e3e 1873 483e
000000b0: 38c9 1fbe e26f 0fbe 64ef 9ebd c625 2bbe
000000c0: 8005 dc3c 5ed6 1abe 3886 313e 68ae 3bbd
000000d0: e4dc cebd def2 50be f837 c13d 20be 253c
000000e0: bafa 2cbe 403a d53b 801a b83b 3641 76be
000000f0: 349e 1cbe d890 993d 409d debc 283b 893d

fc1.weight f4 [53, 16]
-0.15446204 -0.23802522 0.15407217 -0.17322314 0.04936135 -0.022463113 -0.17998412 -0.23985869
-0.13354936 0.06812987 -0.013498157 -0.14090702 -0.05236587 -0.21338058 -0.16453826 0.10504532
-0.06966153 -0.11095515 0.052509993 -0.086633086 -0.118884206 0.05908397 -0.027165413 -0.09634906
0.002683729 0.1183784 -0.099943906 0.06280199 0.06996593 -0.02242276 0.14058527 -0.13767749
0.014154911 0.2283462 -0.13639516 0.23085174 0.15212789 -0.060519516 0.08357102 -0.024285138
-0.2462255 0.1810582 0.20136794 0.070212066 0.09705299 -0.20657638 0.03741005 0.15643218
0.1664218 0.016123235 0.20748943 0.03984332 0.19954598 -0.13194779 -0.055771947 0.24732038
0.06554714 -0.2020025 -0.07921788 0.052593768 -0.13345534 0.026837885 0.18314967 -0.15926838
0.11263558 0.0814437 -0.21714345 -0.050726265 -0.16479489 0.12767318 0.0021400452 0.17357221
-0.11289999 0.082553744 -0.059749424 -0.104376316 0.08364117 -0.12983382 0.12188876 0.077421576
-0.24546784 -0.093387455 -0.1259867 0.12035057 0.08034536 0.14236549 -0.18904865 -0.045817703
0.17533788 -0.0074447393 -0.029075027 -0.22186184 0.17571384 -0.036586463 0.0018785596 0.146216
-0.0949623 0.20778358 -0.1671935 -0.08935624 0.06349403 -0.027639478 -0.20811361 -0.07398096
-0.21784061 0.17753279 0.24587739 0.012182027 0.032737523 0.023940623 -0.095629156 -0.24958283
0.15846258 -0.16517228 -0.19922656 0.23752627 0.051228583 -0.22765994 0.13336265 0.17766157
-0.24970862 0.21962357 -0.09867659 -0.036593527 0.14805454 0.0004451573 0.0018071234 0.03325233
0.16390374 -0.08528072 -0.0077634156 -0.070251524 0.10141146 -0.2160517 0.001135081 0.005156398
-0.06060061 0.053876847 0.24167183 0.22732386 0.01587686 0.15810746 0.01571861 -0.18175083
0.16848421 -0.13698298 -0.033171773 0.05863762 -0.044892967 0.14396384 0.22951552 -0.159275
-0.12512857 0.19131899 -0.15733162 0.12622121 0.23067406 0.09445307 -0.16140243 0.019092262
0.0012269318 -0.10614559 -0.17664966 0.013450801 -0.0412322 0.10905215 0.24446332 -0.1864937
0.11597788 -0.20541677 -0.23263171 0.051273227 0.09775135 0.16416016 -0.21134114 0.18757474
-0.026165307 0.010463953 -0.04877889 0.15216064 0.2235859 0.039031863 -0.102050275 0.17869848
-0.008738756 -0.1956853 -0.14665157 -0.2173894 0.034867555 0.14318606 -0.20626074 0.09327525
-0.1987808 -0.23152435 0.020091593 0.18219319 -0.17152137 0.20277083 0.01269266 0.11266795
0.12970898 0.20131567 -0.18144473 0.23421502 0.091943085 0.112755686 -0.044753492 0.2311475
-0.13346031 -0.076776624 0.20855308 0.16684404 -0.13662559 0.13940436 0.098029196 0.18050212
-0.21945617 -0.050005317 0.23759013 -0.16942418 0.09385395 0.023644656 0.19175977 -0.092282414
0.01232028 0.12736812 0.11225018 0.23157886 -0.077661306 -0.15524086 0.07063195 0.027846694
-0.11149824 0.09769374 -0.087581754 -0.077674866 0.1329372 0.13761231 -0.024711907 0.21077257
-0.23024717 -0.045811474 0.041656107 0.23793948 -0.23995453 -0.22304615 0.026535213 -0.060483247
-0.24630243 0.058443874 -0.07913977 0.04735771 0.069553405 0.08055332 -0.12973127 0.052645147
00000000: 4c2b 1ebe e2bc 73be 18c5 1d3e 6861 31be
00000010: 202f 4a3d 9004 b8bc c24d 38be 849d 75be
00000020: 2ac1 08be ac87 8b3d 6027 5dbc ee49 10be
00000030: 987d 56bd 7080 5abe b87c 28be 0022 d73d
00000040: b4aa 8ebd 743c e3bd b814 573d b06c b1bd
00000050: 9079 f3bd 0802 723d 008a debc a852 c5bd
00000060: 80e1 2f3b 6070 f23d 64af ccbd 549e 803d
00000070: 4c4a 8f3d f0af b7bc 96f5 0f3e 54fb 0cbe
00000080: 00ea 673c 96d3 693e 2cab 0bbe 6664 6c3e
00000090: 6ac7 1b3e 50e3 77bd 4827 ab3d a0f1 c6bc
000000a0: 8a22 7cbe 5267 393e 6633 4e3e 58cb 8f3d
000000b0: b8c3 c63d c288 53be 483b 193d c22f 203e
000000c0: 7a6a 2a3e e014 843c 1c78 543e c032 233d
000000d0: c855 4c3e 521d 07be 2071 64bd 8e41 7d3e
000000e0: 943d 863d bed9 4ebe fc3c a2bd 906c 573d
000000f0: 84a8 08be 20db db3c 968b 3b3e 4017 23be
00000100: 7cad e63d f4cb a63d da5a 5ebe 58c6 4fbd
00000110: febf 28be c2bc 023e 0040 0c3b eabc 313e
00000120: 1c38 e7bd f011 a93d d0bb 74bd 40c3 d5bd
00000130: 104c ab3d 28f3 04be d0a0 f93d 348f 9e3d
00000140: ec5b 7bbe ec41 bfbd a802 01be 5c7a f63d
00000150: 1c8c a43d 42c8 113e f895 41be 58ab 3bbd
00000160: c68b 333e 00f3 f3bb c02e eebc c02f 63be
00000170: 54ee 333e b0db 15bd 003a f63a a6b9 153e
00000180: 987b c2bd 38c5 543e c634 2bbe 6800 b7bd
00000190: 2809 823d 306c e2bc bc1b 55be 5483 97bd
000001a0: 9c11 5fbe 28cb 353e 48c7 7b3e 2097 473c
000001b0: c817 063d 201f c43c 38d9 c3bd a492 7fbe
000001c0: 0444 223e ec22 29be 0c02 4cbe 163a 733e
000001d0: 10d5 513d b01f 69be 3890 083e eaec 353e
000001e0: 9eb3 7fbe 00e5 603e f416 cabd 18e3 15bd
000001f0: 9c9b 173e 0064 e939 00dd ec3a 9833 083d
00000200: 62d6 273e a8a7 aebd 4064 febb 08e0 8fbd
00000210: d0b0 cf3d a83c 5dbe 00c7 943a 00f7 a83b
00000220: 5838 78bd f8ad 5c3d d278 773e 96c7 683e
00000230: 3010 823c ece6 213e 50c4 803c e41c 3abe
00000240: 2087 2c3e 4445 0cbe 20df 07bd 002e 703d
00000250: b0e1 37bd 426b 133e 1e06 6b3e fc18 23be
00000260: b421 00be 20e9 433e 8a1b 21be 2240 013e
00000270: d235 6c3e 9c70 c13d ae46 25be 6067 9c3c
00000280: 00d1 a03a dc62 d9bd a6e3 34be c060 5c3c
00000290: 18e3 28bd bc56 df3d 9854 7a3e 34f8 3ebe
000002a0: d085 ed3d c658 52be 0237 6ebe e003 523d
000002b0: dc31 c83d 9a19 283e d069 58be 9813 403e
000002c0: a058 d6bc 0071 2b3c 60cc 47bd 00d0 1b3e
000002d0: b4f3 643e e0df 1f3d bcff d0bd bcfc 363e
000002e0: 002d 0fbc ba61 48be d42b 16be 549b 5ebe
000002f0: 48d1 0e3d 5e9f 123e 0436 53be 1807 bf3d
00000300: 328d 4bbe b814 6dbe 2097 a43c da90 3a3e
00000310: 4ca3 2fbe 28a3 4f3e e0f4 4f3c 74be e63d
00000320: 6ed2 043e b225 4e3e a6cc 39be 10d6 6f3e
00000330: a84c bc3d 74ec e63d 704f 37bd eeb1 6c3e
00000340: d2a9 08be 103d 9dbd f08e 553e 2ad9 2a3e
00000350: 94e7 0bbe 04c0 0e3e 88c3 c83d 8cd5 383e
00000360: 1eb9 60be 60d2 4cbd d44a 733e 887d 2dbe
00000370: 8036 c03d 70b2 c13c ac5c 443e 90fe bcbd
00000380: 00db 493c ca6c 023e 6ce3 e53d 0223 6d3e
00000390: e40c 9fbd 76f7 1ebe 7ca7 903d c01e e43c
000003a0: 3059 e4bd a813 c83d 105e b3bd 0014 9fbd
000003b0: b020 083e 3eea 0c3e a070 cabc c4d4 573e
000003c0: eac5 6bbe d0a4 3bbd 989f 2a3d 68a6 733e
000003d0: a4b6 75be 3666 64be 6060 d93c 48bd 77bd
000003e0: b436 7cbe d862 6f3d 0814 a2bd 28fa 413d
000003f0: 0472 8e3d 24f9 a43d 46d8 04be 70a2 573d

fc1.bias f4 [53]
-0.23403654 -0.0028616786 -0.08834937 0.08093265 0.1949186 -0.0404467 -0.19060543 -0.1413289
0.0021447241 -0.016637236 -0.09702593 0.13812089 -0.009554654 -0.21933171 -0.023748934 0.031198502
-0.20084712 0.08061856 0.22237435 0.044835478 -0.14925846 0.1441248 -0.20404956 -0.09690696
0.013593465 -0.019298732 -0.1368891 0.09460023 -0.081161946 0.057753205 0.23057425 -0.24830925
0.09488824 -0.08665839 0.13259107 -0.18158668 -0.023130536 0.042274475 0.2447662 -0.23735109
-0.24165317 -0.011535853 -0.083203286 0.0020621717 -0.14386642 0.23964432 0.038750023 -0.23728877
0.045074612 0.04984194 -0.04292512 -0.079445034 -0.077385485
00000000: 46a7 6fbe 008b 3bbb 84f0 b4bd 04c0 a53d
00000010: be98 473e 70ab 25bd 122e 43be 86b8 10be
00000020: 808e 0c3b d04a 88bc 88b5 c6bd 906f 0d3e
00000030: 208b 1cbc 7e98 60be 208d c2bc 0094 ff3c
00000040: deaa 4dbe 581b a53d 1ab6 633e 68a5 373d
00000050: 36d7 18be 7495 133e 5ef2 50be 2877 c6bd
00000060: 20b7 5e3c 6018 9ebc a82c 0cbe c4bd c13d
00000070: 3c38 a6bd a08e 6c3d a81b 6c3e c844 7ebe
00000080: c454 c23d f479 b1bd f4c5 073e dcf1 39be
00000090: 407c bdbc 0028 2d3d fea3 7a3e 2a0c 73be
000000a0: ee73 77be e000 3dbc 7c66 aabd 8025 073b
000000b0: b851 13be 5265 753e 58b8 1e3d d4fb 72be
000000c0: 28a0 383d 1027 4c3d 40d2 2fbd 14b4 a2bd
000000d0: 487c 9ebd
