Checkpoints/Old/first_name_checkpt.pth.tar (torch_old, 23110 bytes, 6 tensors)

lstm.weight_ih_l0 f4 [64, 54]
00000000: 9a07 d8bd fef7 9bbe 2e27 fd3e f09f 103f
00000010: 45f4 60be dd57 07bf 79d7 163f 9b94 1c3f
00000020: e7ec b63c e38e cfbd b48c 3f3e a4a1 2bbe
00000030: cbd8 733f e06e 03bf 4dcf 21bf b7a3 453e
00000040: b4ef 5c3e 5de7 643f d145 1cbf adfb 83bf
00000050: 83d9 b83e bfed 4ac0 69f0 a23d 9b48 ed3e
00000060: ac19 debe cbf4 c43d c9c5 503f abce acbd
00000070: 2b06 a13f 537a 85be dadf 663f 7eda 01be
00000080: 1671 423e 0e15 27bd b985 19bd 0d51 03c0
00000090: ca6e a4bf 670e 8d3f 8cb1 ec3f eb4d 6fbe
000000a0: 210b 3bbe 3871 4fbf 0a8c 2b3e 4ca7 d33d
000000b0: 9660 8d3e 7482 c6bf 29c9 8b3b 1694 70bf
000000c0: 25cb 4c3f 91f5 f13d 0e2f 2abf 07a2 053f
000000d0: 18c4 2e3d 8c4f 9fbe 61a7 acbe c56d 223f
000000e0: 7971 423f 38cc 33bf c3ca 833e 1344 33bf
000000f0: c316 abbe 2a2e de3e 7c4c 203f 5b5b 743c
00000100: d06a ed3e 11a6 2f3f ae5f f03d be53 adbf
00000110: cfcb 5e3d dd9b 333f 84db ec3d 5ad1 053f
00000120: 950e e93e 88dd 45bf bbd5 103f 6f23 233f
00000130: 389f b1bd a2d7 85be 4954 89be d77f be3d
00000140: 3316 bfbe 6b01 c5bf 1e8f 373e ee47 aabe
00000150: fa62 8a3e 0995 23be 2123 acbf 4130 203f
00000160: 2bd0 01bf 52ce a4be f88e 26bf a35d 413e
00000170: 10b7 793e ab93 eb3d c372 1e3f b62e 063f
00000180: d09b dfbc 7b67 a33f 6bcb 6fbf e0d7 a53f
00000190: 2f77 373f 4896 abbf 6707 4d3f 1896 5cbe
000001a0: 5f19 dd3e f0b6 263f 60e4 113c d233 72bf
000001b0: 4736 1b3f 8831 d2be 4f86 2bbf b067 9abd
000001c0: a864 89be 6a76 3d3e 7dd8 b1be 84f3 ab3f
000001d0: b872 1cbd 582c 143e 041f 813d c793 853f
000001e0: c4d0 ad3e 5ee4 b03e 9703 6a3f 1ebe c1bf
000001f0: 8a13 2c3e 4199 783f e5f9 c03d 51ec 7abe
00000200: b47c ee3e 7144 343e 1031 573e d7b6 b2be
00000210: 7c32 153f 7465 bd3e 8844 1d3f c350 f03f
00000220: 9556 41bf 1e85 883d d3f2 af3e 7de6 08c0
00000230: fbca 8fbe b81f 9e3f 4c04 293f 7f73 c53f
00000240: eed1 eebe 3eb3 eebe 6d9e 513f f35f d23f
00000250: c015 1bbe 9ed8 70bf 4cdb 2e3e ffb6 b63f
00000260: e942 d9be 6a8d b7be b0ba dabd 8fff 023f
00000270: 38d3 243e b2d2 823e 7880 373f 09af 5bbf
00000280: 6cc4 16be f5cf 5d3f 45ba f23e 6a32 a83e
00000290: 8970 47bf ee6e 9fbd fc80 f8bf d6c9 f73c
000002a0: b960 5a3e 464f 1e3e 1b06 7b3e 2266 efbd
000002b0: cedf 113f bba3 5dbe 526a 053e ae72 14bf
000002c0: e509 783f 9356 1d3f dc80 5cbe a53d a73f
000002d0: 2e88 8abe 2f9d 873e 1c36 1240 8079 6e3d
000002e0: 5672 e33b fa6d afbe 1ce0 323e 23b0 683d
000002f0: bbf1 5d3f 79ef 173f 82c0 e23e 3e4c e2bd
00000300: f62b e2be 8684 8fbf 8def 0440 e81e f13e
00000310: c2b5 29bf 2060 b9bf c0e8 7dbf ae98 293e
00000320: 13da cabe 407b a7be 06b0 523e 9d6d a73e
00000330: 280f 673d ab06 903f 1155 44bf e287 87bf
00000340: 2924 073d 7acf b63e e75e 2b3f 2e3b 9a3e
00000350: 4cd4 463e a7ad 6cbb d802 543e e62f 29bf
00000360: 6cd9 513e 0a55 c73e 6d6c 10bf a758 02bf
00000370: 715e 9e3d ea59 683e fc2d 09bf 26cc 823c
00000380: a638 14bf cc67 a9bc 0974 023e 772f 7f3f
00000390: 2844 23be f4e6 f43e 88ec 593e 3119 043f
000003a0: c037 b9bb 8c74 8f3e ae25 2f3f fd3a a73f
000003b0: 53e0 3abe 8d68 223f 2e4a 853e af09 313f
000003c0: a074 603e 66e0 463e 8466 0e40 b0b8 1840
000003d0: 1b97 b73f 7a60 893d ffe7 1540 ac36 d83f
000003e0: 27cf b5bf 31dd e0bf 8433 f23e 9bf3 02bf
000003f0: 1323 803f 3dd2 6ebf 3d70 c5bf 8946 0c3f
-0.10548325 -0.3046264 0.49443954 0.56494045 -0.21968181 -0.52868444 0.58922535 0.61164254
0.02232976 -0.10134675 0.18706018 -0.1676088 0.95252675 -0.51341057 -0.6320694 0.19300734
0.21575814 0.8941553 -0.6104403 -1.031118 0.36103448 -3.1707609 0.07956011 0.46344456
-0.4337896 0.09617003 0.81551796 -0.08437856 1.2580007 -0.26069888 0.9018532 -0.12681004
0.18988451 -0.040791564 -0.037481043 -2.051822 -1.284631 1.102002 1.8491683 -0.23369567
-0.18265964 -0.81032133 0.1675264 0.10334644 0.27612752 -1.5508561 0.0042659235 -0.9397596
0.79997474 0.11814416 -0.6647805 0.5220036 0.04266748 -0.31115377 -0.3372145 0.63448745
0.75954396 -0.7023349 0.25740632 -0.7002575 -0.33415803 0.43394595 0.62616706 0.014914359
0.46370554 0.6861277 0.117369995 -1.3541181 0.054393586 0.70159703 0.11565307 0.5227257
0.45518938 -0.77291155 0.56576127 0.6372594 -0.08672947 -0.26141077 -0.26822117 0.09301727
-0.37321624 -1.5391058 0.17925689 -0.33258003 0.27028638 -0.15974821 -1.344822 0.6257363
-0.50708264 -0.3218866 -0.65061903 0.18883376 0.24386239 0.11502775 0.6189386 0.52415025
-0.027295977 1.2765955 -0.93669766 1.2956505 0.71666235 -1.3405237 0.8008942 -0.21541631
0.4318342 0.6512289 0.0089045465 -0.9461032 0.60629696 -0.41053414 -0.67001814 -0.07539308
-0.26834607 0.18502203 -0.3473548 1.343369 -0.03819534 0.14470041 0.06304744 1.0435723
0.33948338 0.3454923 0.9141173 -1.5136144 0.16804329 0.97108847 0.094226636 -0.2450421
0.46579516 0.17604233 0.2101481 -0.3490512 0.5828016 0.36991465 0.61432695 1.8774647
-0.7552274 0.06666015 0.34364948 -2.139068 -0.2808455 1.235343 0.6602218 1.5425872
-0.4664454 -0.46621126 0.81882364 1.6435531 -0.15145016 -0.9408053 0.17075843 1.4274596
-0.4243386 -0.35850078 -0.10680139 0.511712 0.16096199 0.25551373 0.716804 -0.8581396
-0.14723366 0.8664544 0.47407737 0.32850963 -0.7790609 -0.0778483 -1.9414363 0.03024761
0.2132596 0.15459928 0.24514048 -0.11689402 0.56982124 -0.2164449 0.13028839 -0.5798749
0.968901 0.61460227 -0.21533531 1.3065687 -0.27057022 0.2648711 2.2845526 0.05822134
0.00694112 -0.34263593 0.17468303 0.056808602 0.86696976 0.5934978 0.44287497 -0.11049698
-0.44174165 -1.1212318 2.077121 0.47093892 -0.66292965 -1.448246 -0.99183273 0.16562149
-0.39619502 -0.3271122 0.2057496 0.32700816 0.05641094 1.1252035 -0.766923 -1.0588343
0.03299347 0.35705167 0.66941684 0.30123276 0.19416922 -0.0036114247 0.2070421 -0.6608871
0.20493096 0.38932067 -0.56415445 -0.5091652 0.07732857 0.2269055 -0.5358579 0.015966486
-0.5789894 -0.020679377 0.12739576 0.996818 -0.15943968 0.47832453 0.21281636 0.5160094
-0.005652398 0.28018606 0.6841687 1.3064877 -0.18249635 0.6344078 0.26033157 0.691554
0.21919489 0.19421539 2.225007 2.3862724 1.4342989 0.067078546 2.342285 1.6891685
-1.4203843 -1.7567502 0.47304928 -0.5115296 1.0010704 -0.9328955 -1.5424877 0.5479513

lstm.weight_hh_l0 f4 [64, 16]
00000000: f98a 213f 5a5d efbe c54b 0cbf 8f5d af3e
00000010: a757 103e 7b43 8dbf 3119 0f3f 45d9 a3be
00000020: 5aa0 4c3f 94da 5ebe f717 bebe bc77 e4bd
00000030: 801d 843e 3e67 19be b42d 27bf 29ab 793e
00000040: c1d6 dcbd 0f94 5dbe 0ca2 873e 4584 21bc
00000050: 0ceb da3e 8ab4 593e 6a06 073d 5cdc 35be
00000060: b2bd d03e d316 10bf 6c9d 293e 36ef c0bd
00000070: e2f2 913e c662 8f3e 45b5 2d3e 0e91 593e
00000080: 63d3 70bf d626 5fbc 6021 e63e c3b2 8a3e
00000090: 38da b3bf e2d6 acbf 6668 a73d c017 39bf
000000a0: 2b73 0e3f 5503 aebf 8ba7 2c3e baa8 ca3d
000000b0: ffe2 2a3c 208c 5f3e 211c 073f 2aa9 4a40
000000c0: 4da2 063f c1e4 4dbe 915c ed3e 6f68 083f
000000d0: 2195 c93d 2db2 2a3e 477b e2bd e241 093e
000000e0: 53fd 63bf b65b ab3e 1c52 5e3e 62ed c0be
000000f0: b657 6e3e 4188 a83d fd27 a0bb 2d64 ad3e
00000100: 4f86 a7bf 1e8f edbf e51a 5bbf 3dcc 9d3f
00000110: c0ae 4e3f ade3 1bbf fbbf 923d 522c 26be
00000120: 9ad0 b43f 7372 ac3b 43cd 81bf ac6a 86be
00000130: 6944 de3f 1c27 903e 7b50 9bbf fd7b 90be
00000140: 4fc4 df3e deae 3abf 3a0e 983e f078 223e
00000150: 2437 4a3e 630c 5d3f 585b 3a3e 0a5a 3fb9
00000160: d110 83be 0eaf 303f a75f e13e e329 fdbd
00000170: 463b bf3d 457e 6abd c881 283d 58d9 5dbe
00000180: 4bf9 433f b9b5 80bf 9f97 3dbf 8008 0ac0
00000190: 7e97 653f 9686 cb3e f32b ebbe cdd5 b4be
000001a0: 73a6 ac3f b77d a6bf daa4 36bf c4a4 073e
000001b0: 4894 6c3f 4c51 5abf 0319 60bf 7e96 0a3f
000001c0: c433 c3bd 0e74 a1be 9083 07bf 07ee 233d
000001d0: fe63 43bf e556 9abf 7223 9abe 6b0d bbbf
000001e0: 25ef f83e be07 c6bf 0b56 80bf bf2f 2d3f
000001f0: 8c16 c93e d20e 513e 5c85 08bf 658f b73e
00000200: cddd 90bf 1550 513e ad34 d7bd 91fb aabe
00000210: 22d1 353e 4ce4 94be fe92 51bf e51b 08be
00000220: 5f01 183f bbfb 8ebf e845 a3be b490 be3f
00000230: c0b4 cebd 2396 e03f a32d d33e bce7 4e3f
00000240: fe63 a23f 5fc2 6d3d 6835 0bbe e875 e1bd
00000250: fa1f fc3c 1bb7 72bf 30a9 07c0 34f8 fdbd
00000260: 128f 843f 4f5c 25c0 4484 6ebf 787b 3b3f
00000270: cc0d 233e 9323 8e3f 7840 8dbf ddc2 a23f
00000280: 99b1 383f 91b0 26bd ef4a 973e 6687 113e
00000290: 69ab bebe 4019 d5be 4c0e 3cbe d154 24be
000002a0: 4e9c 8c3e d38a 14be e818 c53f 1889 4cbe
000002b0: 0d0e 203e 54f0 273d 63d2 ad3d 0183 bdbe
000002c0: 8d63 2e3f b610 963d b672 88be f543 9dbf
000002d0: 4d38 5ebe 60be 9dbd a333 32bf 3b7b 23bf
000002e0: fda8 bf3f 834a 94bf fb39 0cbf 0e74 c43f
000002f0: bf33 893f 007f 62be eb1c 4abf 01b5 ac3e
00000300: fcfe 843f d1ad d53d 83b6 18be b015 703e
00000310: 7960 f0bc 6dbc 97be 004a 0ebf c5e3 00be
00000320: 28a3 543d a2dd c3be 477a 8abe 52c9 fc3e
00000330: 616c 5abe 6fe2 803d fe8d c3bc 675c 463e
00000340: 6a4a d23d 290c 49bf 0e81 a73e abe6 223f
00000350: b4d2 373f aec2 7abf 0804 a73e ba33 10be
00000360: 9610 053f 2115 d2bf bf92 d83e ec99 12be
00000370: edc6 513f c22c 0fbf 1ec6 0bbd 4dba 973d
00000380: 2123 f4be ad7c 913f b4a1 afbd 6207 72bd
00000390: 4c77 d5bc 9062 4abd c12b 843e 8f2c b4bf
000003a0: eb63 293f ca9c 8abf cadb a9bf 2f10 143f
000003b0: 62c3 69be ee06 46be b58e 75bf df22 e43d
000003c0: febb 523f 6548 20bf bc35 d53d 5bf3 b13e
000003d0: e56e 87bf d274 f0be 8244 aabe 0ec4 9cbf
000003e0: 9d9a fe3e a726 d9bf 56d4 d2bf d39e da3e
000003f0: 1fb4 cd3e 7340 833e 32d9 65be 2d36 d43e
0.6310268 -0.4675091 -0.54803115 0.34251067 0.14095937 -1.1036218 0.55897814 -0.320017
0.7993218 -0.21763068 -0.3712766 -0.1115565 0.25803757 -0.1498079 -0.6530411 0.24381699
-0.107831486 -0.21638511 0.2649082 -0.009858196 0.42757452 0.21260276 0.0329651 -0.17759842
0.40769726 -0.56284827 0.16563958 -0.09420626 0.28505617 0.28005046 0.1696368 0.2124674
-0.9407255 -0.013620099 0.44947338 0.2708951 -1.405097 -1.3503077 0.08174209 -0.72301865
0.5564448 -1.3594767 0.16860788 0.09895463 0.010430097 0.21830797 0.52777296 3.166575
0.525914 -0.20106794 0.46359685 0.53284353 0.09842897 0.16669531 -0.110586695 0.13404039
-0.8905842 0.33468407 0.2171101 -0.3768111 0.23275647 0.08229113 -0.0048875795 0.3386549
-1.3087863 -1.8559301 -0.8558791 1.2327954 0.807354 -0.6089428 0.071655236 -0.16227844
1.412616 0.005262667 -1.0140766 -0.2625326 1.7364627 0.28154838 -1.2133936 -0.28219596
0.4370446 -0.72923076 0.29698354 0.15866446 0.19747597 0.86347026 0.18198907 -0.00018248722
-0.25598767 0.6901711 0.4401829 -0.12361505 0.093374774 -0.057249326 0.041139394 -0.21664941
0.76552266 -1.0055457 -0.7405948 -2.1567688 0.89684284 0.39751118 -0.45931968 -0.35319367
1.3488296 -1.3007115 -0.71345294 0.13246447 0.9241376 -0.852803 -0.87538165 0.5413588
-0.09531358 -0.31533855 -0.52935123 0.040021922 -0.7632445 -1.2057768 -0.30105168 -1.461347
0.48619953 -1.5471113 -1.0026258 0.6765098 0.39275014 0.2041581 -0.5332849 0.3585159
-1.1317688 0.20440705 -0.10508094 -0.33395055 0.17755559 -0.29080427 -0.8186492 -0.13291891
0.5937709 -1.1170572 -0.31889272 1.488791 -0.10093069 1.7545818 0.41245756 0.8082235
1.2686765 0.058046695 -0.13594592 -0.11008817 0.030776966 -0.94810647 -2.1197014 -0.124008566
1.0356162 -2.583759 -0.9317057 0.73235273 0.15923232 1.1104606 -1.1035299 1.2715718
0.7214599 -0.04069573 0.29549357 0.14211807 -0.3724015 -0.41620827 -0.18364829 -0.1604798
0.27463 -0.14506082 1.5398226 -0.19974172 0.1563036 0.04100068 0.08487394 -0.3701401
0.6812065 0.07327406 -0.26650017 -1.2286364 -0.21701165 -0.07702327 -0.6961004 -0.6385991
1.4973446 -1.1585239 -0.5477597 1.5347917 1.0718917 -0.22118759 -0.78950375 0.33731845
1.0390315 0.104335435 -0.14913373 0.23445773 -0.029342877 -0.29635945 -0.55581665 -0.12586887
0.05191341 -0.3825503 -0.27046415 0.49372345 -0.21330406 0.06293189 -0.023871418 0.19371186
0.102680996 -0.7853418 0.32715648 0.6363322 0.7180588 -0.9795331 0.32620263 -0.14082232
0.51978433 -1.6412698 0.42299458 -0.14316529 0.8194416 -0.5592767 -0.034124486 0.07408581
-0.4768305 1.1366173 -0.08575764 -0.059089072 -0.026057862 -0.049410403 0.25814632 -1.4076098
0.6616809 -1.0829098 -1.3270199 0.57837194 -0.22828439 -0.19338581 -0.9592088 0.11139464
0.82318103 -0.62610465 0.1041064 0.34755978 -1.0580717 -0.46964127 -0.33255392 -1.2247331
0.49727336 -1.6964921 -1.647105 0.42699298 0.40176484 0.25635108 -0.22446135 0.41447583

lstm.bias_ih_l0 f4 [64]
00000000: 359a d03d 8820 bbbe eef0 863f 6827 963e
00000010: ff54 563f 60c9 fdbe 479d 483f e6bc 3f3f
00000020: 2e2d 613f 44df 523f 83d4 abbd 4a4a 013f
00000030: 348f 36be 8ba0 91be 8746 9b3f b114 bebd
00000040: 6b02 993f ace6 8f3f f21c bf3d cfa4 5a3f
00000050: dddc 833e fbf9 d43f 8509 d13d 6e33 353f
00000060: a70d 67bd 7999 383e 5216 9e3f 3ebd f73e
00000070: 770c a53f c4d6 573f b23a 11be 7015 203f
00000080: 806b 013e 087c d6bd e4e6 533f a7be 9b3e
00000090: 49c9 07bf cd84 d93e aba9 95be e6f0 f4be
000000a0: ad03 7abf 6af5 053e a29d 0d3e 1a90 9f3d
000000b0: 0724 63be 5224 fcbb b993 273f e948 2cbe
000000c0: df3e 763f dbef d63f 34b3 c53f d174 bd3f
000000d0: e8e2 3f3f 93ce 413f 190f 733f b0f4 c63d
000000e0: 0b36 e43f b4c0 793f 061d 8c3f 7f5d fc3e
000000f0: d6bb c03f fa20 823f 8f9b aa3f bd97 473f
0.10185663 -0.36548257 1.0542276 0.2932694 0.83723444 -0.495677 0.78364986 0.7489761
0.87959564 0.82371926 -0.08390143 0.5050398 -0.17828065 -0.28442797 1.2130898 -0.0928129
1.1953863 1.124227 0.09331693 0.8540773 0.25754443 1.6638788 0.10206894 0.707816
-0.056409504 0.18027295 1.2350562 0.48386568 1.2894429 0.8431208 -0.14182547 0.6253271
0.12638664 -0.10472876 0.82774186 0.30418894 -0.5304151 0.4248413 -0.2923101 -0.4784004
-0.9766186 0.130819 0.13829663 0.07791157 -0.22181712 -0.0076947594 0.6545978 -0.16824688
0.96189684 1.6791948 1.5445313 1.4801275 0.74955606 0.7570583 0.9494491 0.09714639
1.7828993 0.97559667 1.0946357 0.49290082 1.5057323 1.0166314 1.3328723 0.7796591

lstm.bias_hh_l0 f4 [64]
00000000: 9bbe 35be c1b3 bdbd de50 993f 36bf 1d3f
00000010: a110 c23e c8a5 d4be c9c2 303f 4aa3 183f
00000020: 5dc2 8f3f 1ee3 263f 6adf 7fbe 06bc 403f
00000030: cd80 4d3d 096f 97be 236f be3f 2bd5 8a3d
00000040: a723 713f f4ad 6f3f dfad 033e 42fb 803f
00000050: becb 1b3f 0fd9 bb3f 117f 8a3e 8888 333f
00000060: 3ebf 7d3e bc00 a93e a617 a43f 90b8 ec3e
00000070: dafc 623f 0fea a33f 8cf8 9abe fd3b ea3e
00000080: cc4d 163e 251e 073d 1019 1c3f c503 0f3e
00000090: 9880 f5bd 1238 793e 5182 23bf 2de8 48be
000000a0: 71a7 29bf f2f9 363e 1050 dd3e c2d0 743e
000000b0: 5d3f c4be ce92 853d e57e 643f 3b34 3ebe
000000c0: 44cd 813f 11f7 db3f 7eeb cd3f d3fa a43f
000000d0: 31dd 803f 9995 593f 754d 503f 0e53 e13b
000000e0: cda3 b73f 950e 6e3f 5272 a63f 6ad3 fa3e
000000f0: 30d3 d03f f812 a33f 7d92 a33f 8128 203f
-0.17748491 -0.09262801 1.1977804 0.6161989 0.37903312 -0.4153273 0.6904722 0.5962416
1.123119 0.65190303 -0.2498757 0.752869 0.050171662 -0.295769 1.4877666 0.0677894
0.94195026 0.93624806 0.12859295 1.0076678 0.6085776 1.4675616 0.2705007 0.70130205
0.24779984 0.33008373 1.2819717 0.4623456 0.8866707 1.2805804 -0.3026775 0.45748892
0.14678115 0.032987732 0.6097574 0.13966282 -0.11987418 0.24337795 -0.6387072 -0.19619818
-0.6627112 0.17868784 0.43225145 0.2390776 -0.38329592 0.065221414 0.89256126 -0.18574612
1.0140767 1.7184774 1.6087492 1.2889045 1.0067502 0.8499389 0.8136819 0.006876356
1.4346863 0.92991 1.3003638 0.4898942 1.6314449 1.2740164 1.277908 0.62561804

fc1.weight f4 [54, 16]
00000000: 0af0 803e 7c2c b4bf e124 583f 047f 8fbf
00000010: 2c5f 51c0 31d7 063f f1aa 26bc 8a24 a83e
00000020: fd77 06c0 6092 20c0 f630 acbf c863 7a3f
00000030: 0db2 2e3f 4906 db3f ba97 6b3f cc80 5e40
00000040: 4256 a53f 254a 31bd 8ccb 21bd 6627 7abe
00000050: 4f34 8b3f bc2e a9bf bf36 1640 14e5 8d3f
00000060: a7c2 9ebf 7fae 1e40 4ace 993d 540c 9f3f
00000070: fc73 813f 3d14 58bf b66f 673f 2482 1240
00000080: 07f4 1740 b9a4 1740 799f 903e 7e51 07c0
00000090: 9c19 de3f 5c4e d5bf 3acc 8a3f 9586 7dbf
000000a0: 339b 81be 362b 3340 747f b93f cd90 dd3f
000000b0: e641 9abe 0111 4a40 1984 8fbf d5a8 c5bf
000000c0: 1fc3 28c0 95c4 0fbf 8e5d ab3e 0233 8a3f
000000d0: 71a0 3dbf deda 5840 a15d 6840 fb90 ca3e
000000e0: e5c5 9dbf 0ea3 0240 bd0f be3f bed7 713f
000000f0: 25b8 a7bf e8f8 16c0 7222 6c3e 0960 86be
00000100: 149d 0c40 813a ee3d fbf8 0a3f 04c8 6440
00000110: d30c d13e 1628 28bf c896 38bf e8c6 d2bc
00000120: 4e61 fabf bbba 70c0 5294 0abf 6b9f 86bf
00000130: e7d2 8f3f 9b97 bdbf 4e04 983f 772a b83e
00000140: ab39 5ebe 7e0d 3cbe b793 2f3f f14a ac3f
00000150: 738e d03f 1c2c 453f 4497 0fbf 2765 7cbe
00000160: 96f1 20bd 4381 1a40 0a26 db3f 3f3e 10c0
00000170: 4285 02bf fb26 80c0 be66 14bf 2ff3 31bf
00000180: 6dd8 debf 666c 20c0 b9b8 03bf a74b 80be
00000190: fe1a f13e 3c06 28c0 8d78 9b3f 9750 30be
000001a0: 80b4 fabe bb32 0240 4c68 dc3f e17e d13f
000001b0: b037 59bf d6e5 45c0 c921 bb3e 367f 36bf
000001c0: 8627 c73e 8097 eabf e28e acbf 19ef d3bf
000001d0: 0108 3340 0b31 dbbe 3a78 18c0 0608 b93f
000001e0: 33ad e3bf 36a2 80be 0aa2 7b3f b063 90bf
000001f0: d743 1040 836d 1740 9254 c8be a7af b6bf
00000200: c813 dbbe 9f49 1640 e557 343f c2b0 14bf
00000210: 3b38 9e3f 4f58 c5bf 6a0f 99bf fa4b 2cc0
00000220: a89a 8b3e 3118 21c0 93b8 62be 01a4 a2bf
00000230: 2307 103e ce9b 9d3e 000f f53f 99c4 cdbf
00000240: 8961 30c0 ded8 abbe 177a 223e 1306 2bbf
00000250: 6c3a 13be 9b46 693f b32c 1e3f e8f0 063f
00000260: 7cef a63e c8c9 ac3f 8525 813d 02a7 9cbf
00000270: 7060 45bf 9aa5 94be 6900 653e b300 babe
00000280: b07e 15bf 72db 2a40 7d13 3b3f 3e3a d8bf
00000290: 7eb0 c03e 97c3 b53e a38a 3040 8dba a03f
000002a0: af67 92bf c8ca 963f 21a4 2540 ad61 023f
000002b0: e3e1 5fbf 25f8 d43f e96c 203f 7602 4bbf
000002c0: 4c72 17bf 1926 4940 6fd4 163f f38b 3440
000002d0: bd06 2340 4da7 3340 06f2 8e3e 1388 203f
000002e0: 2c51 8abf 92d0 0740 97af b7be 3e02 813f
000002f0: 0d4d 06bf 1376 0d3f b1b4 47be b753 b6bf
00000300: ec1a 1fbf 6911 76bf bfe0 543e aa94 2ec0
00000310: dcd3 cdbf 22fd 8540 83ab a23f 7a57 69bf
00000320: 3a12 45bd 0898 d53f 9b17 25bf 6b50 43c0
00000330: 45fe 4abe 3c4c 89bf f865 69bd 8743 81bf
00000340: 2cc3 07be 0e4d 0ac0 ee2c a4bd b185 ee3f
00000350: 7b88 fbbf 7dc6 aabe de16 68bf c3ec 06c0
00000360: ba47 853e 7bd8 f63f f537 edbf 0464 b43e
00000370: 22b1 c2bd 2a5e 993e 5ea5 1ac0 307f 25c0
00000380: ed94 c53e 5ec0 1ac0 6f03 0440 c794 d2bf
00000390: fe96 2d3f 6a8c 32bf 4ee6 20bf 34bd 6ebe
000003a0: 5883 eabf 4fb7 9dbf d6c3 073e 8961 85bf
000003b0: 8389 7cbf 3657 30bf 870d 9f3f efa5 8540
000003c0: b831 9b3f 3376 c9bd c2de 93be 543a e33f
000003d0: 62e8 8040 de3b 03c0 dd89 9fbf 78c0 83bf
000003e0: 7a28 8c3f e08a 1d40 bb15 91bf 9e22 c5bf
000003f0: 2c45 8bbf 26b2 a93e e999 05bc 43e4 f3be
0.25183135 -1.4076076 0.8443127 -1.1210637 -3.2714338 0.52672106 -0.010172592 0.32840377
-2.1010735 -2.508934 -1.3452442 0.97808504 0.68240434 1.7111293 0.9202839 3.4766111
1.2916949 -0.0432836 -0.039500758 -0.24429092 1.0875338 -1.3217387 2.3470914 1.1085534
-1.2403153 2.4794004 0.0751005 1.2425637 1.0113521 -0.8440588 0.9040483 2.2891932
2.3742692 2.3694289 0.28246668 -2.114349 1.7351565 -1.6664538 1.0843575 -0.9903348
-0.2531372 2.7995124 1.4492021 1.7309815 -0.30128402 3.1572878 -1.1212188 -1.5442148
-2.6369092 -0.56159335 0.33469814 1.0796816 -0.7407294 3.3883586 3.6307147 0.39563736
-1.2326018 2.041202 1.4848553 0.9446982 -1.3103071 -2.358942 0.23060015 -0.26245144
2.1970873 0.116322525 0.54286164 3.574708 0.40830097 -0.65686166 -0.72105074 -0.025729612
-1.9560945 -3.7613971 -0.5413257 -1.05174 1.1236237 -1.4811891 1.1876314 0.35969898
-0.21701686 -0.18364522 0.6858477 1.346037 1.6293472 0.7702043 -0.5609019 -0.24647962
-0.039292894 2.4141395 1.7120984 -2.2537992 -0.50984585 -4.0047584 -0.5796927 -0.69511694
-1.7409798 -2.506616 -0.5145374 -0.25057718 0.47090906 -2.6253805 1.2146164 -0.17218243
-0.48965836 2.0343463 1.7219329 1.6366845 -0.848506 -3.092153 0.36549214 -0.7128786
0.3889734 -1.8327484 -1.3481104 -1.6557342 2.7973635 -0.42810854 -2.382338 1.4455574
-1.7787231 -0.25123757 0.98294127 -1.1280422 2.2541406 2.366059 -0.39127022 -1.4272355
-0.4278853 2.3482435 0.70446616 -0.5808221 1.236091 -1.5417575 -1.1957829 -2.6921372
0.2726643 -2.5171015 -0.22140722 -1.27063 0.14065222 0.30782932 1.9145203 -1.6075622
-2.755953 -0.33563894 0.15866886 -0.66806144 -0.14377755 0.9112336 0.61786956 0.52711344
0.32604587 1.3499079 0.063059844 -1.2238467 -0.77100277 -0.29032594 0.22363438 -0.36328658
-0.58396435 2.6696439 0.7307661 -1.6892774 0.37634653 0.35500786 2.7584617 1.2556931
-1.1437892 1.1780634 2.5881426 0.5093029 -0.8745405 1.6638228 0.62666184 -0.7930063
-0.5915878 3.1429503 0.589179 2.8210418 2.5472863 2.8070862 0.27919024 0.6270763
-1.0806022 2.1221051 -0.35876152 1.0078809 -0.5246132 0.5525829 -0.19502522 -1.4244298
-0.62150455 -0.96120316 0.20788859 -2.7278237 -1.6080279 4.18715 1.2708591 -0.91149104
-0.048113085 1.6687021 -0.64489144 -3.0517833 -0.19823559 -1.072639 -0.05698201 -1.0098733
-0.13258046 -2.160953 -0.08016382 1.8634549 -1.9651026 -0.3335456 -0.9065989 -2.1082008
0.26031286 1.9284815 -1.8532702 0.35232556 -0.09506442 0.29954654 -2.4163432 -2.585888
0.38590184 -2.4179912 2.0627096 -1.6451653 0.6780852 -0.69745505 -0.6285142 -0.23314363
-1.8321333 -1.2321566 0.13258299 -1.042039 -0.98647326 -0.68883073 1.2426003 4.1765056
1.2124548 -0.09836998 -0.28880888 1.7752175 4.028367 -2.050529 -1.2463948 -1.0293112
1.0949852 2.4616013 -1.1334757 -1.5401189 -1.0880485 0.3314373 -0.008154371 -0.47635087

fc1.bias f4 [54]
00000000: bddc 71bc b15a e0be dd47 2ebf 0f09 17bd
00000010: c099 4f3d 982f 8e3e 499f 5fbf 5f53 2f3f
00000020: 7f42 953d 7ba6 de3b 9998 a83e 16ad 86bd
00000030: f4da d4bd 242d 37bf fe1f ba3f d41a f8be
00000040: 8052 83bf 1682 443f d2f1 c43e ebef 5ebf
00000050: 73e8 b9bd 3cb1 70bf 58dc a2be 4bd6 8bbf
00000060: 4bf8 b73c 9afe eb3c 9db1 76be ddcf 9ebe
00000070: 6d21 243f 7933 b0bf 35c1 d2bf b110 c6bf
00000080: e211 9ebe 70ba b03e efc9 d1bf 1fc8 16bf
00000090: 9d48 6ebf 8767 1ec0 cdc5 01bf ebae c6be
000000a0: ddde 09c0 537d fb3e 1f8e 4abf 135c f2be
000000b0: 5086 debf f157 8dbe ec5f f3be 3550 30be
000000c0: c90c 0fc0 284b b0be c90a 99bf 0048 9bbf
000000d0: 4556 32c1 832a d0be
-0.014762101 -0.43819192 -0.68078405 -0.036873873 0.050683737 0.27770686 -0.87352425 0.6848659
0.07288074 0.0067947484 0.32928923 -0.06575982 -0.103933245 -0.71553254 1.4541013 -0.48457968
-1.0259552 0.76760995 0.38465744 -0.87084836 -0.09077539 -0.9402044 -0.31808734 -1.0924772
0.022457263 0.028807927 -0.24091192 -0.31017962 0.64113504 -1.3765708 -1.6465212 -1.5473844
-0.30873019 0.3451724 -1.638975 -0.5889911 -0.9307955 -2.4750688 -0.50692445 -0.38805327
-2.1542275 0.49119052 -0.7912311 -0.47335872 -1.7384739 -0.27606156 -0.4753412 -0.17218097
-2.2351553 -0.3443234 -1.1956416 -1.2131348 -11.146062 -0.40657434
