Checkpoints/Old/last_checkpt.pth.tar (torch_old, 109684 bytes, 6 tensors)

lstm.weight_ih_l0 f4 [256, 32]
00000000: d50f 733e 3789 a73d ca29 ea3d 8565 4d3e
00000010: f129 303e 050e 47be 8504 423f 0794 2b3f
00000020: ab4d 053f 3b25 003f a996 4e3f 973e b1be
00000030: 6f2c 81bd 868b 1dbf 1a07 843b e50b 8cbe
00000040: 2ebb e03e 32e4 103f 2465 44bf 7ea3 243d
00000050: 4c4e 3e3f 2a36 43bd ffdc 923e 38bc 2f3f
00000060: 1c4c c53f 5478 263f 6119 2b3f fa93 a23e
00000070: 9cea 2bbd 1874 77bd e805 efbd 7b69 ffbe
00000080: a241 8bbe 2545 233f 5fc5 7c3f c3a8 303f
00000090: fbea 003e c006 993f 5ecc 803f b0f5 a7bf
000000a0: 4908 423f 5713 0cbf 940d b4bf a95c 293f
000000b0: f5ed 633e be95 5a3f 954c 69be 93ff 9cbf
000000c0: 3f16 553f fd5f 0cbe 5e21 a4bd 834b aabf
000000d0: 0255 723e 9c5b 7b3f 118d 923e 23b2 623f
000000e0: 20ab d23f 150d de3e 6099 3a3f 5356 443f
000000f0: fc18 233d a8b6 a3bc 5c0e 3abd ee04 7fbf
00000100: ff2e 123f d100 a13e 4a15 803c bc5b 2d3f
00000110: ae91 503f 66ca 15bd b886 a23d 9e0b f23d
00000120: d0cf 0dbf eedc 8e3e 5d24 58bf a716 823e
00000130: 3b3c 03be eced fa3d 2a2f 213f 65c0 6b3e
00000140: 24a7 2c3c 02d1 a13c 4515 68be ba44 d9bc
00000150: cc1b bc3f 9e85 36be dcec ea3e 4059 153f
00000160: 1391 19bf 5f09 733e 976a 2abf 661c 6a3d
00000170: a62c fa3d 6898 613d 505e debd 4df1 26c0
00000180: 7561 d43d 954f fb3e 9b64 f6be 4fb9 f6bc
00000190: 56d1 f2bd e537 09bf 9397 9e3e 5bd3 55be
000001a0: 62ce 11bf cd9e 10bc 27d3 193f 4814 703e
000001b0: 7336 54be 5a8d 393e d2a4 153e ad02 bb3e
000001c0: daf6 383f 5daa adbe 0721 813f ad93 093f
000001d0: 16fb 753e 6ff3 c0be 55b1 5cbd d5f1 43bd
000001e0: bf0b 203f 971e bd3e 4dca 993e c01a c73e
000001f0: 880e bc3d 707e b3bd a011 b9bc 39eb 1ec0
00000200: eaed d63e 03d3 ee3e c4b3 9a3e 1329 93be
00000210: b4be 993d 91b9 d2be 6634 82bd 11ac b4be
00000220: 7f90 0f3e 8ff7 a2bd 724e c5be 0e23 663e
00000230: 7270 353e cb41 9b3e 2c35 25bf 613f 123e
00000240: 82c9 c03c 98b4 dc3e 965c a93e 707d 543e
00000250: 84b7 96be 736e 513e e6b2 0f3e 6c71 71be
00000260: d428 c63d ca69 9b3e f1c2 2d3d ac92 5a3e
00000270: b44e 54bd d036 2abd 5468 a83d 5892 c23f
00000280: 48f4 383e 0c42 6e3c eed9 73bf aefa 953f
00000290: c443 ec3e d311 d9bd c10a 6dbf 6215 1cbf
000002a0: 631b ae3e 0358 a43f c562 213e 64be 8d3f
000002b0: 31f7 c3bf 025a 61bf 1089 413f ea80 c83e
000002c0: d470 98be 4b61 30be de45 0ec0 5a3d 41bf
000002d0: 60fb de3e d473 25bf f14e bc3e e448 483f
000002e0: 50b5 67bf 4a08 b2be 200f 07be 7270 aebe
000002f0: 361c cfbd d2ff b23d 52e6 de3d 229c 493f
00000300: e94d 3f3e c14e 5e3e dcf6 84be b834 453e
00000310: ae72 d23f e67e 1abe eae0 373e 8afd 4ebe
00000320: 3526 3c3f dfd6 70bf 5fe8 083f 7dbc fe3e
00000330: db31 e33d 72b0 b23e f63b 18bd 3bfb 5e3e
00000340: f822 c7be 1533 c3be d8ad 933e 6b8a 56bf
00000350: 31af 343f 42de 443e 3dbe dabe e6bf 913d
00000360: 50fb 22be 28fb 19be de37 023f ce8b 563d
00000370: c84f 653d 6430 383d b0d6 813d 29c8 89bf
00000380: 4d92 673c a362 a03e 9ee5 1c3f dc59 353e
00000390: ef1b 89be 07f8 6c3c ab67 0cbe 64c9 603e
000003a0: 0b32 63be fd7b 223f b7be 043f 213b 0c3f
000003b0: 4fac d23d 295e 213e bbaf 723e 6326 dcbe
000003c0: eb15 85bd 14c5 213e 3ff6 523e 6be6 913e
000003d0: 24d0 a23e 6621 00bd 8bb5 48be 5054 ffbd
000003e0: 47a6 bbbe 58e1 863e 360c 063f 908e 983d
000003f0: c843 e53c 4421 893d 00b4 e2b9 1540 1c3e
0.23736508 0.081804685 0.11433752 0.20058258 0.172035 -0.19438942 0.75788146 0.67022747
0.52071637 0.5005681 0.8069864 -0.34618065 -0.06307303 -0.6154102 0.004029167 -0.27352825
0.43892807 0.565982 -0.7671683 0.04019498 0.7433822 -0.047659077 0.28684232 0.68646574
1.5413852 0.65027356 0.668356 0.31753522 -0.041971788 -0.06041345 -0.116710484 -0.49885163
-0.2719851 0.6377738 0.98738664 0.6900751 0.12589638 1.1955185 1.0062368 -1.3121853
0.7579389 -0.5471701 -1.4066644 0.66157013 0.22258742 0.8538474 -0.2278312 -1.2265495
0.8323707 -0.13708492 -0.08014177 -1.3304294 0.2366524 0.9818666 0.2862325 0.88553065
1.6458473 0.43369356 0.7289028 0.7669422 0.03981875 -0.019984558 -0.04542385 -0.996169
0.5710296 0.31445935 0.015635151 0.677181 0.8147229 -0.036569975 0.07935852 0.11818622
-0.5539522 0.2790293 -0.84430486 0.25407907 -0.12815945 0.12252411 0.6296259 0.23022611
0.010537896 0.019752983 -0.22664364 -0.02652203 1.4695983 -0.17824408 0.45883834 0.5833931
-0.5998699 0.23734044 -0.66568893 0.05715599 0.12215547 0.055076987 -0.108578324 -2.6084778
0.10370151 0.49084154 -0.4812363 -0.030117659 -0.11856334 -0.53600913 0.30975017 -0.20881407
-0.5695554 -0.008826924 0.6008782 0.23445237 -0.20723896 0.18120328 0.14613655 0.3652548
0.72251666 -0.3391904 1.0088204 0.5374096 0.24021563 -0.37685725 -0.053880055 -0.04783805
0.62517923 0.369374 0.30037156 0.38887596 0.09182459 -0.087643504 -0.022591412 -2.4831069
0.4197839 0.46645364 0.30215275 -0.28742275 0.07507077 -0.411572 -0.063576505 -0.35287526
0.14019965 -0.07957374 -0.38536412 0.2247431 0.17718676 0.30323634 -0.6453426 0.1428199
0.023533586 0.43106532 0.3307845 0.20750976 -0.29436886 0.2045229 0.14033088 -0.23578423
0.09675756 0.30354148 0.04242224 0.21345013 -0.05183287 -0.04155618 0.08223024 1.520091
0.18061936 0.014542114 -0.9525441 1.1717126 0.4614545 -0.10599103 -0.92594534 -0.6097013
0.3400527 1.2839359 0.15760334 1.1073728 -1.5309812 -0.88027966 0.75599766 0.39160854
-0.2977358 -0.17224614 -2.2230144 -0.7548424 0.4355116 -0.64629865 0.36778978 0.7823622
-0.90511036 -0.3477195 -0.13189363 -0.34070164 -0.10112803 0.087402 0.10883774 0.78753865
0.18682064 0.2170973 -0.2596959 0.19258392 1.6441247 -0.1508747 0.17956892 -0.20213905
0.734958 -0.9407787 0.5347957 0.4975318 0.110934936 0.34900242 -0.03716656 0.21775524
-0.38893867 -0.3812491 0.2884357 -0.8380496 0.7057982 0.1922541 -0.42723265 0.0711668
-0.1591618 -0.15037215 0.50866497 0.052379422 0.05598429 0.044968024 0.063397765 -1.0764209
0.014134002 0.31325254 0.6128787 0.1771006 -0.26779124 0.014463431 -0.13711421 0.21951824
-0.22187059 0.6347044 0.5185351 0.54777724 0.102867715 0.15758575 0.23699848 -0.42998037
-0.06498321 0.15797836 0.20601748 0.28496107 0.31799424 -0.03128185 -0.19600503 -0.12467253
-0.36650297 0.263438 0.5236238 0.07449067 0.027986422 0.06695798 -0.0004324019 0.1525882

lstm.weight_hh_l0 f4 [256, 64]
00000000: b878 93be c2cd 78be 91a2 e33d 4f1b a83d
00000010: e538 0a3f 740d ab3e 931d 313e 1bfe bf3e
00000020: 49fd 873e 1792 2abe d5a1 9fbe 3d55 f03d
00000030: a12a 05bf 7a86 88be e1cd 0b3d 680e c8bd
00000040: dd42 053c 5854 e93e 47fe 7f3e 4882 60bb
00000050: 9320 503e 733c 24bf adcd 93bd f599 27bd
00000060: 5aee acbc 0a63 16be 49ae 1cbe 852e 13be
00000070: 6383 6c3d 20a0 2c3e 9a27 983c 1bb3 69bf
00000080: 8c99 613e e1ba 523e 9def 0cbe d2b3 aa3f
00000090: 167a ac3c c2f0 65bc e85f babe da30 f4be
000000a0: e955 8b3e 8e27 01bf d164 fcbd c549 5bbe
000000b0: 1385 803e 7cab abbd e9fc 12bf dd56 0bbf
000000c0: 5b50 f33d 66f8 b53d 7543 e5bd c9a8 7dbe
000000d0: c8a4 4d3e 38fd 4abe 952a c5be f7d3 873d
000000e0: 5b15 d3be 49ec 3dbe 8d1c 5dbe c10c e03e
000000f0: 5658 8bbd 0a0f 20be 1aa7 1abe b0ab 97bd
00000100: d5e6 cf3d 4e6a 4cbd c410 91be dff3 893e
00000110: f87b f43e 9e8c 813e a092 163d 8840 47bf
00000120: e3ef 58be ea64 413f 3668 f03d ff08 48bf
00000130: 2a55 c0be 75d2 99be d506 dfbe 1cf5 76be
00000140: 1427 32bc 5a4c 373e 5993 633d 527d 023e
00000150: d52c e9bc 2b3f cf3e 9df7 c6be e263 95be
00000160: 830c 2c3f 74bd 1fbe 45e6 6dbe bbae 06be
00000170: cf11 8c3e 41b9 b8be 62cd 1abe efd6 bcbd
00000180: 6ec7 24bf f298 babd 513e ea3d 40fe 9ebe
00000190: 8703 583e deea 4abe 34b4 8d3d e1f7 9f3e
000001a0: 000d 813e 9399 023e a4c2 8cbe 3b3d b0be
000001b0: 24f8 923b b374 3e3e 7cbf 1bbd f6fd 74be
000001c0: 4cdb 2abe affd 223e 8660 bdbe d013 693b
000001d0: d91f 9b3d 125c 8bbe 26b4 c3be db47 fe3d
000001e0: bf65 11be f2c7 b13e 9d5e 39be cef1 6b3f
000001f0: 8438 cebc d21d 58bf b9df 96bb d3f0 3f3e
00000200: 7d19 b1be 7827 24bf 748b 1b3e 352c 5cbf
00000210: d317 0dbe 8360 0a3d 6764 893c 119e 303f
00000220: 81af 34be ead8 b13e 6042 f1bd 28e1 fa3e
00000230: 4745 62be 66a4 a2bd ac97 a33d 861e 97bd
00000240: 6df3 373e 893d d23c 0173 22bf e19b 31bf
00000250: edfd f93e a18b 773e 1e84 87be 11ea c63b
00000260: 70c6 223e 23f4 a13c 9055 8c3e 0cef dfbe
00000270: d04c 73be cda3 5f3f a45a e23e 233d 983e
00000280: 0713 26be 839b f6be 9022 27be ebb2 203f
00000290: 33d8 7c3e 269f 18bf 7423 6abc dc69 303e
000002a0: 8910 26be 1fcd 02be c9e8 8abf 8db9 213f
000002b0: e909 d63e 48c6 2b3d 9a3d a23d 584f 0a3d
000002c0: 36f3 a1be 142f 343f 12f7 13bf 8d68 b9be
000002d0: 8113 9abc e021 adbd 7e9a a6be 8364 0abf
000002e0: a6d4 48be 37da f23c a647 373d c11c 123e
000002f0: 898b cf3f cebd 603d 46ea 023f 79c6 39bf
00000300: 7f02 06be ef12 043f e6a9 81bd 7866 843e
00000310: a8e8 c1be 0bad f8be 4bdb 14be 305d 243e
00000320: 257e 793e ea07 9bbe ab1f 213d f493 c53e
00000330: a94c 64be 03c9 ae3d 273d 17bd c75e 80be
00000340: 3eac 893d 98c0 4cbe 1d62 743e 9261 873d
00000350: 2509 823d 7c10 cf3d 0a80 953e c584 2a3d
00000360: cf62 1d3e 9e42 973e 3cea f1bd f1a6 9cbd
00000370: d7ce 3fbf 13c4 b0bc cd11 0d3e 45ab 68bf
00000380: e1a0 bbbd aa7c 01bf 6dbd e83c d9db 493f
00000390: 274c fbbd 3f74 0bbd 9051 5fbd efe2 69bf
000003a0: 90ed ea3d f9c7 293e a3b9 6a3e 59d6 a83e
000003b0: 58ef 28be b495 abbe 0014 19bf b253 2cbe
000003c0: 93cc 4abf 7258 2abe 5c3a 7a3e f0b8 683e
000003d0: 81f6 263e ce99 28bd 9b56 7c3c 4f35 02be
000003e0: eacf db3e 9cdb b1be 8174 203e d15f 67be
000003f0: 2f88 c93d 2a96 743d bddb 1abe e960 933c
-0.2880304 -0.2429724 0.111149915 0.08208334 0.53993064 0.334087 0.17296438 0.37498555
0.2656043 -0.16657291 -0.31178156 0.11735008 -0.5201817 -0.26665097 0.03413189 -0.09768373
0.008133617 0.45572162 0.24999343 -0.0034257341 0.20324926 -0.6415474 -0.07216964 -0.04091831
-0.021109749 -0.14686218 -0.1530086 -0.14373215 0.057742488 0.16857958 0.018573571 -0.9128892
0.2203123 0.20579101 -0.1376328 1.3336127 0.021054309 -0.014034452 -0.36401296 -0.4769352
0.27213982 -0.5045098 -0.12323917 -0.2141486 0.25101528 -0.083823174 -0.5741716 -0.5442942
0.11880561 0.08885269 -0.11194507 -0.24771418 0.2008239 -0.19823158 -0.3850905 0.06632226
-0.4122723 -0.18547167 -0.21592923 0.4375973 -0.06803958 -0.15630737 -0.15102807 -0.07405794
0.101514496 -0.049906068 -0.28333104 0.2694387 0.4775083 0.25302595 0.036760926 -0.7783284
-0.2118526 0.7554461 0.11738627 -0.78138727 -0.37564975 -0.30043378 -0.435599 -0.2411694
-0.010873575 0.1790022 0.055560444 0.12743118 -0.02846376 0.4047788 -0.3886079 -0.29177767
0.6720659 -0.15599614 -0.23232372 -0.13152592 0.27357337 -0.36078838 -0.1511741 -0.09220683
-0.64366806 -0.09111203 0.11437667 -0.31053352 0.21095096 -0.19816157 0.06919137 0.31243804
0.2520523 0.12753896 -0.2749225 -0.34421715 0.004485147 0.18599205 -0.03802441 -0.23925003
-0.16685218 0.15917085 -0.36987704 0.0035564788 0.07574434 -0.27218682 -0.3822338 0.12416049
-0.1419897 0.3472286 -0.18102498 0.9216584 -0.025173433 -0.844205 -0.0046043065 0.18744211
-0.3458976 -0.64122725 0.15189916 -0.86004955 -0.1377862 0.033783447 0.016771508 0.6899119
-0.17645074 0.34735805 -0.11780238 0.48999906 -0.2209674 -0.07941513 0.079879135 -0.07378869
0.17963953 0.025664108 -0.6345673 -0.6937848 0.48826542 0.24174358 -0.26467985 0.0060703834
0.1589601 0.019769734 0.2740903 -0.43737066 -0.2375977 0.87359315 0.44209778 0.29734144
-0.16218196 -0.4816552 -0.16321778 0.6277301 0.24691848 -0.5961784 -0.014290679 0.17227882
-0.16217245 -0.1277356 -1.085229 0.63173753 0.41804436 0.041937143 0.07921906 0.033767074
-0.31630868 0.70384336 -0.57798874 -0.36212578 -0.018808128 -0.08453727 -0.32539743 -0.5405962
-0.19612369 0.029645069 0.044746064 0.14268781 1.6214458 0.05486851 0.5113872 -0.7256847
-0.1308689 0.5159139 -0.06331234 0.25859427 -0.37872815 -0.4856952 -0.14536779 0.16051173
0.24364527 -0.30279475 0.03933684 0.38589442 -0.22294869 0.08534434 -0.036923554 -0.2507231
0.06722306 -0.19995344 0.23865552 0.06610407 0.063494004 0.10110566 0.2919925 0.041630525
0.15369724 0.29543012 -0.11812255 -0.07649029 -0.7492499 -0.02157787 0.13776322 -0.90886337
-0.091615446 -0.5058085 0.028410638 0.78851086 -0.12270384 -0.034046408 -0.054521143 -0.913619
0.11471093 0.1658019 0.22922377 0.32976034 -0.16497552 -0.33512652 -0.5979614 -0.16828802
-0.79218405 -0.16635302 0.24436325 0.22726798 0.16304971 -0.041162305 0.015401508 -0.12715648
0.42932063 -0.3473786 0.15669443 -0.22595145 0.09840428 0.05971352 -0.15122886 0.017990546

lstm.bias_ih_l0 f4 [256]
00000000: 227d 5abd af8d d43e 9746 cebd 58fd 2cbe
00000010: 1659 b83e b64c 683e e1e2 b33e fa09 10be
00000020: 4d38 cbbe cceb a33d 31a3 c1be 1bb6 903e
00000030: 3f1a 68be 5d26 d63c 67fb ef3e eb4c 95be
00000040: 7eb6 0bbf d8c6 8cbe 95a0 bd3e a705 1fbf
00000050: 2c49 efbd 903f e53e 0214 2b3f 673c 8b3c
00000060: 7422 10bf 90da 05bf 45e5 593d e14a 1d3e
00000070: 4d85 43bf 050d eebd d13e 25be b769 47bf
00000080: 3c42 e0be 6407 663e 640e d1be 08a2 6abf
00000090: 15cb 9fbe 28fa 60be 4250 aebe 579e 2fbf
000000a0: f46b 9abe 6632 753c dca8 6a3e 43ca 9cbe
000000b0: 7cb8 afbe aeb4 c4be bf57 47bf d9bc 20be
000000c0: 05f6 7cbf 02b9 acbe 383d 06be 9b92 ba3d
000000d0: 03f8 ccbe 6e9d f4be d192 823e c61a e33d
000000e0: e816 a23d c668 b33e d874 813d 9121 4abf
000000f0: 7148 35be 2e7a 50bf 080a febd 9e66 3b3e
00000100: cc43 3f3f 7df5 533f 694f f93e 962a ee3e
00000110: 1897 883e be59 b23e 832e 453f 6ac7 6b3f
00000120: f36f 423f 3296 0a3e c2aa 3a3f 378b 853e
00000130: cf0b 3c3f 10fb 053f 8f60 c4bc f478 5c3f
00000140: 7403 153c f0e3 2e3f 522f 8f3f 550e 31be
00000150: ae9b d73c d35d 1a3e 25b9 033f fb55 7f3e
00000160: aef5 873e 5203 b13e 23e2 f23e bbdb 11bf
00000170: deb3 c33f 85ad 9e3d 68c6 4abe d89c ca3f
00000180: 455d b43f a98c 7dbd 52f1 153f c3e9 a13f
00000190: cb5d 1c3f 5570 83be 3a45 e43e 6173 803f
000001a0: 0a82 163e fff5 a03d 81cf 1e3e 2ea1 533f
000001b0: 7520 083e 0e68 39be 2be4 733f 6bd7 6d3f
000001c0: 388d 943f e5bd f2bd 679c e53e 8255 2c3f
000001d0: 04f8 9e3e b037 8e3f 5531 a33f f0e1 003f
000001e0: ab8a 7b3f 0512 cd3e ec81 b23e 7406 9f3f
000001f0: 9c58 43be 0219 a03f e763 e7be c227 833e
00000200: 5407 9bbe 8616 383f 4866 75bd 1e95 16be
00000210: a0d9 ebbe f037 5fbe 13a7 9bbc d9fa f33e
00000220: bc0a 5a3d a124 c7be 3fa8 b2be f90f 1f3f
00000230: 0a86 323e f64d e63e 1438 a5be 1968 f53d
00000240: 0d49 a0be e396 46be 4670 193f de6d 9c3d
00000250: cfba a3be 821c bcbd 5be4 093f 40c4 3c3e
00000260: 7774 1d3e bc02 84be b60c 76be 46f4 6bbe
00000270: 2260 a5be a971 833e fd6f d43e 7e83 9bbe
00000280: d979 a8bc 5a66 023f 5468 2a3e 87f0 a33d
00000290: 4465 33bd 654b a83e d12f c1bd d0bc 31be
000002a0: 2dee a5be 4d1e fc3d 4098 f13d b776 b4bd
000002b0: d95f 923d 90f6 c9be b155 fabd 3b4e 773c
000002c0: abfe b1bd 20ef 2cbe fad4 b63e 6d4f b23e
000002d0: 8f59 083e 4657 78bd 7337 92be e2ee 7b3d
000002e0: 5f1c c03e bd62 9fbe c5c6 ad3e be21 003e
000002f0: 1cac 34bf 5279 123e 3a8f a5bc b2ea cf3e
00000300: 8194 473f 0d99 563f 22a5 b43e acb6 8a3c
00000310: 56e1 dd3d 11d7 833d 73eb 8b3d 7c05 153f
00000320: a094 623c 413f eabd e6fe c2bd d502 e2bc
00000330: 56a2 883e 0a2d 283f a240 873e a5ea 473f
00000340: 9033 f23d a736 393e 27e9 0e3f c7a7 5fbe
00000350: cdf0 793d 4c85 6f3e 9766 cabb bdb6 0f3f
00000360: 6ff7 893e 8b21 773d 5561 83bd 882a e83e
00000370: aa95 f33e 12a0 183d 5fce 3c3e dab4 813e
00000380: d66f ad3e d198 07bc 5ca6 a73e 5e91 993e
00000390: d2ec 2a3f 8ae0 833e a3a5 aa3e 5cfe a43e
000003a0: 6a46 7e3d 110e ea3d fc17 ba3e eaac 1f3d
000003b0: 17c9 b83e 366e b0be d081 d73e c101 773e
000003c0: 7afc 40bb 3f96 f83d 907a 7bbe cb9c c23e
000003d0: 66e1 9e3d 7e84 4e3e a0db b43f 090b fa3e
000003e0: 90ad 963e 0e1a 163e deb7 8f3e 789b 203e
000003f0: 28ac 21be b881 d53e d3ad 063f f907 083f
-0.053341992 0.41514346 -0.10072058 -0.16893518 0.36005467 0.22685513 0.35134032 -0.14066306
-0.39691392 0.08003959 -0.37819818 0.28263935 -0.22666262 0.02614134 0.46871492 -0.29160246
-0.54575336 -0.27495456 0.37036577 -0.62118 -0.11683878 0.44775057 0.66827404 0.016996576
-0.5630257 -0.52286625 0.053197164 0.15360595 -0.76375276 -0.11623577 -0.16137244 -0.77895683
-0.43800533 0.22463757 -0.40831292 -0.9165349 -0.31209627 -0.21970427 -0.34045607 -0.6860098
-0.30160487 0.014965629 0.22915977 -0.30623063 -0.34320438 -0.38419098 -0.77868265 -0.1569704
-0.98812896 -0.337349 -0.1310929 0.09109994 -0.40032968 -0.4777636 0.25502637 0.11089091
0.07914525 0.35040873 0.06321114 -0.7895747 -0.17703415 -0.8143643 -0.12404257 0.18300864
0.74712825 0.8279646 0.48693398 0.46516865 0.26677775 0.34834093 0.77024096 0.92101157
0.7595207 0.13533857 0.72916806 0.26082775 0.7345552 0.52336216 -0.023971824 0.8612206
0.009095062 0.68316555 1.1186316 -0.17290623 0.026319351 0.15074854 0.51454383 0.24935143
0.26554626 0.34572846 0.47438154 -0.5697591 1.5289266 0.0774794 -0.19802248 1.5829115
1.4090964 -0.061901722 0.5857135 1.2649463 0.61080617 -0.2567164 0.44584066 1.0035211
0.14698043 0.0785942 0.15508844 0.82667816 0.13293631 -0.181061 0.9527003 0.92906827
1.1605597 -0.11852626 0.44845888 0.67317975 0.31048596 1.1110744 1.274943 0.50344753
0.98258466 0.4005281 0.34864748 1.2423844 -0.1907677 1.2507632 -0.45193407 0.2561627
-0.30279028 0.7190937 -0.059911996 -0.14705321 -0.46064472 -0.21798682 -0.019000566 0.4765232
0.053232893 -0.38895133 -0.34893987 0.6213375 0.17433944 0.44981354 -0.32269347 0.11982746
-0.31305733 -0.19393496 0.5993694 0.07638143 -0.3197846 -0.09185125 0.5386407 0.18434238
0.15376459 -0.25783336 -0.24028286 -0.23042402 -0.32299906 0.25672653 0.4149169 -0.30373758
-0.020565914 0.50937426 0.1664136 0.08004861 -0.043797746 0.3287002 -0.094329484 -0.17357183
-0.32408276 0.12310467 0.117966175 -0.088117056 0.07147188 -0.39445925 -0.122233756 0.015094335
-0.08691152 -0.16888094 0.35709363 0.34826222 0.13315414 -0.060630105 -0.2855793 0.061507113
0.37521645 -0.3113002 0.33940712 0.12512872 -0.7057512 0.14304093 -0.020209897 0.40608746
0.77960974 0.83827287 0.35282236 0.016932808 0.10833995 0.06437505 0.06832018 0.58211493
0.01382938 -0.11437846 -0.09521274 -0.027589241 0.26686352 0.65693724 0.26416498 0.78092414
0.11826241 0.18087254 0.5582451 -0.21841346 0.06102066 0.23390692 -0.0061767804 0.5613821
0.2694659 0.060334723 -0.06415049 0.4534495 0.47575122 0.03726203 0.184381 0.2533329
0.33874387 -0.00827618 0.3274411 0.2999372 0.6676761 0.25757247 0.33329496 0.3222531
0.06207887 0.11428464 0.36346424 0.038983263 0.3609092 -0.34459084 0.42091227 0.24121763
-0.0029447363 0.12138032 -0.24558473 0.3801025 0.07757835 0.2016773 1.4129524 0.48836544
0.29429293 0.14658377 0.28069967 0.15684307 -0.15788329 0.4170053 0.52608985 0.53137165

lstm.bias_hh_l0 f4 [256]
00000000: 4890 89bc c3cd 863e 04f6 23be f7cf 82be
00000010: 8acd c13e 6ea5 293e b173 d23e 5ea2 21bd
00000020: 41d9 e5be 251e 843d 0b42 9cbe 4475 7b3e
00000030: 05e5 48be 059b 81bd 8565 ed3e a788 03bf
00000040: 3a0c ecbe dabb 93be c60d 183e 8b8f 36bf
00000050: 42f7 7cbc ec3f eb3e 8003 2b3f cd31 023e
00000060: ac59 fdbe 4b3f edbe af26 4ebd a902 3a3e
00000070: 754b 38bf 29ee 30bd 7162 d7bd 6141 41bf
00000080: 92f1 adbe 5110 433e 23ed 09bf 724a 59bf
00000090: dd05 80be 94fc 43be 7e4a c7be e072 10bf
000000a0: f250 b3be 97bb be3d 465a ca3e 7395 05bf
000000b0: a422 f2be 2578 08bf e31e 48bf 763b 85be
000000c0: 4d45 54bf e844 51be ba58 0abe 4bc1 8e3e
000000d0: e87e 92be 9eed f6be 2eeb d93e c17f 6fbd
000000e0: 1bc8 573e f893 bd3e c98e 9d3d 6308 61bf
000000f0: 457d 443c 4cbb 65bf c558 50be 2a3a 8fbb
00000100: 4685 1d3f 010d 433f 3abd de3e 2097 dc3e
00000110: 768a e13e da65 3b3e c7f2 3d3f b409 4e3f
00000120: 1d66 4d3f 5ee6 403d bc36 383f eed7 2d3e
00000130: 1907 463f 242b 203f 7605 b0bd ba2c 603f
00000140: 220b 14bd da60 4c3f d73c 753f f388 03bd
00000150: 8ab6 a83c 63c2 2c3e 3621 0d3f fea8 d53d
00000160: 2701 c93e 9ac9 cf3e cf06 f43e 1330 08bf
00000170: 2c3a bf3f f905 bb3d b6c2 2fbe ea1d c73f
00000180: 0574 a13f 1da7 783c df7c 043f 9bbd ab3f
00000190: a127 1f3f 17a9 9bbe 60d3 e13e f364 883f
000001a0: 5782 5eba 1f90 973d 97f4 e63d 20a5 4d3f
000001b0: b6ae 293e 5406 76be 4cb9 873f 3929 443f
000001c0: 7c80 a43f 06e9 10be df17 f53e 9173 f03e
000001d0: 280a 803e 8b69 743f 1db8 a63f 4e8d a73e
000001e0: d474 913f 63ed cb3e 06e4 a03e 0219 8d3f
000001f0: 00f5 5cbe 0e58 b53f a506 b6be e055 ab3e
00000200: 29be 89be a4d1 713f 756d 4bbe 3f78 0abd
00000210: 9838 b6be 0a5d f9bd 32bf 563c 24bc 033f
00000220: ba75 b63d ed26 8abe dbfd a6be 1bff 3a3f
00000230: ee87 7d3d 9078 de3e fe21 6ebe 7a5a 88bc
00000240: 7778 03be c247 04be dcf1 1c3f 21d9 ad3c
00000250: 1d68 bebe 5e52 b3bd 6960 353f 5818 c13e
00000260: c391 ef3d 7584 69be f628 3dbe 59a9 bcbe
00000270: d48f acbe fe71 493e 2dcd ce3e 2ea6 8dbe
00000280: 8780 273d 9c1d 203f f1d6 c73e 0e1e 193d
00000290: b70b 87be 84e8 103f 0252 8cbd 5e32 44be
000002a0: 4561 6dbe ab87 9a3d 0314 713e b573 d6bc
000002b0: 7e23 84ba 9e06 b4be 552f 93bd 22ad 4f3b
000002c0: 5d47 91be b288 1fbd f077 ae3e 1fac e13e
000002d0: 8139 af3d 2fd7 a53d 4979 89be 3f88 5cbc
000002e0: 1dfe 503e cafa 93be 1d91 9e3e 00c0 aebd
000002f0: d05a 44bf 932f 4e3e a1b4 de3d 621c 863e
00000300: 59e3 1c3f 698d 573f fe16 d33e 3904 853c
00000310: 8851 da3d 2b1d ed3d f953 19bc e6d1 153f
00000320: c613 1a3e 6204 a8bc a81f 0d3d 8651 293e
00000330: ac17 d33e 6815 143f 06a7 bd3e b9a4 793f
00000340: 16d3 443e 91ee d83d bf77 183f 3344 a7be
00000350: 677d 243e 7411 ec3e 3fcd bb3d 0eed bf3e
00000360: a399 aa3e e74e b73d c869 0b3c dc67 dc3e
00000370: 9975 ed3e 332b 733d b381 4f3e 5716 993e
00000380: 315c 523e dcb0 0a3e 4052 ad3e dfea 4e3e
00000390: 3e83 043f 3e58 7c3d 2927 9a3e 4aea 973e
000003a0: ecb2 463e 8b3f 283e 7aba ac3e fe2a 3d3d
000003b0: 8fa6 d93e 56e1 3cbe 06d4 833e c3ff d33e
000003c0: 7b36 323d c991 9d3e c80f 86be 8766 c53e
000003d0: 033e 1a3e 5b0c 823e e630 ae3f 14d9 243f
000003e0: a314 303e 1728 ab3e 0ed8 b43e d8f3 0dbd
000003f0: e82f 3fbe fe8c 123f 9590 e03e 1dbb 223f
-0.016792431 0.2632886 -0.16011816 -0.2554929 0.37852126 0.16567013 0.4110389 -0.039461486
-0.44892314 0.06451062 -0.30519137 0.24556452 -0.19618614 -0.06328396 0.46366516 -0.5138039
-0.46103078 -0.28854257 0.14849004 -0.7131278 -0.01543981 0.45947206 0.66802216 0.1271431
-0.49482477 -0.4633735 -0.05032986 0.18165077 -0.7199014 -0.043195877 -0.10516823 -0.75490385
-0.33973366 0.19049193 -0.53877467 -0.8487922 -0.25004473 -0.1913932 -0.3892402 -0.56425285
-0.35022694 0.09313124 0.39521998 -0.52181166 -0.47292054 -0.53308326 -0.7817213 -0.26021928
-0.82918245 -0.20436442 -0.13510409 0.27881846 -0.28612447 -0.48228163 0.4256224 -0.058471445
0.21072428 0.37026954 0.0769325 -0.8790342 0.011992757 -0.8973892 -0.20346363 -0.0043709474
0.61531484 0.7619172 0.43503743 0.4308405 0.4405095 0.18300572 0.74198574 0.80483556
0.8023394 0.047094695 0.7195852 0.16976902 0.7735458 0.6256583 -0.085947916 0.8756825
-0.03614343 0.79835284 0.9579596 -0.032113027 0.020594854 0.16871028 0.551288 0.10432623
0.39258692 0.40583497 0.47661445 -0.53198355 1.4939628 0.091319986 -0.1716412 1.5556004
1.2613531 0.015176562 0.5175304 1.3417238 0.62169844 -0.30402443 0.4410658 1.0655807
-0.000848805 0.07400536 0.112771206 0.80330086 0.16570553 -0.24025851 1.0603423 0.766254
1.285171 -0.14151391 0.47869775 0.4696317 0.2500775 0.95473546 1.3024937 0.32724994
1.1363778 0.3982955 0.31423968 1.1023257 -0.21577835 1.4167497 -0.35551944 0.33463955
-0.26902893 0.9446051 -0.19865973 -0.03380608 -0.35590053 -0.12175949 0.013107108 0.51458955
0.08909173 -0.26982823 -0.3261555 0.7304551 0.06189721 0.43451357 -0.23255154 -0.016644705
-0.12838922 -0.12917998 0.6130655 0.0212217 -0.37188807 -0.08755945 0.70850235 0.37713885
0.11697724 -0.22804435 -0.18472657 -0.36847952 -0.33703482 0.19672391 0.40390912 -0.27665848
0.040894058 0.6254518 0.39031175 0.037382178 -0.26376125 0.5660479 -0.06851579 -0.19159839
-0.23181637 0.07545408 0.2354279 -0.02617822 -0.0010081378 -0.351613 -0.07186762 0.0031688889
-0.28374758 -0.038948722 0.3407588 0.4407663 0.0855589 0.08097684 -0.26850346 -0.013460218
0.20409437 -0.28902274 0.30970088 -0.08532715 -0.7670107 0.20135336 0.10874296 0.2619353
0.61284405 0.8420015 0.4122848 0.016237365 0.10660082 0.11577829 -0.0093584 0.58523405
0.15046605 -0.020509902 0.034454018 0.16535005 0.41228998 0.57845163 0.3704149 0.9751697
0.19221148 0.10592378 0.5955772 -0.3266922 0.16063462 0.46107066 0.09170007 0.37485546
0.3332034 0.08950596 0.008509107 0.43047988 0.46378782 0.05936737 0.2026432 0.29899856
0.2054298 0.13544029 0.33851814 0.20206784 0.5176276 0.06160759 0.30108002 0.29670936
0.19404191 0.1643049 0.3373602 0.04618358 0.42509887 -0.18445334 0.257477 0.41406068
0.043508988 0.30775288 -0.26183915 0.38554785 0.15062718 0.2540005 1.3608673 0.64393735
0.17195372 0.33429024 0.35321087 -0.034656376 -0.18670619 0.57246387 0.43860307 0.6356676

fc1.weight f4 [32, 64]
00000000: 9776 3dbe 5c40 c03e 5e07 f23d 39e6 ad3d
00000010: 8800 55bc 62c2 76be fb52 913f 6945 b5bd
00000020: 199e 243f 42bd 82bf 420a 90bf f7d6 66be
00000030: 9ea4 bb3b 8322 1c3e 7005 54be a4f7 f0be
00000040: 058d 083f 6c53 38be 18cd 103f 31f9 4140
00000050: 9bcc 17bf 2802 37bf 3f17 983f 8fdb c83e
00000060: 462d 57bf 587d 72bd 3357 83be ea54 c540
00000070: 8c55 473e acbf 3f3e d5ac 5f3e 34c7 883f
00000080: 5c1a cebe a4f4 fa3f 6a35 52c0 4bf3 9fbf
00000090: 94ea 7ebd 11d8 23c0 ef88 e5bf f561 423f
000000a0: f166 153f 4b67 a5bf 84de 72bf 87e7 d73e
000000b0: 5809 e3bf 4ffc 21c0 85c7 873e ec23 dbbe
000000c0: 142f d73d ba5e 603f 59c8 af3f ca93 c9bd
000000d0: 2345 cfbf 1942 49bf 97a1 5d3e 8757 3d3e
000000e0: 8499 8dbe fdad 313f 5a5d 843f f410 78bd
000000f0: 023a 1ac0 d7cf 70be 0090 cabd 9288 5abf
00000100: 8333 14bf 5cfa 823e 26dc cb3f 363c 9cbd
00000110: fba9 65be f381 763f f9ce 5bbe 1306 20bf
00000120: 2e6c 1f40 ca7d 9fbf 1be9 b73e 263e dbbf
00000130: 41b8 24be 8de6 fa3e 51aa a6bf ad02 6240
00000140: 0b8a 7fbf 4ec6 bcbd 3bb3 e73e a2c5 03bd
00000150: 7c1c 2ebf 9a99 8d3f 563c bcbe 235c b13f
00000160: be0a 923e a2fd 8140 6a2f 943f dfd7 1fbf
00000170: 385e 09bf 48ad aa3f bdc6 993f fe3f 96bf
00000180: 5ae7 25bf 9a2e e2bf afe5 d2be eb76 943e
00000190: e5b3 19be 8e16 d33c bb93 b43e adad 523f
000001a0: 79fb 9f3e d3db 3c3f 9d17 5d3f 71e0 973f
000001b0: 4734 e6be 060f 02bf 54dc f2be 927b 58c0
000001c0: 7698 913f 5f52 313f d785 5ac0 0d78 0fbf
000001d0: e58d a5bc 7043 0ebf 437c fa3c f5f9 4740
000001e0: c0e9 383e 885e 493e 3528 afbf 73d8 2d3f
000001f0: 992d cf3e 1f7a 86be 9bff 503f 5a09 6640
00000200: 5bbb a73f d811 0b3f d707 1cc0 73f0 e53f
00000210: 72bf a23d dcbd c4be 81d8 6dbd 42d6 09be
00000220: ce3b c83f c6b2 af3f 47aa 4840 78cd debf
00000230: a2f6 2e40 ede0 bf3f a032 8dbf 04bf 07bf
00000240: ebcc dd3e 3bcf 7a3f b71d ba3d 2c2f 673e
00000250: a767 8bbe 161f d03f 5d2e 23c0 b752 7b40
00000260: f6ac 93bf 7bfe 6f3f 5f79 1c3e be47 2e3e
00000270: b7c8 c03d 4218 69be 213b 613f 6a67 523f
00000280: 9111 e0be 0475 b23f 6251 803f b0f8 633f
00000290: f621 83bf 4b1d 4fbf 96b9 293f cf98 cb3f
000002a0: 4733 aabd 44d6 3240 f824 a83f 97f6 0540
000002b0: 0a22 693e c931 c5bf 27da 433e 1e19 883f
000002c0: bd5c 613e 16d2 913d d4e9 02c0 5c56 d2bf
000002d0: 2964 06c0 7e63 1c3f b091 6c3f af59 c3bd
000002e0: 1ee8 e63e 1ef5 643f bfac fbbf a73c ec3d
000002f0: 7cce d33e f93e 4d3f f6a1 ea3d 2ef1 59c0
00000300: 183f 86bf 7827 4bc0 59c0 6340 46c2 24bf
00000310: ff1d 2b3f e91f 0440 17b4 cf3e 8efe 4fbe
00000320: d992 a73e f950 b53f c1ec 78bf a92f d5bf
00000330: ece8 eabf 7f2d d63f 44c6 8b3f 7578 b83f
00000340: 315a 8fbe 4ac3 0d3e 8748 0c3f 7b25 153f
00000350: 10b2 15be 3357 1540 2d11 973f 0c13 a2be
00000360: 4134 fb3d f948 8dbf d6af 3abd 4cb2 cabe
00000370: 8d76 023d a44d 08c0 fdfc 213b 9932 f63d
00000380: 43b7 7abf 9473 fa3e 5d4e c0be 29e2 07bf
00000390: 1a86 043d 67a8 bcbe 1e88 0fbe 26e3 613d
000003a0: 6c63 a0be b38c 0540 1ff0 9fbf 53d4 1b3e
000003b0: ddf7 863f 94ce a03e 8f41 9fbd 12f2 da3e
000003c0: 20d7 86bf b762 153e 46d9 f6bf e129 a93f
000003d0: d634 f93e dea7 413f 6b2a 123f 0dfb 2bc0
000003e0: 2827 e53f 3d2d 12c0 5837 b33f d2bd 9f3e
000003f0: 999d 723f 0ee4 8abc 1174 4f3f 5f8d 2740
-0.1850227 0.37549102 0.118178114 0.08491177 -0.013000615 -0.24097589 1.1353449 -0.088511296
0.6430374 -1.0214007 -1.125313 -0.2254294 0.005726411 0.1524754 -0.20705199 -0.47063935
0.5334018 -0.18000573 0.5656295 3.0308344 -0.5929658 -0.71487665 1.1882094 0.3923001
-0.84053457 -0.05920157 -0.25652465 6.1666155 0.19466227 0.18725461 0.21843274 1.0685792
-0.40254486 1.9605908 -3.2845101 -1.2496122 -0.06223543 -2.5600626 -1.7932414 0.7593072
0.583602 -1.2922148 -0.9487078 0.4216883 -1.7737226 -2.5310247 0.2651941 -0.42800844
0.10507026 0.8764454 1.3733016 -0.09842642 -1.6192974 -0.7861648 0.21643673 0.1849042
-0.27656186 0.6940611 1.0340989 -0.060563043 -2.4097905 -0.23516785 -0.09890747 -0.8536464
-0.578911 0.25581634 1.5926559 -0.07628672 -0.22428124 0.96292037 -0.21465673 -0.6250927
2.4909778 -1.2460263 0.35920033 -1.7128341 -0.16085912 0.4900402 -1.3020726 3.5314133
-0.9982001 -0.09217511 0.4525393 -0.0321709 -0.68012214 1.10625 -0.36764783 1.3856243
0.2852382 4.062211 1.157697 -0.6243877 -0.5365939 1.3334131 1.2013775 -1.1738279
-0.6480614 -1.7670472 -0.4119086 0.28996977 -0.1501003 0.02576759 0.3526896 0.8229626
0.31246546 0.73772925 0.86364156 1.1865369 -0.4496176 -0.50804174 -0.47433722 -3.3825421
1.1374652 0.69266313 -3.414419 -0.5604256 -0.020209262 -0.5557165 0.03057683 3.1246312
0.18057919 0.19664967 -1.3684145 0.679084 0.40464476 -0.26265046 0.81640023 3.5943208
1.3104051 0.543241 -2.4379785 1.7964004 0.079466715 -0.384261 -0.058067802 -0.13460639
1.5643251 1.3726432 3.135393 -1.7406454 2.7338033 1.4990517 -1.1031075 -0.5302584
0.43320403 0.9797246 0.09087699 0.22576588 -0.27227518 1.6259487 -2.5497048 3.9269235
-1.1537158 0.9374768 0.15280674 0.17019555 0.09413283 -0.2276316 0.8798085 0.8218905
-0.43763402 1.394196 1.0024836 0.8905134 -1.0244739 -0.8090407 0.66298807 1.5906008
-0.083105616 2.7943277 1.3136282 2.0931756 0.22766891 -1.5405818 0.19126187 1.0632665
0.22008033 0.07120149 -2.0455217 -1.6432605 -2.0998633 0.61089313 0.924098 -0.0953859
0.45098966 0.8943652 -1.9662093 0.11535006 0.41368473 0.80174214 0.11456673 -3.4053454
-1.0488005 -3.174284 3.558615 -0.6435894 0.66842645 2.0644476 0.40567085 -0.20311949
0.32729223 1.4165336 -0.9723626 -1.665517 -1.8352332 1.6732634 1.0919881 1.441176
-0.27998498 0.13844028 0.5479817 0.58260316 -0.14618707 2.3334472 1.1802117 -0.31655157
0.12265826 -1.1037894 -0.045577846 -0.39589155 0.03185134 -2.1297388 0.0024717443 0.120213695
-0.97935885 0.48916304 -0.37559786 -0.5307947 0.03235445 -0.3684723 -0.14016768 0.055148266
-0.31325853 2.0867126 -1.2495154 0.15217714 1.0544392 0.31407607 -0.07776176 0.4276281
-1.0534401 0.14588438 -1.9285057 1.3215905 0.48673123 0.7564677 0.57095975 -2.687198
1.7902575 -2.2840111 1.4001265 0.3119951 0.94771725 -0.016954448 0.8103648 2.6180036

fc1.bias f4 [32]
00000000: 055a a7bd 40e1 a93e ef2c 3dbe 64c9 9ebe
00000010: 16e7 30bf c15e 333e 4bef b93e 64ce 56bf
00000020: 6e62 e4be 09d7 91be 7158 9d3d 4dbd 03bc
00000030: 1a9b 1dbf 8624 d33d 2578 e3be 1c99 7d3e
00000040: 1007 8bbf a137 633d bc82 713e c4d7 93bc
00000050: 215f 45bf 62d7 9dbe 15de 86be 0d64 743e
00000060: 86bd a7be 1e29 d0be e90b 8ebe d231 b53d
00000070: d3b6 04c1 94f8 04c1 f204 05c1 4627 8bc0
-0.08171467 0.33179665 -0.18474172 -0.31013024 -0.6910261 0.17516614 0.3631538 -0.8390868
-0.44606346 -0.2848437 0.076828845 -0.008040738 -0.6156479 0.10309701 -0.444276 0.24765438
-1.086153 0.055472974 0.23585027 -0.018047221 -0.7709828 -0.30828387 -0.2634131 0.23866291
-0.32761782 -0.4065637 -0.27743462 0.08847393 -8.294635 -8.310688 -8.313707 -4.348544
