Checkpoints/Old/last_name_checkpt.pth.tar (torch_old, 23110 bytes, 6 tensors)

lstm.weight_ih_l0 f4 [64, 54]
-1.7095357 -0.28733557 -0.38042894 -0.014662458 -0.71810746 -0.34407476 0.14178835 0.7029046
-0.16615634 0.24153838 0.21411961 0.2311311 -0.7901806 0.0016474137 1.1234415 -0.07054004
0.039048016 0.1903047 0.13007309 -0.11785671 0.9639615 -0.2516565 0.11068221 -0.060415115
-0.02090427 0.008209428 0.5024915 0.9863586 0.47115368 0.81023574 0.10290087 -0.14665467
0.13160338 -0.13121286 0.10457728 0.5224987 -0.5998589 -0.24026497 0.030438116 0.37815762
-0.5149996 0.9323786 0.17868805 0.078562506 -1.1111436 0.08718357 -0.07259912 -0.0683868
-0.9741223 0.09558545 0.1939139 -0.36663318 0.10734159 -2.0090914 0.14687052 0.7288962
-0.68213916 1.001815 -0.8570463 0.13741332 0.399643 -0.35696256 0.852807 -0.1144394
0.07930249 0.26467294 0.26090154 -0.19594525 0.43509358 -0.084929965 0.08161557 1.4477453
0.36087507 0.73560596 0.03104028 0.45446423 0.0374005 0.048698384 0.044421647 0.06093779
0.07647574 -0.040915813 0.46194857 0.29875135 0.29194665 0.39427647 -0.8879347 -0.38820648
0.46049696 -1.4038163 0.48610398 0.19338296 1.1125338 -0.39134592 0.1336879 1.1433218
-0.177307 -0.64921147 -0.850338 0.26782173 -0.31625664 0.5257068 0.44811553 -0.14511389
-0.12945071 0.08289511 0.0017944276 -0.11422998 -0.57586455 0.22829896 0.3029048 -0.22610348
0.89208573 0.07912468 -0.6253912 -0.13287294 0.48111257 -0.19475397 0.920531 -0.22686924
-0.17909247 0.6297113 -0.37480333 -0.22483002 0.10484946 -0.5659794 -0.10146824 -0.22247306
-0.26857957 -0.5227854 -0.20389181 0.026591262 0.1319127 0.15098943 0.49077496 0.91244835
0.8801585 0.7406311 0.1757418 0.50749797 1.5320575 0.7988196 0.7648588 0.62996733
1.4502705 0.36672127 0.035743915 0.7423505 -0.0067619737 1.1060749 -0.27019364 1.6793348
0.81088597 1.2595726 0.103948064 0.5594167 0.6171738 -0.21616782 0.5872169 0.70430297
0.21675658 0.99305177 -0.56390184 0.37141752 -0.7422864 -0.7872279 -0.9527126 -0.013080572
0.13606726 0.38164437 -0.2851193 -0.18071306 0.06245166 0.42013094 0.8143081 0.28885528
-0.24871601 0.6331458 0.13670602 2.8327644 1.0534172 1.3170736 0.6115324 0.4450852
-0.031918693 -0.27560508 0.27937368 0.33241042 -0.43037173 -1.1538513 -0.30121607 0.19647293
-0.68147314 -0.80675155 -0.00286186 -0.27262548 0.09123683 1.4301723 0.39352202 0.5751154
1.0483744 0.84384614 -0.08315142 1.2240934 -0.016063638 0.4904428 1.2994403 1.0878844
-0.10998532 0.034617238 0.03791403 0.20669807 -1.0240463 1.507517 0.089328945 -0.38224036
-0.9242135 -0.14032753 0.40381652 -0.44383493 1.2515854 -0.34899133 -0.4539253 0.06654749
0.61588794 0.040570974 0.25440228 -0.40732935 -0.4629592 -0.8737545 0.48468757 -0.28415298
0.12622786 0.44772792 -0.5875905 -0.19576922 -0.61192226 0.7560074 -0.18508309 -0.03248173
0.19384587 -0.20884648 -1.9407046 -1.5241272 0.3670257 1.1004522 0.90816593 0.39506903
0.54185987 -0.5602321 0.4340652 -0.5025547 1.2442064 -2.1703134 0.9697142 1.1882896
00000000: 11d2 dabf a61d 93be 95c7 c2be ce3a 70bc
00000010: e4d5 37bf 912a b0be f730 113e 8ef1 333f
00000020: e324 2abe d655 773e 2c42 5b3e a2ad 6c3e
00000030: 4749 4abf 08ee d73a eecc 8f3f 4c77 90bd
00000040: d0f0 1f3d 3cdf 423e e131 053e dc5e f1bd
00000050: 2ec6 763f 1fd9 80be 5bad e23d d775 77bd
00000060: 6e3f abbc d680 063c 48a3 003f ff81 7c3f
00000070: 0e3b f13e 9c6b 4f3f b1bd d23d a42c 16be
00000080: 09c3 063e aa5c 06be 9d2c d63d 7ac2 053f
00000090: 5a90 19bf 0508 76be 5b59 f93c e09d c13e
000000a0: 04d7 03bf 5db0 6e3f 00fa 363e 61e5 a03d
000000b0: f439 8ebf 4d8d b23d d9ae 94bd 610e 8cbd
000000c0: 1460 79bf 4ec2 c33d 5e91 463e 58b7 bbbe
000000d0: e8d5 db3d f494 00c0 3a65 163e f198 3a3f
000000e0: aca0 2ebf 793b 803f 6367 5bbf 14b6 0c3e
000000f0: 029e cc3e ccc3 b6be 8f51 5a3f 345f eabd
00000100: 5869 a23d 3683 873e e394 853e dfa5 48be
00000110: 96c4 de3e c3ef adbd 1026 a73d b84f b93f
00000120: 9ec4 b83e ac50 3c3f 2f48 fe3c 89af e83e
00000130: 4431 193d f577 473d 79f3 353d e799 793d
00000140: 509f 9c3d 5797 27bd 8684 ec3e f0f5 983e
00000150: 087a 953e 9bde c93e b04f 63bf 00c3 c6be
00000160: 42c6 eb3e 41b0 b3bf 9fe2 f83e 2f06 463e
00000170: 8267 8e3f 7e5e c8be 7be5 083e 5e58 923f
00000180: f78f 35be b932 26bf c0af 59bf ee1f 893e
00000190: 64ec a1be b994 063f 666f e53e bc98 14be
000001a0: ba8e 04be e9c4 a93d 0033 eb3a 68f1 e9bd
000001b0: dc6b 13bf 34c7 693e 5716 9b3e ac87 67be
000001c0: bb5f 643f 1f0c a23d a319 20bf d80f 08be
000001d0: 6354 f63e 966d 47be eba7 6b3f 6950 68be
000001e0: 0464 37be c234 213f 39e6 bfbe d739 66be
000001f0: 50bb d63d 07e4 10bf 95ce cfbd facf 63be
00000200: 4383 89be 44d5 05bf 04c9 50be ebd5 d93c
00000210: 1f14 073e f99c 1a3e db46 fb3e 3796 693f
00000220: 1152 613f 009a 3d3f a9f5 333e 63eb 013f
00000230: 761a c43f 717f 4c3f c9cd 433f 8a45 213f
00000240: 77a2 b93f e4c2 bb3e 3668 123d af0a 3e3f
00000250: 8c93 ddbb dd93 8d3f d256 8abe 71f4 d63f
00000260: 3996 4f3f ad39 a13f b9e2 d43d ef35 0f3f
00000270: 1aff 1d3f 195b 5dbe d953 163f 334d 343f
00000280: 70f5 5d3e a438 7e3f df5b 10bf 702a be3e
00000290: 7b06 3ebf c587 49bf f9e4 73bf e54f 56bc
000002a0: 3755 0b3e e466 c33e 28fb 91be d80c 39be
000002b0: 50cd 7f3d 671b d73e 7f76 503f d7e4 933e
000002c0: 69af 7ebe d815 223f aafc 0b3e 034c 3540
000002d0: 60d6 863f de95 a83f 638d 1c3f 35e2 e33e
000002e0: 2dbd 02bd 1c1c 8dbe 110a 8f3e b331 aa3e
000002f0: af59 dcbe 66b1 93bf fe38 9abe 3330 493e
00000300: 0675 2ebf 4587 4ebf 0b8e 3bbb 9195 8bbe
00000310: 60da ba3d e30f b73f b87b c93e c33a 133f
00000320: 2231 863f 4d06 583f 4b4b aabd 18af 9c3f
00000330: e497 83bc 521b fb3e 0f54 a63f cc3f 8b3f
00000340: fc3f e1bd ceca 0d3d be4b 1b3d a9a8 533e
00000350: f313 83bf 51f6 c03f 18f2 b63d 02b5 c3be
00000360: 4299 6cbf 05b2 0fbe 0ac1 ce3e 553e e3be
00000370: f333 a03f feae b2be e668 e8be 0d4a 883d
00000380: d5aa 1d3f c02d 263d 0441 823e 798d d0be
00000390: fd08 edbe 60ae 5fbf f828 f83e 807c 91be
000003a0: e041 013e 983c e53e 556c 16bf ba77 48be
000003b0: f0a6 1cbf b389 413f 6c86 3dbe 900b 05bd
000003c0: 887f 463e dadb 55be 0269 f8bf 9a16 c3bf
000003d0: cbea bb3e 9edb 8c3f 907d 683f 7d46 ca3e
000003e0: 54b7 0a3f 5f6b 0fbf cb3d de3e 6da7 00bf
000003f0: 2842 9f3f 6ae6 0ac0 313f 783f e019 983f

lstm.weight_hh_l0 f4 [64, 16]
-1.0545856 -0.0013285509 -0.156592 -0.13961224 0.3850825 -0.5247516 -0.3563107 -0.14635658
0.1618646 0.46287832 0.16406988 0.14781493 1.0089335 0.6139645 0.19563529 0.22497538
-1.0289115 0.82727545 0.3535029 0.56050295 0.13589956 -0.10190369 0.15031984 0.4385488
-0.37389213 -0.08291025 0.23723587 1.1070627 0.18828769 0.23693433 1.0715067 -0.09068316
-0.57328767 -0.51271874 -1.1045542 -0.9197978 0.24524531 0.8056044 0.0814703 -0.2397953
0.45495528 0.05579758 0.029422347 1.6300776 0.4972564 0.5148159 -1.1224984 -0.3195262
-1.4891542 0.33090228 -0.5761177 0.10056124 0.76903564 0.7699509 -0.9622349 -0.5162299
1.3191255 -0.85822195 0.5304847 0.11930704 0.3928916 -0.6297439 0.4085523 -0.63992625
-0.16358954 -0.7507943 -0.6978312 -0.7543053 0.35117215 0.31909862 0.35672522 -0.08411577
-0.4637411 -0.0738071 -0.121882 0.38699466 -0.3980897 0.7093376 -0.1022804 0.18074611
0.5486152 -0.05115744 -0.4417877 0.046899796 -0.2936516 0.43052235 1.000789 -1.730097
-0.024337493 -0.848573 0.036907878 0.99015695 -0.13525367 0.4691416 0.27632895 -0.3789987
0.16603017 -0.23473053 -1.1799321 -0.44548228 -0.026771361 0.22519758 3.6777587 0.24734502
-0.3663159 0.6089398 0.018611236 0.2527342 -0.14107282 0.48872823 0.25381362 0.47763258
-0.2634328 -1.2062949 -0.24813011 -0.5008464 -0.15262003 1.363407 0.34237245 -0.29427227
0.25202903 0.49367383 -0.07313518 0.281537 0.5301864 0.6680326 -0.33809197 -0.018783696
-0.37496066 -0.12080325 -0.5510535 -0.5552382 0.047846 0.6889309 0.14750947 -0.45106223
0.68710953 -0.22615255 0.048967145 0.7821533 0.18567644 0.8358203 -0.41022137 0.105900005
-1.1041174 -0.5957878 -1.5697742 -0.48179638 0.25131282 1.2341306 -0.5244435 -0.38667363
-0.19461338 0.93379277 0.08575044 1.5577135 -1.2288002 0.86522883 -0.3205031 0.19282885
-0.4373557 0.04503231 -0.0054196115 -0.3273782 0.06705038 -0.8445779 0.17894623 -0.05317725
-0.07151987 0.64120895 0.082033694 0.02446345 0.44932953 0.5515489 -0.19836582 0.32638785
-0.3588654 0.21497798 -0.12436765 0.21946225 0.244743 -0.2770418 -0.14226599 -0.0044343495
-0.2736575 0.4446919 0.1824846 -1.0715492 0.22104536 0.2407138 -0.23799904 0.2660652
-0.4785854 -0.30621704 -0.20156787 -0.6218568 0.1338139 0.65771264 -0.7273825 -0.8669713
0.81044775 -0.72105014 -0.34211078 1.3476254 0.054734953 0.41843995 -0.06201473 -0.37325442
-0.66973764 0.4518843 0.63682866 0.7833425 0.16298832 -0.49988502 1.3962897 -0.6167398
-0.05280527 1.36706 -0.22050062 0.936344 0.2622321 2.874833 -0.28095806 0.63164437
-0.47410035 -0.42216244 0.07732286 0.28038558 0.12631153 -1.0707399 0.71897626 0.22070813
0.09150702 0.46764404 -0.040113524 0.095063604 0.14914739 -0.15366106 -1.56252 0.28626376
-0.4275104 -0.5299607 -0.5807503 -0.7664332 0.6319823 1.3288342 -0.3153995 -0.5437069
0.37729406 0.37721702 -0.5483021 0.4866411 0.8127365 0.87407446 -0.66155225 1.0609297
00000000: a9fc 86bf c522 aeba a759 20be 83f6 0ebe
00000010: 8929 c53e 1f56 06bf 5b6e b6be 80de 15be
00000020: d5bf 253e 63fe ec3e ef01 283e cc5c 173e
00000030: bc24 813f c72c 1d3f 9e54 483e f25f 663e
00000040: 5fb3 83bf 53c8 533f 55fe b43e 1f7d 0f3f
00000050: 4129 0b3e e2b2 d0bd 72ed 193e 7889 e03e
00000060: ca6e bfbe d9cc a9bd f6ed 723e 3bb4 8d3f
00000070: 7dce 403e ea9e 723e 2227 893f 18b8 b9bd
00000080: fbc2 12bf 8941 03bf 0862 8dbf de77 6bbf
00000090: 9621 7b3e 173c 4e3f e7d9 a63d e68c 75be
000000a0: e6ef e83e 018c 643d 2207 f13c 62a6 d03f
000000b0: 6498 fe3e faca 033f 07ae 8fbf f098 a3be
000000c0: 9b9c bebf 066c a93e 737c 13bf 0df3 cd3d
000000d0: 85df 443f 811b 453f 0755 76bf a527 04bf
000000e0: 1bd9 a83f 6fb4 5bbf d8cd 073f 4057 f43d
000000f0: 1629 c93e e536 21bf c42d d13e 35d2 23bf
00000100: 0484 27be 0e34 40bf 11a5 32bf 271a 41bf
00000110: d6cc b33e e560 a33e b0a4 b63e e444 acbd
00000120: 796f edbe 2d28 97bd 459d f9bd 2a24 c63e
00000130: 6ad2 cbbe 2697 353f 6378 d1bd 8215 393e
00000140: 0c72 0c3f 778a 51bd ff31 e2be 001a 403d
00000150: 8159 96be 6d6d dc3e db19 803f d273 ddbf
00000160: 6c5f c7bc 153c 59bf b72c 173d ed7a 7d3f
00000170: f07f 0abe 5433 f03e fd7a 8d3e 1e0c c2be
00000180: d003 2a3e 335d 70be 0408 97bf 4116 e4be
00000190: 9d4f dbbc 329a 663e 6660 6b40 0348 7d3e
000001a0: c28d bbbe 7be3 1b3f 9776 983c 6166 813e
000001b0: 6575 10be 963a fa3e dcf3 813e 428c f43e
000001c0: aae0 86be df67 9abf d215 7ebe 7837 00bf
000001d0: 6d48 1cbe 1f84 ae3f 714b af3e dbaa 96be
000001e0: f309 813e d1c2 fc3e e6c7 95bd 9e25 903e
000001f0: 4cba 073f 2f04 2b3f 641a adbe 44e0 99bc
00000200: d8fa bfbe b267 f7bd d811 0dbf 1724 0ebf
00000210: 2bfa 433d c75d 303f b90c 173e a1f1 e6be
00000220: 69e6 2f3f 8994 67be c691 483d 333b 483f
00000230: f721 3e3e 52f8 553f 8908 d2be 1ae2 d83d
00000240: b853 8dbf 8d85 18bf 5cee c8bf 04ae f6be
00000250: 13ac 803e fef7 9d3f ee41 06bf 16fa c5be
00000260: bb48 47be 0b0d 6f3f ed9d af3d 2863 c73f
00000270: 5349 9dbf a37f 5d3f fb18 a4be ed74 453e
00000280: 16ed dfbe cd73 383d ff96 b1bb 1e9e a7be
00000290: b651 893d 4236 58bf ae3d 373e 63d0 59bd
000002a0: 0279 92bd 4526 243f 4801 a83d 9367 c83c
000002b0: 850e e63e 4f32 0d3f 6920 4bbe 4f1c a73e
000002c0: 35bd b7be 3023 5c3e 77b4 febd b6ba 603e
000002d0: e99d 7a3e 6cd8 8dbe 2dae 11be 054e 91bb
000002e0: d61c 8cbe a8ae e33e 3edd 3a3e 8628 89bf
000002f0: b759 623e ae7d 763e 05b6 73be b339 883e
00000300: 2509 f5be 7bc8 9cbe cf67 4ebe 0232 1fbf
00000310: 8306 093e db5f 283f bd35 3abf d5f1 5dbf
00000320: 8179 4f3f be96 38bf 2529 afbe fd7e ac3f
00000330: c231 603d c33d d63e 2803 7ebd 341b bfbe
00000340: ed73 2bbf 615d e73e 3407 233f 2289 483f
00000350: 69e6 263e eef0 ffbe 9fb9 b23f a9e2 1dbf
00000360: 574a 58bd d2fb ae3f eaca 61be 3eb4 6f3f
00000370: 4943 863e 44fd 3740 bcd9 8fbe 72b3 213f
00000380: 48bd f2be ad25 d8be 735b 9e3d b38e 8f3e
00000390: cf57 013e 010e 89bf d40e 383f 5001 623e
000003a0: 0868 bb3d 0a6f ef3e 144e 24bd b5b0 c23d
000003b0: 18ba 183e 5359 1dbe a800 c8bf 2a91 923e
000003c0: a5e2 dabe 81ab 07bf 0dac 14bf f734 44bf
000003d0: 98c9 213f 3d17 aa3f 0b7c a1be 6030 0bbf
000003e0: b02c c13e 9722 c13e 875d 0cbf 0629 f93e
000003f0: 800f 503f 58c3 5f3f 7d5b 29bf 8bcc 873f

lstm.bias_ih_l0 f4 [64]
-0.48036572 0.19368272 1.0109957 0.3793658 0.18512015 0.014708038 0.4175807 -0.25043002
0.19698639 0.46261457 -0.6990272 -0.024568694 0.4961138 0.5394318 0.29303348 0.24133931
0.8169677 0.5561443 0.07985884 0.3065902 0.7126097 -0.27078307 0.72476494 1.4057381
1.6275826 0.27615705 1.3549223 1.1794242 1.1705562 0.70427364 1.5705204 0.32270572
-0.32186532 -0.2603443 0.22542508 0.7208998 0.24223284 -0.27586058 -0.35122108 0.4686059
-0.08800143 0.74782044 0.24661429 -0.5501143 -0.3234377 -0.4634966 -0.9459912 0.33054388
0.8784261 0.68753576 1.5060321 1.14929 0.56921107 0.7095097 0.75100094 1.1542691
1.2857742 0.5818704 1.090488 1.7137429 1.165546 1.01244 0.5072816 0.6998321
00000000: 7ff2 f5be c354 463e 4f68 813f 3c3c c23e
00000010: 2390 3d3e fcf9 703c 23cd d53e 5d38 80be
00000020: cdb6 493e d1db ec3e 72f3 32bf 4944 c9bc
00000030: a102 fe3e 3418 0a3f 7c08 963e a721 773e
00000040: cc24 513f 795f 0e3f 088d a33d 64f9 9c3e
00000050: 976d 363f 14a4 8abe 328a 393f 3aef b33f
00000060: a054 d03f 7564 8d3e 186e ad3f 5ff7 963f
00000070: c9d4 953f 474b 343f d006 c93f af39 a53e
00000080: 88cb a4be d94b 85be d5d5 663e e48c 383f
00000090: e30b 783e 993d 8dbe 40d3 b3be 1ded ef3e
000000a0: 183a b4bd 2971 3f3f 7588 7c3e 4ad4 0cbf
000000b0: a099 a5be 6d4f edbe 7b2c 72bf 0c3d a93e
000000c0: 88e0 603f 5802 303f a9c5 c03f ef1b 933f
000000d0: d1b7 113f 6da2 353f 9941 403f 17bf 933f
000000e0: 4094 a43f 75f5 143f 1c95 8b3f ed5b db3f
000000f0: 9c30 953f a297 813f 35dd 013f 3228 333f

lstm.bias_hh_l0 f4 [64]
-0.33271036 0.3306575 0.86319995 0.6712261 0.26039007 -0.19290227 0.1094226 -0.08739265
0.1994447 0.47432396 -0.6155448 -0.37696585 0.24172863 0.71526694 0.67721826 0.5115254
1.0432695 0.2314263 -0.03081053 0.567494 0.2674208 -0.186298 0.7019869 1.2925045
1.2319013 0.6736683 1.2932816 1.1679555 0.8079674 0.91733605 1.5708315 0.4992638
-0.3237964 -0.5251566 0.32188982 0.6165618 0.41789582 -0.27138022 -0.09108975 0.4521757
-0.20656896 0.76894695 -0.06726342 -0.43454388 -0.3152941 -0.72655034 -0.62113696 0.02053182
0.8302853 0.7773019 1.484888 1.0662411 0.28164747 0.5317075 0.675345 1.3599399
1.3143871 0.7921969 1.0729051 1.4239415 1.2945349 0.9296965 0.53274554 0.913638
00000000: 0359 aabe f14b a93e acfa 5c3f 79d5 2b3f
00000010: d951 853e 2c88 45be f518 e03d ebfa b2bd
00000020: 3b3b 4c3e 97da f23e 5894 1dbf ab01 c1be
00000030: b687 773e bc1b 373f 2d5e 2d3f 54f3 023f
00000040: db89 853f 04fb 6c3e 5d66 fcbc 4947 113f
00000050: 61eb 883e e7c4 3ebe 6ab5 333f ca70 a53f
00000060: f1ae 9d3f 8775 2c3f 408a a53f 917f 953f
00000070: f4d6 4e3f 89d6 6a3f 0211 c93f 819f ff3e
00000080: a4c8 a5be aa70 06bf bece a43e fed6 1d3f
00000090: 71f6 d53e 59f2 8abe 438d babd 9383 e73e
000000a0: d086 53be b5d9 443f 67c1 89bd 897c debe
000000b0: 3a6e a1be 34ff 39bf d502 1fbf 5932 a83c
000000c0: 948d 543f 42fd 463f cf10 be3f 977a 883f
000000d0: 1934 903e fc1d 083f 69e3 2c3f 8312 ae3f
000000e0: d63d a83f 6bcd 4a3f f454 893f b743 b63f
000000f0: 52b3 a53f 9700 6e3f 0362 083f 2ee4 693f

fc1.weight f4 [54, 16]
-1.8947393 -3.7486386 0.67340964 0.23690875 0.05135497 -1.1268642 5.2748303 0.6659469
-1.2594526 1.1442556 -1.5752593 -0.6579837 -1.9206673 0.2707649 2.6744823 0.24859443
0.52098256 1.2807491 0.38063103 0.15291853 1.5899625 0.3944376 -1.0472254 0.90203154
0.09595341 -0.5930226 -2.2171504 1.3516461 1.7740636 -1.0195756 -0.77600116 0.94414353
-1.0268129 1.6768423 -0.57605016 0.8548555 -2.036735 -1.5383314 3.574556 0.1777735
2.050209 -3.0295238 -0.19825274 -0.87126017 -2.0945642 -1.7022171 2.0516458 0.62981427
-1.1985154 2.5287364 0.69376963 0.26160815 1.6008266 -0.12878275 -1.0425345 -0.72147083
-1.8698833 -0.88095236 -0.6082377 0.66376 0.02850011 -1.3106103 -0.04163062 0.5138951
-0.71995795 -2.5482485 0.45347372 0.88285464 -1.0525824 -0.22971761 3.644257 -0.85404617
-0.7844023 1.1999916 0.26824048 0.19394614 -0.53087103 -0.33337685 -7.9972363 1.2592477
1.6651069 1.3464514 0.273131 -0.061255597 -0.94862396 -1.453398 -0.4942297 -1.4207047
0.9245966 -0.98306876 -0.46313417 1.606411 0.13149513 -0.6731191 -0.39312422 0.71463
-0.912369 1.8544238 0.44797692 -0.077587806 1.9517741 0.66923404 -0.99256337 0.65297455
-1.7568692 -0.8441047 2.4224331 1.432198 0.5275201 -1.0241984 0.19442749 -1.1192144
1.279613 0.2538311 -0.19596393 1.8306957 1.0119374 -0.082491755 2.5658333 0.73825043
1.5932688 -0.6653035 -0.28583184 0.1423346 -3.1813266 1.7211623 0.9148211 -0.91201377
-0.8249656 -3.1464002 -0.09484028 1.074215 -0.4790182 -0.9338922 3.5248115 1.0185955
0.76179963 0.5451168 2.1961694 0.17621295 0.9520447 -1.0358924 1.3372853 -1.0118818
-0.25487658 1.0758027 -0.66983294 0.03369477 -0.9999409 -1.0365685 -0.13850063 0.1151156
0.43744826 0.50896585 -0.58424413 0.0519074 1.1190099 -0.29230854 1.0440818 -0.8906568
-1.9552122 1.6917914 0.52214813 1.0562965 -1.7528206 1.417807 -1.6470257 1.1199485
2.1818528 -1.1157907 -1.0227052 -1.8103892 0.019662134 -0.29054344 0.5177538 0.8023529
0.22831501 0.64535135 -1.6419957 1.5315981 -0.7431017 -1.8826456 -2.893373 -0.58794975
-0.14130637 -0.64036727 1.2912836 1.8356386 0.041786063 -1.9385924 -0.38324934 -2.820417
-2.4643323 0.42144808 0.65540135 0.34665805 1.9371551 -0.57551867 -1.5679122 -0.22232139
1.6510502 0.45956352 -0.6175081 -0.5665652 -0.78310347 0.49459943 0.8414436 0.21195288
-1.3707709 2.174623 0.023485469 0.7768544 2.1300516 -1.5045254 -2.2496119 0.28140232
-0.24264133 2.2161224 2.571046 -0.784991 0.6646062 -0.6396514 0.122691445 -1.6018466
4.4774976 -3.3766644 0.2711242 0.93449855 0.23714463 -0.878113 -3.0976992 0.41137955
-0.49931288 0.31255504 -0.41421562 -1.0975336 2.5510697 0.09361889 -1.6515716 0.42547986
-0.77003676 1.413081 -0.29444966 0.81180584 2.04642 -0.29176453 2.9158325 -1.0891523
2.9130056 -0.7338069 -0.85759413 -0.613446 0.030610839 -0.9661973 0.23414803 0.943605
00000000: d186 f2bf b2e9 6fc0 9364 2c3f 3598 723e
00000010: 9759 523d 163d 90bf 69cb a840 7f7b 2a3f
00000020: be35 a1bf f876 923f 19a2 c9bf 9f71 28bf
00000030: 6dd8 f5bf b2a1 8a3e b82a 2b40 8a8f 7e3e
00000040: 1d5f 053f 96ef a33f 12e2 c23e ad96 1c3e
00000050: e483 cb3f baf3 c93e 7b0b 86bf 8aeb 663f
00000060: 3983 c43d 54d0 17bf cbe5 0dc0 bd02 ad3f
00000070: 8414 e33f 7481 82bf 03a8 46bf 64b3 713f
00000080: 9b6e 83bf c5a2 d63f 0678 13bf cfd7 5a3f
00000090: de59 02c0 0be8 c4bf 87c5 6440 420a 363e
000000a0: a036 0340 b8e3 41c0 c402 4bbe e80a 5fbf
000000b0: 570d 06c0 40e2 d9bf 2a4e 0340 823b 213f
000000c0: f468 99bf d1d6 2140 e39a 313f 81f1 853e
000000d0: e3e7 cc3f a0df 03be c571 85bf 50b2 38bf
000000e0: 5658 efbf 1886 61bf 77b5 1bbf 2dec 293f
000000f0: 1079 e93c 14c2 a7bf de84 2abd a18e 033f
00000100: 2a4f 38bf 8116 23c0 b52d e83e c302 623f
00000110: 05bb 86bf 183b 6bbe 823b 6940 c5a2 5abf
00000120: 97ce 48bf 5399 993f d156 893e d199 463e
00000130: 2ae7 07bf 5fb0 aabe 5ce9 ffc0 072f a13f
00000140: 3922 d53f 8558 ac3f d4d7 8b3e 26e7 7abd
00000150: 05d9 72bf f208 babf ad0b fdbe a7d9 b5bf
00000160: 5db2 6c3f 65aa 7bbf ec1f edbe e09e cd3f
00000170: a9a6 063e 8951 2cbf 9447 c9be fef1 363f
00000180: 0491 69bf c25d ed3f 3b5d e53e 5be6 9ebd
00000190: bcd3 f93f ec52 2b3f a218 7ebf 5729 273f
000001a0: 17e1 e0bf 3f17 58bf 2509 1b40 4452 b73f
000001b0: 8f0b 073f ef18 83bf 0018 473e 6b42 8fbf
000001c0: 5cca a33f 26f6 813e c5aa 48be 3d54 ea3f
000001d0: 2a87 813f 70f1 a8bd 9d36 2440 fbfd 3c3f
000001e0: 3bf0 cb3f 5551 2abf 8d58 92be 29c0 113e
000001f0: db9a 4bc0 0c4f dc3f b731 6a3f bc79 69bf
00000200: f230 53bf 9f5e 49c0 9f3b c2bd e17f 893f
00000210: e041 f5be 8f13 6fbf 8396 6140 5661 823f
00000220: 4d05 433f c68c 0b3f 0a8e 0c40 2b71 343e
00000230: 34b9 733f 1f98 84bf 2a2c ab3f 5885 81bf
00000240: 2f7f 82be e7b3 893f 2c7a 2bbf 8703 0a3d
00000250: 20fc 7fbf 47ae 84bf 1cd3 0dbe bac1 eb3d
00000260: 38f9 df3e 964b 023f 0691 15bf db9c 543d
00000270: b73b 8f3f 77a9 95be 79a4 853f 1602 64bf
00000280: 6544 fabf 9f8c d83f 80ab 053f b934 873f
00000290: 6d5c e0bf b37a b53f bdd1 d2bf 795a 8f3f
000002a0: 7aa3 0b40 3bd2 8ebf 01e8 82bf d5ba e7bf
000002b0: 7c12 a13c 1cc2 94be 838b 043f 0067 4d3f
000002c0: 69cb 693e bf35 253f ea2c d2bf 680b c43f
000002d0: ea3b 3ebf 88fa f0bf 062d 39c0 e083 16bf
000002e0: 9eb2 10be 1cef 23bf c848 a53f 35f6 ea3f
000002f0: dd27 2b3d cc23 f8bf 4239 c4be b681 34c0
00000300: 9fb7 1dc0 0bc8 d73e 62c8 273f 2a7d b13e
00000310: b3f4 f73f 3155 13bf 59b1 c8bf 38a8 63be
00000320: 9d55 d33f e94b eb3e 0315 1ebf 6b0a 11bf
00000330: 7879 48bf 233c fd3e d968 573f 2d0a 593e
00000340: 6c75 afbf 062d 0b40 9964 c03c eedf 463f
00000350: c452 0840 4a94 c0bf a4f9 0fc0 f713 903e
00000360: f876 78be f3d4 0d40 058c 2440 2cf5 48bf
00000370: a223 2a3f 32c0 23bf a745 fb3d 4f09 cdbf
00000380: a947 8f40 451b 58c0 cbd0 8a3e 4c3b 6f3f
00000390: 0bd6 723e 03cc 60bf b440 46c0 57a0 d23e
000003a0: f0a5 ffbe 3707 a03e 1214 d4be fb7b 8cbf
000003b0: ba44 2340 43bb bf3d b366 d3bf 7fd8 d93e
000003c0: 2121 45bf d7df b43f 1bc2 96be 82d2 4f3f
000003d0: 8cf8 0240 2962 95be 009d 3a40 5869 8bbf
000003e0: af6e 3a40 c5da 3bbf 4a8b 5bbf cc0a 1dbf
000003f0: 95c3 fa3c b558 77bf 80c4 6f3e 1990 713f

fc1.bias f4 [54]
-0.664256 0.058944598 0.5436273 0.077898785 -0.07748776 -0.3803576 0.25701442 0.7155378
0.5491553 -0.049175665 0.81468594 0.4320603 -0.21090624 0.07833605 -0.43571323 -0.033505723
-0.6744646 -0.20042823 0.13283877 -0.21303096 0.054805662 0.4711207 -0.013183365 -0.18510401
-0.16991562 0.1571285 -0.9656855 -1.8660222 -0.47926545 -0.071963206 -0.89069164 -1.4877794
-0.77244 -0.69226736 -0.20721027 -1.5331903 -0.41991368 -0.73260033 -1.0588425 -1.1777232
-0.39571735 -0.8491277 -0.79892147 -0.6940959 -0.5547154 -1.7719014 -0.36573985 -1.9836755
-2.0337188 -1.192881 -0.28567225 -1.0437549 -12.086471 0.72492
00000000: ae0c 2abf e46f 713d 292b 0b3f 6689 9f3d
00000010: e7b1 9ebd 3bbe c2be 6597 833e 7c2d 373f
00000020: 7195 0c3f 6c6c 49bd 428f 503f 0237 dd3e
00000030: cef7 57be a76e a03d ce15 dfbe 4c3d 09bd
00000040: b6a9 2cbf 0f3d 4dbe e306 083e ca24 5abe
00000050: e77b 603d bb36 f13e 0aff 57bc e88b 3dbe
00000060: 5cfe 2dbe 4be6 203e 2a37 77bf d1d9 eebf
00000070: 4862 f5be 7261 93bd 5e04 64bf 8e6f bebf
00000080: a1be 45bf 6f38 31bf ee2e 54be 943f c4bf
00000090: edfe d6be b28b 3bbf 2788 87bf a2bf 96bf
000000a0: 779b cabe 6f60 59bf 1e86 4cbf 45b0 31bf
000000b0: d401 0ebf aacd e2bf 4142 bbbe 14e9 fdbf
000000c0: 7328 02c0 53b0 98bf a243 92be c399 85bf
000000d0: 2f62 41c1 5b94 393f
