Checkpoints/Old/middle_checkpt.pth.tar (torch_old, 109684 bytes, 6 tensors)

lstm.weight_ih_l0 f4 [256, 32]
00000000: 9b0f 9e3e d63a 493e 8cab 6f3e dfc7 153d
00000010: dd63 273e a535 05be 2e0c 663f 2204 213f
00000020: bb25 0c3f 33a6 063f e2ef 723f 1b00 d6be
00000030: da84 7cbd bdc6 23bf f14a 1c3e 1b9f bfbd
00000040: aa70 f43e b923 523f 5072 35bf babd ffbb
00000050: 2cfb 3b3f 7fd4 48be 0552 333e 03f6 4a3f
00000060: b4b1 ca3f f09e 3b3f 1101 1d3f 9823 613e
00000070: 9cea 2bbd 1874 77bd e805 efbd 08f1 0ebf
00000080: de6c 74be 7b5a 193f 2952 923f a724 223f
00000090: 8e62 883d 156e 933f 981a 973f 4ad7 aabf
000000a0: a6ff 673f 68c6 dabe ae9a c7bf e35e 2d3f
000000b0: b124 933e a63a 8b3f 26bf 9ebe 2048 93bf
000000c0: d070 753f f84f 56bd 65eb 16be d7b3 e5bf
000000d0: 366d 653e b8a0 6c3f 1430 5a3e 4e23 833f
000000e0: a5a8 cf3f d149 b83e 49ee 2a3f 423d 883f
000000f0: fc18 233d a8b6 a3bc 5c0e 3abd b6ab 6dbf
00000100: 4ccb 883e 53b3 943e 2e7c 403d e38c 553f
00000110: 1054 263f 9add 39be 343d 703d 3d9d 8d3e
00000120: 2669 c3be a184 c63e 4608 cebe 4d0e ec3e
00000130: 1d74 74bd 8d97 833d 97a5 343f d60e c93d
00000140: 7def 65be fb45 403e 74c1 51be 8b82 933d
00000150: db52 d33f 2676 79be a4e1 2e3f 937f 043f
00000160: 6bc9 7cbe ee58 2b3e 27e4 34bf a707 7cbc
00000170: a62c fa3d 6898 613d 505e debd b252 2dc0
00000180: 53e5 af3d c243 af3e c2f2 0dbf 4032 713e
00000190: 623a 7ebe 5dc6 28bf 9ba8 213e 1094 acbe
000001a0: 5aef d5be 2d34 4d3e 9b08 543f 4f5f 993e
000001b0: 86b1 ccbe 4d49 5b3e 2ecd cf3e 210d fc3e
000001c0: 840e 0b3f e1e8 a9be 99c7 7b3f d43d e63e
000001d0: ce72 cb3e 3055 ccbe f893 dfbd b04b 7c3e
000001e0: db12 1b3f 34a5 ae3e 3c7b 5a3e 66e2 bb3e
000001f0: 880e bc3d 707e b3bd a011 b9bc e207 1dc0
00000200: be38 c03e daf5 cd3e 04cc b53e 805d b1be
00000210: d6b2 a639 b69e d8be f358 54bc 6519 d8be
00000220: 0923 313d 17b4 a2bd f335 a1be 1854 843c
00000230: 5650 193e 9f6f 013f bf8a 40bf 78cf 353c
00000240: 40d3 803c 9ecb 333f 56f1 0a3e f5d4 b23e
00000250: c225 11be 720f 993e 2b54 df3d 9068 92be
00000260: b0a4 713e c4f9 df3e ec99 bf3c 3b81 323e
00000270: b44e 54bd d036 2abd 5468 a83d 71dd b63f
00000280: 8115 6f3e d634 a7bd 4508 4fbf e33e af3f
00000290: 5628 1e3f 5c26 26be 57dc 7fbf 2a0d 0cbf
000002a0: d999 8e3e 55e1 c23f 6d9d 423e a2db 8f3f
000002b0: b293 e1bf 0d15 89bf 23d8 103f 1538 053f
000002c0: 4d6e 9ebe 985b 47bd e374 0cc0 aa4c 5bbf
000002d0: c8f2 b53e 596a 13bf 34dd e83e c9d2 483f
000002e0: 120b 58bf 3bf5 00bf 8ccf 5fbe 4970 d5be
000002f0: 361c cfbd d2ff b23d 52e6 de3d f9b1 5f3f
00000300: c4cd 0b3e 050b 273c b4ea a8be b9e7 4e3e
00000310: 0ade d73f 3786 6ebe 34d3 403e c22a 89be
00000320: 5fe9 3a3f 491a 57bf 5e0f 113f b1d4 a83e
00000330: ed3b f13d 2153 113e ef26 003e 7371 c13e
00000340: bbab f6be 49b4 f9be a81b de3d 707d 2abf
00000350: 7202 6a3f 599e 853e f87e 2dbf c272 6e3d
00000360: 88c5 efbd 0a2b edbc 42f6 c43e 5cf3 1a3e
00000370: c84f 653d 6430 383d b0d6 813d 1866 9cbf
00000380: 6ce8 d33c 34b2 f33e 48fa be3e b9a3 e13e
00000390: daff 6dbe da31 d2ba f3d4 773d 3df9 1b3e
000003a0: bdeb 10be 08ed 0b3f 7404 643f d939 143f
000003b0: 00d5 1a3e c6b5 593e b2cd 783e 16bc 50be
000003c0: 27cb c73d f6ff 063e 818c c43e 98d6 a73e
000003d0: 3987 c83e 408f 993c 1ccd 00bf 4030 66be
000003e0: 6890 c0be 5984 ac3e 8d9e e23e a4e3 933d
000003f0: c843 e53c 4421 893d 00b4 e2b9 8468 ec3d
0.3087128 0.1965135 0.23405284 0.036567565 0.16346689 -0.13008745 0.89862335 0.6289693
0.5474507 0.5259735 0.9489728 -0.41796955 -0.061650135 -0.63975126 0.15262963 -0.09356519
0.47742206 0.8208576 -0.7087755 -0.0078045996 0.7343013 -0.19612311 0.17511757 0.79281634
1.5835481 0.73289394 0.6132975 0.21986234 -0.041971788 -0.06041345 -0.116710484 -0.55836535
-0.23869655 0.5990369 1.1431323 0.6333718 0.06659423 1.1517969 1.1804991 -1.3346951
0.90624464 -0.42729497 -1.559408 0.6772291 0.2873893 1.0877273 -0.3100521 -1.1506386
0.95875263 -0.052322358 -0.14738233 -1.7945508 0.22404942 0.9243274 0.21307403 1.0245149
1.6223341 0.35993817 0.66769844 1.0643694 0.03981875 -0.019984558 -0.04542385 -0.92840135
0.26717603 0.29043064 0.046993427 0.834181 0.6497202 -0.1815094 0.058652118 0.27659026
-0.3816616 0.38773063 -0.40240687 0.4610466 -0.059681047 0.064253904 0.7056517 0.09817283
-0.22454639 0.18776695 -0.20483953 0.072026335 1.650966 -0.24361476 0.6831305 0.5175716
-0.2468621 0.16733143 -0.7066063 -0.015382684 0.12215547 0.055076987 -0.108578324 -2.7081723
0.08588662 0.34231383 -0.55448544 0.23554325 -0.24826959 -0.6592768 0.15786974 -0.33706713
-0.41784173 0.20039435 0.8282563 0.29955527 -0.3997919 0.21414681 0.40586227 0.49228767
0.54319024 -0.33185485 0.98351437 0.44969046 0.39736027 -0.39908743 -0.10916895 0.24638247
0.60575646 0.34110415 0.21336073 0.36696166 0.09182459 -0.087643504 -0.022591412 -2.4536061
0.3754329 0.40226632 0.35507214 -0.34641647 0.0003179523 -0.42308587 -0.01296066 -0.42206874
0.043246303 -0.07944506 -0.31486472 0.01615338 0.14972052 0.50560945 -0.7521171 0.011096828
0.015725732 0.7023257 0.13568625 0.34928098 -0.1417456 0.29894596 0.10904726 -0.285954
0.2359798 0.43745244 0.023388825 0.1743211 -0.05183287 -0.04155618 0.08223024 1.4286329
0.23348047 -0.081643745 -0.80871993 1.3691067 0.617803 -0.1622557 -0.99945587 -0.54707587
0.2785175 1.5225016 0.19005366 1.1238902 -1.7623198 -1.0709549 0.565798 0.520387
-0.30943528 -0.048671335 -2.1946342 -0.85663855 0.3553679 -0.5758415 0.45481265 0.7844663
-0.8439189 -0.5037419 -0.21856517 -0.4168723 -0.10112803 0.087402 0.10883774 0.8738094
0.13652712 0.010195498 -0.32991564 0.20205583 1.6864636 -0.23293386 0.18830568 -0.26790434
0.73012346 -0.8402448 0.56664073 0.3297477 0.11779008 0.14191867 0.12514852 0.37781867
-0.48177895 -0.4877036 0.10845119 -0.6659765 0.9140998 0.26097372 -0.67771864 0.05821491
-0.11707598 -0.028951187 0.3846913 0.15131897 0.05598429 0.044968024 0.063397765 -1.2218657
0.025867663 0.47596896 0.37300324 0.44070223 -0.23242131 -0.0016036585 0.06050582 0.15231796
-0.14152427 0.54658556 0.89069295 0.5790077 0.15120316 0.21260747 0.24297217 -0.20384249
0.09755545 0.13183579 0.38388446 0.3278091 0.39165667 0.018745065 -0.5031297 -0.22479343
-0.37610173 0.33694723 0.4426159 0.072211534 0.027986422 0.06695798 -0.0004324019 0.11543372

lstm.weight_hh_l0 f4 [256, 64]
00000000: 9d8f 90be ecd4 5dbe 8728 4e3d 473b 013e
00000010: b7bf 1f3f 7674 503e 3154 d83d b369 c73e
00000020: 9d40 573e bba5 98be bf2a d2be 8e49 4e3e
00000030: 5291 13bf ad24 adbe d4cc c0bd 6e9a 24be
00000040: af48 1e3e c0ac 1f3f a84d 963e 2fdc c43c
00000050: 09c3 083e 2c7d 24bf 1cf6 f0bd e258 17be
00000060: e7ec babd 13ec e5bd 51f6 2cbe 2318 d6bd
00000070: 21e2 50bd c6cf 1a3e 3b26 b33e 0352 58bf
00000080: b54c 833e d3e2 983e 8d60 4fbd 08d3 9a3f
00000090: 8ae5 f73d 43ec 1abe 0016 90be 354b 08bf
000000a0: 7084 2a3e 139b efbe dab2 ecbc 80cb 54be
000000b0: e0d0 6c3e e6e4 f7bd fd15 3fbf 3f44 17bf
000000c0: 4c75 323e 54a6 ee3d df11 613c 7403 88be
000000d0: bd0d 6f3e 6298 113e 3914 bebe c5b1 fc3d
000000e0: 093e ddbe a4eb 06be 1d38 89be d751 093f
000000f0: 637a 08be 32c5 a3be afd9 4fbe 42a5 9ebd
00000100: 7a4a 8d3e e5cf 0cbe f987 a5be 437c d13e
00000110: 2641 123f f146 503e 251a 6ebd d666 28bf
00000120: a832 00bf 4ae2 3d3f 8387 e0bc a77f 68bf
00000130: 090d 0bbf 92d6 ffbe a1c8 bdbe d5d7 c3be
00000140: 30b4 5b3d 65b1 b33d 955f 07bd 6fb0 523e
00000150: 924d d3bd 24d5 9b3e 69e0 c7be cfce 9dbe
00000160: 9875 3b3f e9dc 80be 79a3 a2be ae9b 073c
00000170: 2335 5d3e b81a 91be ccda 50be 9246 923a
00000180: b5b3 23bf f453 1bbc 2a73 45bd 3538 6dbe
00000190: a9b7 523e 20f4 90bd 8cc3 213e ad50 af3e
000001a0: 2694 c33d fa54 1f3e 1b99 ccbe b8a8 49be
000001b0: 4f68 a0bd 38a4 d93d 0aad 88bd 3e53 fdbe
000001c0: 829e 7ebe 9ea3 0b3e afe8 a8be 656b e5bd
000001d0: eab2 3abe dc1e 3bbe 97c5 aabe 67a6 dc3b
000001e0: ff3b 41be 8811 563e 8052 bebe e7ce 4e3f
000001f0: 3100 ff3c 4f18 5abf 8f54 e63d fc50 043e
00000200: f9f7 d6bd 468c e4be c9a1 e1bc a199 35bf
00000210: 671a 8d3c a50b bcbd 8d12 3b3d 7976 3d3f
00000220: 13b3 053e 9391 3c3e 93bf 41be 797d 1e3f
00000230: 1318 80be 6968 df3a 3ab0 143e 946b 4ebd
00000240: a7d5 723e 179b 1f3e 5448 52bf 1212 53bf
00000250: 286b 1a3f da0e 903e b968 34be 7fd3 dc3d
00000260: 306b 593e ffb3 a93c bb6d 773e c91f 1ebf
00000270: 6d63 42be 92ce 7e3f 9632 d63e 41eb 8d3e
00000280: 8d24 04bf 2b8d 1ebf c759 ed3d f1f0 283f
00000290: e348 1a3f 2298 fcbe b684 7f3c a3ee ea3d
000002a0: cd55 8dbe 50a4 f33d f8fc 7dbf d985 6a3e
000002b0: e4a7 f33e cedb 9e3d d449 3f3d 8668 8a3e
000002c0: f925 83bd e8b9 483f 88ad 48bf bbae 93be
000002d0: 863c 663e 8e88 31bd 78f5 c0bd 374d cdbe
000002e0: ab9e c2bd 4531 a8ba c027 353e 7cc4 9b3d
000002f0: 2d29 fb3f 6fb2 28bd 0b0a df3e a592 15bf
00000300: d6d4 5fbe 8589 d13e 281b 16be 239e 8a3e
00000310: 1344 fdbe f73d edbe 900c 4dbe 1922 a53e
00000320: 367d ce3e 878a 91be 2006 4bbb 628e e53e
00000330: 365f 10be c68d a73e 5451 9cbb 9cba 00be
00000340: d942 033e d52f e7bd a953 853e ae05 673e
00000350: 066d a7bd 8b57 0a3e 9fbf bd3e 9ba0 29bd
00000360: 1013 bbbd 7a76 cc3e a510 a7bd b164 2d3e
00000370: c535 01bf 55ad 36be 7bee f23c 1b94 7abf
00000380: 1294 0dbe d8b1 0dbf 1f62 243d 1891 2f3f
00000390: 68bc c9bd d7ed debc 9570 9d3c cf84 4ebf
000003a0: 9e99 4c3e 0b14 b93e 5c59 913e c509 da3d
000003b0: 5c49 9bbd 0c03 9abe 41a5 0fbf 26da 8f3d
000003c0: 6719 1cbf 04a6 8bbe fb2d 583e 180b aa3e
000003d0: 13a1 2c3e c548 203e a792 dabc f4d6 76be
000003e0: 4281 363f cf55 c6be d093 c13b ce14 d1be
000003f0: d8e7 9b3e 4066 4f3d f5ea 90be 2ce1 843d
-0.28234568 -0.21663254 0.05033162 0.12620269 0.6240191 0.20356926 0.10562933 0.3894783
0.21020742 -0.29813942 -0.41048238 0.20145246 -0.57643616 -0.33817044 -0.09414068 -0.16074535
0.15457414 0.6237297 0.29356122 0.024030773 0.1335565 -0.642535 -0.11765692 -0.1478
-0.09127217 -0.11226668 -0.16890837 -0.104538225 -0.050996903 0.15118322 0.34990105 -0.8450014
0.2564446 0.29860553 -0.050629187 1.2095652 0.12104328 -0.15129189 -0.28141785 -0.53239757
0.16652083 -0.46798 -0.028893877 -0.20780754 0.23126554 -0.12104206 -0.74642926 -0.5908851
0.17427558 0.11652818 0.013737171 -0.26565135 0.23345084 0.14218286 -0.37124804 0.12338594
-0.43211392 -0.13175827 -0.26800624 0.536405 -0.13327937 -0.31986386 -0.20297883 -0.07746364
0.27595884 -0.1375118 -0.323303 0.40915117 0.5713066 0.20339562 -0.058130402 -0.65781915
-0.50077295 0.74173415 -0.027408367 -0.9081978 -0.54316765 -0.49968392 -0.3706713 -0.38250604
0.053638637 0.0877407 -0.03305014 0.20575117 -0.1031753 0.3043605 -0.390384 -0.30821845
0.7322631 -0.2516854 -0.31765345 0.008276863 0.21602301 -0.28340697 -0.20395964 0.0011159948
-0.63946086 -0.009480465 -0.048205532 -0.23165973 0.20577873 -0.07077813 0.15797251 0.34241238
0.095497414 0.1555976 -0.3996056 -0.19693267 -0.07832395 0.10627025 -0.066736296 -0.4947757
-0.24865153 0.13636634 -0.32990023 -0.112021245 -0.18232313 -0.1827349 -0.33353874 0.006733704
-0.18870543 0.20905125 -0.37172318 0.8078446 0.031128021 -0.8519334 0.11246597 0.12921518
-0.10496516 -0.4463827 -0.027542965 -0.70937544 0.017224504 -0.091819085 0.04567199 0.740089
0.13056593 0.18414907 -0.18920736 0.61910206 -0.25018367 0.0017044666 0.1452035 -0.050395563
0.23714314 0.15586506 -0.82141614 -0.8244945 0.6031976 0.2813633 -0.17618074 0.10782527
0.21232295 0.020715712 0.24162953 -0.6176725 -0.1898324 0.9953395 0.4183547 0.27718547
-0.5161827 -0.61934155 0.11589389 0.6599265 0.60267466 -0.49334818 0.015595606 0.114712976
-0.27604523 0.118965745 -0.99214125 0.22902621 0.47589028 0.07756768 0.046701267 0.2703287
-0.06403727 0.7840867 -0.7838979 -0.28844246 0.22484025 -0.04334312 -0.094218194 -0.40097973
-0.0950292 -0.0012832066 0.17690945 0.07605836 1.9621941 -0.041185793 0.4356235 -0.58426887
-0.21858534 0.40925232 -0.14658797 0.27073774 -0.49466 -0.46336338 -0.20024323 0.32252577
0.40329903 -0.28426 -0.0030978993 0.44835192 -0.1409882 0.32725352 -0.0047704373 -0.12571186
0.12818469 -0.1128842 0.2604039 0.2256076 -0.081750914 0.13509957 0.37060258 -0.04141293
-0.09134495 0.3993414 -0.081574716 0.16932942 -0.5047267 -0.17839558 0.029654732 -0.9788224
-0.13826016 -0.55349493 0.040132638 0.6858077 -0.09850389 -0.02721302 0.019218722 -0.806714
0.19980475 0.36148104 0.28388488 0.10646395 -0.075823516 -0.3008045 -0.5611153 0.070240304
-0.6097626 -0.27275097 0.2111129 0.3321159 0.1685832 0.1565276 -0.026681257 -0.24105436
0.7129098 -0.38737342 0.005907513 -0.40836185 0.3045032 0.050634623 -0.28304258 0.064882606

lstm.bias_ih_l0 f4 [256]
00000000: 29e3 a0bd 8660 023f d8c4 eebc 686a 8abe
00000010: 158b d03e 07e5 8f3e a828 b53e ed91 25be
00000020: 433d d8be 8a7d 7d3d 06cb d8be 9638 9e3e
00000030: c0af a0be 23a5 d4bc 5b5b eb3e ea7b c8be
00000040: f2d3 29bf 21f5 b9be d021 9d3e 7a7e 20bf
00000050: 3d13 00be 7f42 9d3e 6f38 363f 8162 debc
00000060: 747c 36bf 5739 05bf d4d0 933d 2fb1 413e
00000070: 2a80 3dbf efa1 36be 8db1 2abe 8e65 63bf
00000080: 919f c7be cff3 813e 3d0a 04bf 8d01 77bf
00000090: 7ef2 a0be 9408 91be b0c8 c0be 358e 32bf
000000a0: a14f a2be 7fe4 3dbd 6bc4 9f3e 8776 b6be
000000b0: 56c5 c2be 72eb b0be e9f6 42bf 4dd9 75be
000000c0: 1801 71bf 3ca2 81be 48fc 53be e81f c83d
000000d0: acc3 fabe 1396 14bf 470e a03e b5ad 233e
000000e0: 82b2 0d3e 9448 fb3e 56eb 213d 5fe8 53bf
000000f0: c1b7 73be a216 53bf 1e3b 35be fba1 723e
00000100: 1631 403f 2891 563f 6884 043f d300 e53e
00000110: 496a 763e d2df ec3e 9ac3 453f 2fcf 6c3f
00000120: 68ef 423f aac9 853d 21b8 513f 9812 ae3e
00000130: 8db0 3d3f fe3e 003f ff2b eabd 5e8d 5c3f
00000140: df39 99bd 423d 3a3f 8244 6e3f 8b66 a6be
00000150: ff8d b5bc e81d 303d d2c6 f23e 2351 423e
00000160: 0f11 a63e 9788 603e 8505 dd3e 211b 24bf
00000170: 13bb b03f a18f 0ebd 4e71 9ebe a071 d53f
00000180: 80f8 cb3f 096c 4dbd dd89 073f 45e7 963f
00000190: fa2d 2f3f 78d4 aebe 9980 ff3e c036 8d3f
000001a0: 0eee 8e3d 209b 74bb f9f1 573e 4d93 263f
000001b0: 5983 093e 34d6 2cbe 9921 8c3f eb58 743f
000001c0: 2d7a 9f3f 6dd9 13be f58e 1c3f da73 403f
000001d0: e44b c03e ea4b 8e3f 0f6a 923f c3f1 063f
000001e0: f2da 843f c3e6 dc3e 6d52 ae3e 560f a23f
000001f0: eb4d 3fbe 6aac aa3f 386d 00bf e808 863e
00000200: 4ae1 5dbe ddf2 373f 6567 21bd 8243 27be
00000210: 6858 dfbe 2a40 7bbe eab2 96bc 88f4 b93e
00000220: dd01 573b 08ae b4be 0592 b2be 669e 163f
00000230: 9835 3f3e 68a5 fa3e 303f c5be 1d12 2c3d
00000240: 3059 c6be 5877 42be 0231 063f ed32 853e
00000250: a42e 9cbe 5c49 e2bd b12b 033f 5091 343e
00000260: 909a 933d ed05 59be 2e19 2abe 0c8f 1ebe
00000270: 3094 92be 855c 4f3e ff5a e23e b679 84be
00000280: 6859 923a e0d9 d93e 375b fd3d e9a3 b5bb
00000290: 1d49 a6bd 33a1 c23e dab6 a9bd fdbb 34be
000002a0: 0ab1 c3be d058 d83d 6190 8e3e 4571 9abd
000002b0: 6182 8fbb 5e55 9dbe 62e6 4bbe e4c1 0c3d
000002c0: a9ab 503b faee 4abe f882 b63e 5617 de3e
000002d0: b491 0c3e 21e8 c1bb afc5 87be ddd6 b03d
000002e0: 3c4a da3e b619 f9be e21c c63e 7660 063d
000002f0: 0191 1cbf 49e6 5a3e a8e8 cbbd 0f1c db3e
00000300: ad95 413f 8df5 6c3f da72 b53e 0c8b 8cbd
00000310: 4f7a a03d 60c0 db3d a374 bb3d a796 333f
00000320: 9573 ac3d 77c1 d3bd 2f49 9abd 2919 b7bd
00000330: 987c a43e 79cd 323f db2a 903e 651c 363f
00000340: 49ee c23d 4ce9 193e 4e9f f73e 3aa8 bbbe
00000350: 3e6f 673b 5962 193e 5865 d2bc ca16 153f
00000360: f05d 903e c0b9 a33b dd79 1ebe 4276 033f
00000370: 4c5c 043f b3ac 44bd 1d2d 1cbd 91a9 503e
00000380: 3483 983e 76c3 013e c5d5 883e c3e1 7b3e
00000390: 2d45 193f 7f2e 1e3e 3421 a83e b56a b63e
000003a0: 4a44 b5bc 3421 cd3d fde1 8e3e d5e9 ee3d
000003b0: d3c6 c13e a29e cebe d788 0b3f 0417 aa3e
000003c0: a67b b63d 2aa3 303e e46f b8be 8d89 973e
000003d0: 580b 6cbd 9b8e 1e3e 0184 d33f 1b63 fc3e
000003e0: 8c92 8e3e a88b 6d3e 2bf0 803e 3557 a83e
000003f0: a000 15be 1b03 e93e 3174 1b3f 95ce 043f
-0.07855827 0.50928533 -0.029146597 -0.27034307 0.4073111 0.28104421 0.3538258 -0.16168948
-0.4223424 0.0618873 -0.42342395 0.30902547 -0.31384087 -0.02595765 0.45968136 -0.3915704
-0.6633903 -0.3631983 0.3068986 -0.6269299 -0.12507339 0.30714795 0.7117986 -0.02714658
-0.7128365 -0.5204062 0.07217565 0.18915246 -0.7402369 -0.1783521 -0.16669293 -0.88826835
-0.38988927 0.25381324 -0.5157812 -0.9648674 -0.31435007 -0.28326857 -0.37653112 -0.6974824
-0.31701377 -0.04636049 0.31204543 -0.35637304 -0.3804118 -0.3455463 -0.76158005 -0.24008675
-0.94142294 -0.25319088 -0.20701706 0.09771711 -0.4897741 -0.58041495 0.31260893 0.15984233
0.13837627 0.4907881 0.039531074 -0.82776445 -0.23800565 -0.8245641 -0.17698333 0.23694603
0.750749 0.8381524 0.51764536 0.4472719 0.24063982 0.4626451 0.7725159 0.9250364
0.76146555 0.06532605 0.81921583 0.3399856 0.7409752 0.5009612 -0.11434173 0.8615321
-0.07481741 0.7274972 0.93073285 -0.3250011 -0.022162436 0.04299727 0.47417313 0.18976264
0.3243489 0.21927105 0.43168274 -0.64103895 1.380709 -0.034804944 -0.3094582 1.6675301
1.5935211 -0.05015186 0.5294474 1.1789328 0.6842953 -0.34146476 0.499028 1.1032333
0.06978999 -0.0037323907 0.21088399 0.65068513 0.13429011 -0.16878587 1.0947753 0.9544818
1.245916 -0.1443841 0.61155635 0.75176775 0.375579 1.1116917 1.1438617 0.5271265
1.0379317 0.43144807 0.3404726 1.266093 -0.18682067 1.3333867 -0.50166655 0.2617867
-0.21667972 0.71854955 -0.039405245 -0.16334346 -0.43622136 -0.24536195 -0.01839586 0.36319375
0.0032807507 -0.35289025 -0.3487703 0.58835447 0.18672788 0.4895432 -0.3852477 0.04200946
-0.3873992 -0.18990839 0.5241853 0.26015416 -0.30504334 -0.110491484 0.5123854 0.17633557
0.07207215 -0.21193667 -0.16611168 -0.15484256 -0.28628683 0.20250137 0.4421005 -0.25874108
0.0011165561 0.42549038 0.123709135 -0.0055432213 -0.08119414 0.3801361 -0.08286829 -0.17649837
-0.38221008 0.10563815 0.27844527 -0.07541136 -0.004379556 -0.30729192 -0.19912103 0.034364596
0.0031840599 -0.19817725 0.35646796 0.4337718 0.13727456 -0.0059175645 -0.26518008 0.08634732
0.4263476 -0.48652428 0.3869391 0.032806836 -0.6115876 0.2137691 -0.09956485 0.42794845
0.7561901 0.9256218 0.35439187 -0.068624586 0.078358285 0.10730052 0.09153106 0.7015175
0.08420483 -0.10339635 -0.0753349 -0.08940346 0.32126307 0.69844776 0.28157696 0.71137077
0.095181055 0.15030402 0.48363727 -0.36651784 0.0035314108 0.14978923 -0.02568309 0.582379
0.2819667 0.0049965084 -0.15476175 0.5135232 0.51703334 -0.04801626 -0.03812896 0.20377184
0.297876 0.12672219 0.26725593 0.2459784 0.5987118 0.15447424 0.32837832 0.35628286
-0.02212729 0.100160986 0.2790679 0.11665694 0.37847003 -0.40355402 0.54505676 0.33220685
0.08910303 0.17249742 -0.36022866 0.2959713 -0.057628006 0.15484087 1.6524659 0.4929436
0.2784618 0.23197806 0.25183234 0.32879034 -0.1455102 0.45510182 0.6072417 0.5187772

lstm.bias_hh_l0 f4 [256]
00000000: 3f11 2cbd bd00 b73e d356 b5bd 87bb b6be
00000010: 89ff d93e cd22 613e 78b9 d33e 87c2 77bd
00000020: 85de f2be 59e2 3d3d e069 b3be 083d 8b3e
00000030: 1c15 91be fe4d ecbd 6fc5 e83e e11f 1dbf
00000040: b823 14bf 13ea c0be 8620 ae3d 5e08 38bf
00000050: 23f0 c1bc db42 a33e ed27 363f 05fc a93d
00000060: e406 25bf 88fc ebbe 4a6a 00bd 4569 5e3e
00000070: 5246 32bf 70ae d7bd 8147 e2bd 383d 5dbf
00000080: e54e 95be 9ff0 603e 2b70 25bf f7a9 65bf
00000090: 482d 81be d289 82be ecc2 d9be b962 13bf
000000a0: 7034 bbbe 2446 023d 91ca f43e 4f6b 12bf
000000b0: c497 02bf 9826 fdbe 0dbe 43bf a8c9 afbe
000000c0: 6a50 48bf 5b2e f6bd d217 58be 9e24 923e
000000d0: 9d4a c0be 33be 15bf a166 f73e 85fb 1bbc
000000e0: b137 8a3e dfb9 023f 471f 5a3d 31cf 6abf
000000f0: ed9d 48bd c057 68bf a047 83be 8807 4b3d
00000100: 9072 1e3f aca8 453f 7276 ee3e 576d d33e
00000110: 6e28 d43e ea38 983e de87 3e3f 7911 4f3f
00000120: 92e5 4d3f cebd bbbc 1b44 4f3f 0fe7 7e3e
00000130: d7ab 473f 316f 1a3f cf8c 34be 2441 603f
00000140: a4df f5bd 2cba 573f c022 453f 3da1 3cbe
00000150: ef72 e4bc 37b0 793d 65cb 023f 653e 373d
00000160: 851c e73e 8b0a 8f3e 212a de3e 7b6f 1abf
00000170: 6141 ac3f d8bd abbc 56ef 90be b2f2 d13f
00000180: 400f b93f 0594 dc3c cd2a ec3e 1dbb a03f
00000190: d0f7 313f 300d c7be ef0e fd3e 5228 953f
000001a0: ffd2 9fbd e454 08bc a39c 2c3e 3f97 203f
000001b0: b911 2b3e 9e74 69be c5e8 993f dfaa 4a3f
000001c0: 716d af3f 7263 2bbe d54c 243f 3058 0c3f
000001d0: f85d a13e 4e92 743f d7f0 953f 9fac b33e
000001e0: 408a 983f 21c2 db3e 89b4 9c3e e421 903f
000001f0: 9bea 58be 76eb bf3f 4f7d cfbe e236 ae3e
00000200: f64e 3bbe 37ae 713f e06d 36be f331 4dbd
00000210: 60b7 a9be 90b6 18be a4a6 603c 0472 cd3e
00000220: 4251 203d 9661 6fbe a1e7 a6be 7a8d 323f
00000230: fb22 983d efcf f23e 5018 97be c075 c1bd
00000240: 4c98 4fbe 0328 00be a0b2 093f 32ea 513e
00000250: 02dc b6be 507f d9bd 91a7 2e3f 21ff bc3e
00000260: f086 103d a584 3abe d569 e2bd abf6 95be
00000270: e2c3 99be 01eb 113e 2fb8 dc3e 8c38 6dbe
00000280: ff27 803d 6ca4 0a3f 61f9 b13e 9477 45bd
00000290: 8131 9abe 6a13 1e3f 8eb1 69bd 8b31 47be
000002a0: 8073 94be 5284 6d3d 6eb4 ca3e 80bb 5cbc
000002b0: 9268 9dbd 5665 87be 2853 18be c8d2 b73c
000002c0: a04c 46be 73c4 8bbd ec25 ae3e 44ba 063f
000002d0: b0a9 b73d 3bf2 0a3e 1b0f 7ebe bb73 3a3c
000002e0: e2ac 823e c6b1 edbe 4ce7 b63e 91e9 35be
000002f0: ab3f 2cbf 1c4e 8b3e 66bd f03c ad4d 913e
00000300: 85e4 163f e9e9 6d3f b6e4 d33e a4f7 8dbd
00000310: 87ea 9c3d 2483 223e e4f3 623c 1163 343f
00000320: 3224 623e 5118 1cbc 3e8b 5e3d af0a d43d
00000330: d2f1 ee3e d7b5 1e3f 1e91 c63e e9d6 673f
00000340: 2c30 2d3e 3554 9a3d 3d5e 053f 7e18 f3be
00000350: d83d d33d f3ff c03e 58da 933d 73ac ca3e
00000360: 0e00 b13e 82f3 0b3d f524 a8bd 9f29 fb3e
00000370: e04b 013f 1843 d4bc 36be a2bc 596c 7f3e
00000380: bc82 283e e376 8a3e a981 8e3e 1faa 173e
00000390: aab7 e53e 96f1 29bd baa2 973e 9d56 a93e
000003a0: 43f1 e03d f8c8 193e 5584 813e b7a8 fd3d
000003b0: 4ba4 e23e d741 79be e663 c33e c64a 013f
000003c0: 60cf 0a3e f8bd b73e 4ec2 c0be 4953 9a3e
000003d0: 96a5 7c3c c722 543e 47d9 cc3f 9b05 263f
000003e0: 85de 1f3e c8e0 d63e 5b10 a63e cf95 0c3e
000003f0: 6584 32be b24d 1c3f a10e 053f d781 1f3f
-0.042008635 0.3574275 -0.08854451 -0.35689947 0.4257777 0.21985932 0.4135244 -0.06048825
-0.47435394 0.04635844 -0.35041714 0.27195 -0.28336418 -0.11538313 0.4546313 -0.6137677
-0.57867 -0.37678584 0.08502297 -0.7188777 -0.023674076 0.31886944 0.7115467 0.08300022
-0.6446364 -0.46091104 -0.031351365 0.21719845 -0.6963855 -0.10531318 -0.110487945 -0.8642154
-0.29161754 0.2196679 -0.6462428 -0.8971247 -0.2522986 -0.25495774 -0.42531526 -0.57572514
-0.36563444 0.031805173 0.47810796 -0.5719499 -0.51012826 -0.49443507 -0.7646187 -0.3433354
-0.782477 -0.1202056 -0.21102837 0.28543562 -0.37556925 -0.58493346 0.48320487 -0.009520416
0.26995614 0.51064867 0.053252485 -0.917224 -0.048978735 -0.90758896 -0.25640583 0.04956773
0.6189356 0.772105 0.46574742 0.41294357 0.41437095 0.29730922 0.74426067 0.80886036
0.8042842 -0.022917654 0.80963296 0.2489283 0.7799658 0.60325915 -0.17631839 0.87599397
-0.12005547 0.8426845 0.7700615 -0.18420883 -0.027886836 0.060959067 0.51091605 0.04473724
0.45138946 0.2793773 0.43391517 -0.60326356 1.3457452 -0.020964548 -0.283076 1.640219
1.4457779 0.02692605 0.46126404 1.2557102 0.69518757 -0.3887725 0.49425456 1.165293
-0.07803916 -0.008321021 0.16856627 0.62730783 0.1670598 -0.22798392 1.2024161 0.7916698
1.3705274 -0.16737154 0.64179736 0.54822063 0.31517005 0.95535743 1.1714123 0.35092637
1.191719 0.42921546 0.30606487 1.1260343 -0.21183245 1.4993732 -0.4052529 0.34026247
-0.1829184 0.94406456 -0.17815351 -0.050096463 -0.33147717 -0.14913392 0.013711605 0.4012605
0.039139993 -0.2337707 -0.32598594 0.69747126 0.07428547 0.47424266 -0.29510736 -0.09446287
-0.2027294 -0.12515263 0.53788185 0.20499495 -0.35714728 -0.10619986 0.68224436 0.36913398
0.035284936 -0.18214662 -0.11055342 -0.29289755 -0.3003226 0.14249803 0.4310927 -0.23166102
0.06257629 0.5415714 0.34760574 -0.04820974 -0.30115893 0.61748374 -0.057054095 -0.19452493
-0.2899437 0.05798752 0.39590782 -0.013472438 -0.07685961 -0.264445 -0.14875472 0.022439376
-0.19365168 -0.06824579 0.34013307 0.5262797 0.08967912 0.13568966 -0.2481045 0.011380131
0.25522524 -0.46424693 0.3572334 -0.1776488 -0.6728465 0.2720803 0.029387187 0.28379574
0.58942443 0.92935044 0.4138543 -0.06931999 0.0766192 0.15870339 0.013852093 0.70463663
0.2208412 -0.009527282 0.05433201 0.103536 0.4666887 0.61996216 0.3878259 0.905623
0.16912907 0.075355925 0.5209692 -0.47479624 0.1031453 0.37695274 0.0721938 0.39584693
0.34570354 0.034167774 -0.08210174 0.49055192 0.505064 -0.025910899 -0.01986609 0.24943675
0.16456121 0.27043828 0.27833298 0.1481099 0.44866687 -0.04149016 0.29616338 0.33073893
0.10983517 0.1501807 0.25296274 0.123856954 0.4426597 -0.24341522 0.38162154 0.5050472
0.1355567 0.35887122 -0.37648243 0.30141667 0.015420338 0.20716392 1.6003808 0.64852303
0.15612228 0.4196837 0.32434353 0.13729022 -0.17433317 0.61056054 0.51975447 0.62307495

fc1.weight f4 [32, 64]
00000000: de46 943d 4681 f43e 8e43 923e 044f b4bd
00000010: f48f 693d 9fb7 69be b939 a83f 4347 8cbe
00000020: 3c55 3f3f 979c 96bf abf1 9abf 5fdf a9be
00000030: 736d ecbd 3765 af3c f107 76be 5bec d8be
00000040: 17ac 2c3f fc96 08be 1afd 043f c04e 4b40
00000050: b35c 09bf 0ff8 6ebf b46b 9b3f 47ba 9f3e
00000060: c8cf 1cbf 9d2b 63bb 995b d7be dbb4 cb40
00000070: a918 c23d 8d97 9b3d 8041 ba3c 7ec0 733f
00000080: a46c a6be 87f5 0540 6fe0 45c0 bb83 6cbf
00000090: 212d 05be 1499 40c0 193d 00c0 e5a5 933e
000000a0: 8457 d53e b458 bdbf 85e4 52bf e11d f03e
000000b0: d07b e9bf 394a 17c0 e95d 9c3e 950e 0dbf
000000c0: b600 7dbc 4b12 7b3f 40b4 cf3f b7bf 04bd
000000d0: 7d1f b2bf 1309 29bf 4ea9 b63e 26bf ac3e
000000e0: a81d 20be 1782 823f feed 8c3f 01a9 233e
000000f0: 3436 2cc0 8c6b a0be 68c6 50bd 4fda 9abf
00000100: 4d2a f2be b80e 803e 3431 d83f fb67 db3d
00000110: 3fb4 8bbc a2e9 943f 45de 9fbe bd44 ffbe
00000120: 1703 2340 79fd a6bf 0a81 0b3f 4d4f e5bf
00000130: 636d 223d 833e b53e 6089 9cbf e3ac 6b40
00000140: aa5d 72bf 8640 8ebe 7f8e a23e 048b 363e
00000150: ae29 20bf 7127 a43f 3bb4 dbbe a95b 9e3f
00000160: 6dfc 093e 6e79 8d40 ef5c a53f e470 a8be
00000170: fdd0 00bf 15fc a63f 5534 6a3f 7c47 8bbf
00000180: 8fad 41bf efd1 eabf bdc0 11bf 61d3 6f3d
00000190: d3e5 45be 794f 7f3b ee48 c73e 1f98 7e3f
000001a0: 65fd 8d3e 026f 3c3f 4295 833f 5359 663f
000001b0: 8c40 a8be 23e2 1fbf fca7 e4be 0aa8 53c0
000001c0: 04e4 a73f ffbc f33e 40f2 54c0 8e42 19bf
000001d0: b0d8 b4bc 35d8 07bf 3f64 773d 5317 4e40
000001e0: a4e1 e33e 49db b43e c2b9 c8bf 5645 4d3f
000001f0: f1a2 113f 7911 58be aeb9 673f 8ce1 6440
00000200: e1d7 853f ce96 1f3f 819c 2ec0 4cc6 dc3f
00000210: 6b89 d0bc 6b70 01bf d72f 44be 0c6c 76be
00000220: 810b b73f 27ce d63f 8294 4840 c8a4 00c0
00000230: 76f7 2340 0a3d bb3f efae 92bf fd00 2fbf
00000240: b70c de3e 7e40 743f 6cd9 a93e 0784 9b3e
00000250: f631 00bd 3430 d23f f28c 35c0 9b9b 8240
00000260: c9f4 98bf 6f46 833f b1c0 403e f25f 823d
00000270: 103d 8f3e ffa9 95bd fb7e 853f 8e95 593f
00000280: 985c 06bf 65f7 cb3f 5f57 5e3f 1826 9d3f
00000290: ecb8 a4bf 4535 39bf 9a1b 273f bceb b13f
000002a0: eaee 86bc 3567 4640 51b1 983f 2dbd 0d40
000002b0: ad0f 3c3e 9f47 a4bf 0058 c0bd 03cb 603f
000002c0: bc22 6e3e a665 ef3c 97cf ffbf ef01 e4bf
000002d0: 331a 06c0 ff44 953e ad25 573f a32d dc3c
000002e0: 4714 103f 7266 583f b4cf 07c0 20f4 333e
000002f0: a162 dc3e 50e0 253f edb3 16bd 63e9 64c0
00000300: ad88 a4bf 5cb1 5ac0 4690 7940 7904 1cbf
00000310: 5c40 1e3f ebd7 0e40 f45e fd3e be5e 86be
00000320: 1e69 953e 6f61 a43f 067d 87bf 5a48 e6bf
00000330: aaa5 03c0 8a6a d53f 298f a73f e9e5 df3f
00000340: 7f08 65bc 9660 f639 5388 1c3f 402c 033f
00000350: 8612 d5bd b3f2 3440 333e 8f3f 72b9 08be
00000360: b8e4 c53d dcf9 a5bf 9bd8 1b3d 504a b5be
00000370: 0d1e d3bc 933f 0cc0 93bf d73e 6de6 4dbd
00000380: acce 39bf e71d 153f 592c e3be 0124 2ebf
00000390: e087 18bd 5527 f6be 2761 acbd b7d6 633e
000003a0: 4942 35be c5a1 1e40 0f5d cabf bc6d 12be
000003b0: e7fe 993f 41ea 723e 27c7 d1be 6491 013e
000003c0: 6ae4 b8bf 4895 8e3e b86c 19c0 149b ad3f
000003d0: 2b9b c13e 0b82 df3e 54e9 4a3f 66cf 3dc0
000003e0: c159 e53f cc61 1dc0 8be9 df3f 6aa6 493e
000003f0: 6d3c 423f 73c7 4dbe 367b 473f 6813 3140
0.07240079 0.47754878 0.28567165 -0.088041335 0.05702205 -0.22823952 1.3142616 -0.27398118
0.7473943 -1.1766537 -1.2105001 -0.3317823 -0.11544313 0.021410568 -0.24026467 -0.42367825
0.6745009 -0.13338846 0.519487 3.1766815 -0.5365707 -0.9334726 1.2142243 0.31196806
-0.6125455 -0.0034663447 -0.4206207 6.365827 0.0947736 0.075972654 0.022736311 0.95215595
-0.3250476 2.0931108 -3.0918233 -0.92388505 -0.13005497 -3.0093431 -2.003729 0.28837505
0.41668332 -1.4792695 -0.82379943 0.46897796 -1.824091 -2.3639052 0.30540398 -0.55100375
-0.015442064 0.9807479 1.6226883 -0.032409396 -1.391586 -0.6602947 0.35676044 0.33739585
-0.15636313 1.019595 1.101013 0.15982439 -2.6908083 -0.31332052 -0.050970465 -1.2097872
-0.47297898 0.2501123 1.6890016 0.10713192 -0.017053721 1.1633799 -0.31224266 -0.4985713
2.5470636 -1.3046104 0.54493773 -1.7914826 0.0396551 0.35399255 -1.2229424 3.6824272
-0.9467417 -0.27783602 0.3174934 0.17826468 -0.625636 1.2824537 -0.42910942 1.2371722
0.13475199 4.421073 1.2918986 -0.3289863 -0.5031889 1.3045679 0.914861 -1.088119
-0.75655454 -1.8345317 -0.5693472 0.058551196 -0.19325952 0.0038957282 0.38922828 0.9945087
0.27732387 0.73606884 1.0279925 0.8998005 -0.32861745 -0.6245443 -0.44659412 -3.3071313
1.311646 0.4760513 -3.3272858 -0.5986718 -0.02207598 -0.5306428 0.060398336 3.2201736
0.44508088 0.3532355 -1.5681689 0.80183923 0.56889254 -0.21100415 0.905177 3.5762663
1.0456506 0.62339485 -2.7283022 1.7248015 -0.025456151 -0.5056216 -0.19158874 -0.24064654
1.4300386 1.6781663 3.1340642 -2.0100574 2.5619788 1.4628003 -1.1459635 -0.68360883
0.43369076 0.9541091 0.33173692 0.30374166 -0.031297646 1.642096 -2.8367276 4.081495
-1.1949703 1.025587 0.18823506 0.06365956 0.27976274 -0.07307815 1.0429376 0.8499383
-0.52485037 1.5934874 0.8685207 1.227725 -1.2868934 -0.7234691 0.6527649 1.3900065
-0.016471345 3.1000493 1.1929113 2.2146714 0.18365355 -1.2834357 -0.09391785 0.8780977
0.23255438 0.029223274 -1.9985226 -1.781309 -2.095349 0.29154202 0.84041864 0.02687723
0.5628094 0.8453132 -2.1220522 0.17573595 0.43043998 0.647954 -0.036792684 -3.5767448
-1.285421 -3.4170752 3.8994308 -0.60944325 0.61816955 2.2319286 0.49486506 -0.26244158
0.2918176 1.2842234 -1.0585029 -1.799083 -2.0569863 1.6673138 1.3090564 1.7492038
-0.013979076 0.00046992738 0.61145514 0.51239395 -0.10403924 2.8273132 1.1190857 -0.13351992
0.09662765 -1.2966876 0.038048368 -0.35408258 -0.025771165 -2.1913803 0.42138347 -0.05026858
-0.7258098 0.5824875 -0.44369772 -0.6802369 -0.037238955 -0.48076883 -0.08416968 0.22249876
-0.17701067 2.4786236 -1.5809649 -0.14299673 1.2030915 0.23722173 -0.40972254 0.12653118
-1.4444706 0.27848268 -2.3972607 1.3562951 0.37813696 0.43653902 0.7926228 -2.9657836
1.7918016 -2.459094 1.7493147 0.19692388 0.7587345 -0.20095615 0.7792238 2.7668095

fc1.bias f4 [32]
00000000: 3881 de3b e3b6 f33c 6b14 6abe 8db2 5ebe
00000010: 9d8b 1bbf c905 fb3d 3602 9c3e 8f12 86bf
00000020: 7e9a e3be 4b29 c9be fe8f 943d 4dc0 01be
00000030: 59e4 2bbf 41ae 6abd cf0b ebbe 9d4e 463e
00000040: 030d 8ebf b590 c93c 01ae 273e 71cc 4f3c
00000050: 8393 80bf 4c24 a3be d664 e3be 68d2 e9bc
00000060: 9275 5fbe b61c 0fbf 2b4c 7fbe a780 86bd
00000070: 66f1 07c1 5729 08c1 7533 08c1 188e 8ec0
0.0067903064 0.029750293 -0.22859351 -0.21747799 -0.6075991 0.12256963 0.30470437 -1.0474414
-0.44453806 -0.39289317 0.07254027 -0.12671013 -0.67145306 -0.057295088 -0.45907447 0.19365926
-1.1097721 0.024605135 0.16374971 0.01268302 -1.0045017 -0.3186363 -0.4441287 -0.028542712
-0.21822193 -0.55903184 -0.249314 -0.06567507 -8.496435 -8.510093 -8.512563 -4.4548454
