Checkpoints/Old/middle_name_checkpt.pth.tar (torch_old, 23110 bytes, 6 tensors)

lstm.weight_ih_l0 f4 [64, 54]
00000000: b8b8 083e 376b cbbd 522c 993e 5394 0a3f
00000010: 1dd0 d23e 2801 50bd 4408 ba3d 0194 233e
00000020: 225e 32be d3f4 cf3d fa22 c53e ed3c 133f
00000030: 3a09 123d eeb8 973c aba8 d0be fa0e 073e
00000040: 204d 943d 0e84 c03c 98c3 a6be f437 8fbd
00000050: 31fa 02be c2cd 063f c493 e93d d2ed 71be
00000060: f0b2 863e 8076 753e ab10 093e be30 423e
00000070: f0c2 353e cb51 aa3f 1a44 18bf 72e0 9c3e
00000080: 1f9c 3ebe cf54 3b3f 9a6f 46bd 7204 293f
00000090: 9886 5b3f 086f 8a3d 826a 9c3e b8c6 193f
000000a0: d564 c6bd ffb6 b13e 3a5e 2bbe 5f08 7d3f
000000b0: a9ae 5e3e 8807 793e 90a3 393e 3653 1e3f
000000c0: d4f9 b53f 14f5 ee3d 82cd 463d 83c7 1d3e
000000d0: e08e 71be bd57 f83f 37c6 073c 02cc 7b3c
000000e0: c84a 83be 3f15 2dbe 462f 2cbb 685d 103e
000000f0: 00ed 47bb 43ed b03e b1c5 333d 0014 ef3d
00000100: e03c 0ebf 3409 cabc c82d 7fbe e9ca 55be
00000110: 5eda 343f b448 30be 2cad 433e da2c 72be
00000120: e3ed 3dbd dd5b 63bd 5515 e8be cee3 bf3f
00000130: 58e5 5bbd 0e30 453e f39c 19be 58a4 47be
00000140: 9a3d ac3e 39f7 babd 7b68 cdbd dbfe 90bf
00000150: d2be 8abe 309b 293d cb11 55be ad1a 5bbe
00000160: a4cb 37bd 4d47 053f 74a0 96be b67a d9be
00000170: 4efc 703f fa8d 04bf 0872 9a3d d2a9 c53c
00000180: f6e7 1fbe 7280 48be 523c 1d3f 657c 29bf
00000190: 8eb7 4c3e 61b7 2a3f 2792 5d3f 0097 8c3c
000001a0: f9e6 c6bd 18a7 26bd a06a 3d3e e757 6f3f
000001b0: 123b bc3e b015 78bd be3b 58bf 2f90 a1be
000001c0: 3ccb 4c3f 80e5 5abc bc00 3cbe 4e39 15be
000001d0: d43c 15be 2ba1 abbd d609 79bf c8e6 74be
000001e0: 194a 9c3e f424 0b3f 2a4e c03e c642 7ebe
000001f0: 5cb7 783e def3 2ebe 3595 4c3e 7977 653e
00000200: d8cc 43be 137c 92be fa95 633e 0034 05be
00000210: c089 78be 6a9a 633e 49f2 28bf 741f 3a3f
00000220: 119b 74be e4ef a8bf b93e ac3f 66af 653f
00000230: e90f a03d 9486 d03e e8ce 3a3f a28a 073f
00000240: 6e5e 993b ada5 1f3f 4d03 ee3e a7fa febe
00000250: 9baa 123f c4bc 323d f025 4fbd ee1e f43e
00000260: 635f 2dbf c7dd e7be 1247 47be 4240 4fbe
00000270: 7058 3bbf e816 d5bd 9669 f8bd 5b30 31bd
00000280: 28ec fdbd 4680 0d40 5516 503d 6322 bbbc
00000290: 86f9 463e 77f0 31be d334 4c3e 043a b4bd
000002a0: bab4 22be c0b0 f4bd b985 3cbe e542 113e
000002b0: f92a 0abf fcc4 b7be edf7 16bd 9b34 85bd
000002c0: 774a 4abe d0fe 3c3d 38f6 6cbd f32b c53d
000002d0: 8e70 d63d db6e 67be fd1f 933b 2703 ecbd
000002e0: 8abf 783e 52af 5fbe b1ba 793c 1333 933d
000002f0: a57e f7be 254f a1bd aad6 fcbe 29d7 9abe
00000300: 84cc 473d e8fd f03c cb56 223d 84c8 4fbf
00000310: c48d cbbe 2209 49be d64f 5bbe 1f1a 033f
00000320: c086 193e 56da c6bd 4de0 2a3e 58a7 44bd
00000330: 1c19 2b3e 1439 ad3e 1e0b a23e 110b ee3d
00000340: e886 28be 3f9c a7bd 4920 243f cce9 0bbe
00000350: ca9e ce3e 7ce6 113e 60a9 d23d 31b0 bbbc
00000360: 2808 94bc 7efa 1b3d 6503 b43d 2cb0 bbbe
00000370: 406d c4be a8fa e13d b2ea 3cbe 8479 d23d
00000380: 9c4e c43e b27c b7bc 55c0 19bf 162c 0c3e
00000390: 87b0 b8bd b2b9 953c a255 873d c007 a63d
000003a0: 70f4 f93d 1a84 6c3e 6c8e 1e3e 260f 91bd
000003b0: 757b f83e 55de 2abf 0c96 7b3e d61b 613e
000003c0: c96d 003f b4d2 223d c2bd 3e3e a12c 9e3e
000003d0: 7be4 b7be 365f f13e 72c9 49bf b984 993e
000003e0: d8b7 55bf 9706 03bf 78b4 9abe 2323 f93d
000003f0: 4aee 72bd 0292 a63d 0345 ed3e 832e 713c
0.13351715 -0.09932559 0.29916626 0.54132575 0.41174403 -0.050782353 0.09083608 0.15974428
-0.17418721 0.101541184 0.38503247 0.5751484 0.03565333 0.018520799 -0.40753683 0.13189307
0.07241273 0.023500469 -0.325711 -0.06993094 -0.12790753 0.5265771 0.11405137 -0.23625877
0.26308393 0.23970985 0.13385265 0.18963906 0.17750144 1.3306211 -0.59478915 0.30639988
-0.18614243 0.7317628 -0.048446275 0.6602241 0.8575225 0.06759459 0.3055001 0.60068846
-0.09687201 0.34709927 -0.16735163 0.988409 0.21746315 0.24319279 0.181288 0.6184572
1.4216866 0.11667839 0.04853583 0.15408139 -0.23589659 1.9401776 0.008287004 0.0153684635
-0.2564299 -0.16902636 -0.0026273294 0.14098132 -0.0030506253 0.34556016 0.043889705 0.116737366
-0.5556164 -0.024662592 -0.24919808 -0.20878185 0.706457 -0.17215234 0.19109029 -0.23649922
-0.046369445 -0.05550753 -0.45328775 1.4991395 -0.053685516 0.19256613 -0.15001278 -0.19496286
0.33640748 -0.09129185 -0.10029694 -1.1327776 -0.2709871 0.041407764 -0.20807569 -0.21396895
-0.04487194 0.5206192 -0.2941929 -0.42476434 0.94134986 -0.5177914 0.07541281 0.024128828
-0.1561583 -0.19580248 0.61420166 -0.66205436 0.19991896 0.66686064 0.86551136 0.017161846
-0.09712023 -0.040686697 0.18497705 0.93493503 0.36763817 -0.060567558 -0.8446616 -0.31555316
0.7999761 -0.013360381 -0.18359655 -0.14572641 -0.14573985 -0.0838035 -0.97280633 -0.23916161
0.30525282 0.5435326 0.37559634 -0.2483016 0.24288696 -0.17085215 0.19978793 0.22408856
-0.1912111 -0.28610286 0.2222518 -0.13008118 -0.24271297 0.22226873 -0.659947 0.72704244
-0.23887278 -1.3198209 1.3456641 0.8972076 0.078155346 0.40727675 0.72971964 0.5294591
0.0046804463 0.62362176 0.46486893 -0.49800608 0.57291573 0.043637052 -0.05057329 0.47679847
-0.67723674 -0.4528639 -0.19460705 -0.20239356 -0.7318182 -0.1040476 -0.12129514 -0.043259006
-0.12398559 2.2109542 0.050802547 -0.022843545 0.19431123 -0.17376886 0.19942026 -0.08800128
-0.15889254 -0.11947775 -0.18410386 0.14185674 -0.5397182 -0.35892475 -0.036857534 -0.06504174
-0.19754969 0.046141446 -0.057852 0.09627523 0.10470687 -0.22600882 0.0044898973 -0.11524039
0.24291816 -0.21844223 0.015242265 0.07187476 -0.4833881 -0.07876424 -0.49382526 -0.3024228
0.048779026 0.029417947 0.039633553 -0.8116534 -0.39756596 -0.1963239 -0.21417174 0.5121173
0.1499281 -0.09709613 0.16687126 -0.048011154 0.16708797 0.3383261 0.31649107 0.116232045
-0.16457713 -0.081840985 0.64111763 -0.13663405 0.4035552 0.14248079 0.10286212 -0.022911163
-0.018070295 0.038080685 0.0878971 -0.36657846 -0.383646 0.11034137 -0.18448904 0.102770835
0.38341224 -0.022398327 -0.600591 0.13688692 -0.09018045 0.018277023 0.0660813 0.08106947
0.12204826 0.23097268 0.15484017 -0.070829675 0.4853169 -0.667455 0.24568957 0.21983275
0.5016752 0.039751723 0.18627074 0.30893424 -0.35916504 0.47142953 -0.78823006 0.29984072
-0.8348365 -0.5118193 -0.30215812 0.12164905 -0.05930928 0.081333175 0.46341714 0.014720562

lstm.weight_hh_l0 f4 [64, 16]
00000000: 3587 5c3f f91d 02bf ae98 9dbf 99d3 1bbf
00000010: 079b f13e 31ee 5d3f 3511 f73d 8dc7 59bf
00000020: bc25 7cbf 0889 87be a039 b43d 3ef1 24bf
00000030: ecb0 c9be 1a36 74bf 8285 03bf d5bc a2bd
00000040: 5922 9cbe 2f27 d2be be60 c5bf 39ef 04be
00000050: 067b 843f 5d0f cb3e 8eaf adbd 513b febe
00000060: d3f7 e9be 22db 343f 17cb e5be b5cc 0bbf
00000070: 4dc5 8dbe f2b3 53bf 32b0 f73d 96c8 94be
00000080: a2ad 803f 2be1 403e e3ba b8bf 07ca 2ebf
00000090: 490c eb3e b033 a93f ec7b f3bf a96c 793e
000000a0: e54b 7a3c f924 7b3f 2c0b c6be cad6 8dbd
000000b0: 7a9f 3dbe bf8e 63bf 2440 8c3d 95cc 99be
000000c0: 9211 dcbd 27d4 21be 70de 043d aea0 143f
000000d0: 783f b63e ce25 c13c a240 93be f357 10be
000000e0: 754d 45be be60 e33d 474a a2be d5f9 9fbe
000000f0: 6b9f 1c3c 90fc cabe ee8f cd3e 690c c4bd
00000100: e681 72bd 60a8 833e 3f1f 0fbe 7610 c93e
00000110: b911 0b3e 5af3 09bf f0e6 fd3e 7d92 1cbe
00000120: 49d7 f9bd ea06 893d 739d 263d 8a0e 3ebe
00000130: 4514 b8be f028 e9be 25d2 2dbe 6369 9f3e
00000140: 3196 653f 48f0 8bbe 2f9c 49bf ceb2 a4be
00000150: 5e6c b63e cdea dbbe 0f80 90bf f52e f5be
00000160: 4199 07bf 4fab e73e 28ae b13e 20bd c6be
00000170: 46a7 1c3f 147e 24bf c867 d33e f7f5 3cbd
00000180: 59d7 fabe 7806 393e fc2b 86bf bb76 7a3d
00000190: 64e5 b23e 4c08 cabe cb5d 23bd 2b14 febe
000001a0: 0473 30be ea5c e73c ed2c 7cbe e8aa 863d
000001b0: b6e2 a1be 4c43 10bf ee2a 0b3d 0fbb 48bf
000001c0: 698a 803f 94d5 52bf 5cc8 5fbf e02d d1be
000001d0: ac8b 2ebd 70a9 2f3f 1d3f 0abf fa8f 84bf
000001e0: 4d53 26bf bb9b b33d 0399 1ebf 2b5a 5dbf
000001f0: 9892 f8ba 8ecc 4dbf d384 1fbf ad8d 5abe
00000200: 983e 983f 0f4a c0bf 2120 1c3f 1093 86bf
00000210: 0b96 de3d 1504 633f 9ad5 3c3e b9a5 b6be
00000220: 5132 9dbf 2703 e7bf dabc bdbf b250 a83e
00000230: 4bc2 1c3b 919d bc3c c6a1 813d c20e e3bf
00000240: ae85 103f 7144 453e 1c03 21bf 3515 84bf
00000250: bcfa b33d 0c92 873e 7552 4abf f2b0 b9be
00000260: 7690 aebe a4ac 5ebf 3b0f 253f aa3a f8be
00000270: 1017 01bf b53d 39bf 50a7 67bf c90b 6c3c
00000280: f61a b23e 5f88 fcbe 1c15 abbe 2527 6dbf
00000290: f41d 073f 5a5f 9c3f eee4 ebbe a273 a4be
000002a0: f221 7cbe 4bc2 1c3e c1d1 4fbe 84f8 eebe
000002b0: 08fb 4238 953a 0fbf abf3 71bf 06a6 21bf
000002c0: 1c1a b73f 53d5 e8be 034f ebbe 3f66 9abf
000002d0: 67a5 e5be 5e5d ca3e a6fb 45bf 2b54 e7be
000002e0: aec2 12bf 7038 0bbe 4274 3cbf dd35 23bf
000002f0: db7d 393f c04c e3be bf81 5ebf 4b20 57bf
00000300: 4b0a 873f 8b03 b0bd a5fc 69be cbb5 29bf
00000310: 2c9d bdbd ea06 6c3e 7140 13bf 3afc 3fbe
00000320: 4a97 14bf d0ce e73d 9744 3c3e 14be 0dbf
00000330: 0999 113f fa38 c2be 3e4f 32bf 452f 8bbe
00000340: fb1f df3f 9121 87bf 65d9 d5bd b843 8ebf
00000350: 3f74 823d bfbc d23e 720f 6cbe 6298 b23d
00000360: bca1 fabe 47ec 8ebe 0f4b 2cbf 8aa4 d1be
00000370: 7b25 3e3e 9765 c8be 3931 98bf 908d 3dbf
00000380: 5dd8 c23e ef80 1b3e ab8a bebe 1f21 0ac0
00000390: e284 94be 4c4e 653e 9b0a 013f b143 a4bc
000003a0: af71 b6be efa3 e03e 4c15 a63e a915 bebe
000003b0: 6986 c13b f35f 89be ef51 25bf 06d3 5fbe
000003c0: f99f 7c3f a176 053d 8686 11bf b1cd 8b3e
000003d0: ce61 113f bc9c 003f f0e1 b13e 71b8 25be
000003e0: 2790 8ebe ec86 853e 2aa3 92be b826 acbe
000003f0: e544 3abd 37b3 4ebe 2a26 c2bd 1ae9 2bbf
0.8614381 -0.50826985 -1.2312219 -0.6086975 0.4718859 0.86691576 0.12063829 -0.85070115
-0.9849508 -0.26471734 0.088000536 -0.64430606 -0.39392793 -0.9539505 -0.5137559 -0.07946173
-0.30494955 -0.4104552 -1.5420148 -0.12981881 1.0350044 0.3966016 -0.0848075 -0.4965463
-0.45696887 0.7064687 -0.44881508 -0.54609233 -0.2768959 -0.8269645 0.120941535 -0.29059285
1.0052989 0.18835895 -1.4432033 -0.6827702 0.4590781 1.3218899 -1.9022193 0.24357857
0.015276884 0.9810329 -0.38680398 -0.069257334 -0.18517867 -0.8888969 0.06848171 -0.30038896
-0.10745539 -0.15803586 0.032438695 0.5805768 0.35595298 0.023577597 -0.28760248 -0.1409605
-0.19267829 0.111024365 -0.31697294 -0.31245294 0.009559493 -0.39645815 0.40148872 -0.095726795
-0.059205912 0.25714397 -0.13976763 0.3927037 0.1358098 -0.5388695 0.49590254 -0.15290256
-0.121992655 0.06690772 0.0406775 -0.18560234 -0.35952964 -0.45539045 -0.16974695 0.3113509
0.896823 -0.27331758 -0.7875394 -0.32167667 0.35629553 -0.42952576 -1.128908 -0.47887388
-0.5296822 0.45247886 0.34703183 -0.38816166 0.6119274 -0.6425488 0.41290116 -0.046133008
-0.48992422 0.18068874 -1.0482173 0.061148386 0.34940636 -0.39459455 -0.03988437 -0.49624762
-0.17231375 0.028242547 -0.24626513 0.065755665 -0.3161828 -0.56352687 0.033976488 -0.7841043
1.004224 -0.82357144 -0.874151 -0.40855312 -0.04261367 0.68617916 -0.54002553 -1.0356438
-0.64970857 0.087699376 -0.6195223 -0.8646571 -0.0018964587 -0.8039025 -0.6231205 -0.21343108
1.1894102 -1.5022601 0.60986525 -1.051363 0.10868462 0.88678104 0.18440858 -0.3567331
-1.228098 -1.8047837 -1.4823258 0.32874066 0.0023919519 0.023024352 0.06329684 -1.7738879
0.5645398 0.1926439 -0.6289537 -1.0318972 0.08788058 0.26478612 -0.7903207 -0.3626781
-0.3409459 -0.8698218 0.64476365 -0.48482257 -0.50425816 -0.7235978 -0.90489674 0.014407107
0.34786195 -0.49322793 -0.33414543 -0.92637855 0.5278008 1.2216599 -0.46073097 -0.3211947
-0.24622324 0.15308492 -0.20294859 -0.46673977 4.6486995e-05 -0.55948764 -0.9451243 -0.63143957
1.4304843 -0.45475253 -0.4595872 -1.2062453 -0.44852754 0.3952436 -0.7733711 -0.45181403
-0.5732831 -0.13595748 -0.73614895 -0.63754064 0.72457665 -0.44394493 -0.86916727 -0.8403365
1.0550016 -0.08594426 -0.22850282 -0.6629302 -0.09258494 0.23049513 -0.57520205 -0.1874856
-0.5804335 0.11318743 0.1838554 -0.5536816 0.5687414 -0.37934095 -0.69652164 -0.271845
1.7431635 -1.0557119 -0.10441855 -1.1114416 0.063698284 0.41159627 -0.23052767 0.08720471
-0.4895152 -0.2791464 -0.6730203 -0.40945846 0.18568985 -0.39140007 -1.1890022 -0.7404413
0.38055697 0.15185903 -0.3721517 -2.1582716 -0.29007632 0.22393149 0.5040681 -0.020051809
-0.3563361 0.4387507 0.32438123 -0.371259 0.0059059155 -0.26831016 -0.64578146 -0.21857843
0.986816 0.032583836 -0.5684589 0.27305368 0.56789863 0.5023916 0.3474269 -0.1618364
-0.27844355 0.260795 -0.2864011 -0.3362329 -0.04547586 -0.20185553 -0.094799355 -0.6715256

lstm.bias_ih_l0 f4 [64]
00000000: 55e1 943f f32b b73e 0766 183f 5505 763e
00000010: 15c4 8e3e 2be3 d93e ac7b ac3e e750 7e3f
00000020: 5a0d 433f ff3f b43e 79b2 7b3f 1e6d be3f
00000030: 2a8c e63e b333 d63f a5dd c13e 3646 253f
00000040: ff5c 903f 80ad 4f3f d405 983e 6036 7d3f
00000050: 0256 1d3f 26da 6f3e d048 c43e 6c5c a23e
00000060: f2c1 f03d ca4a 273f 6256 1d3f ab99 d33e
00000070: 9d95 e03e 69a0 f33e e3ea 9a3e e55d de3e
00000080: 385b cb3e 4264 88bd 10d6 993e 82a0 263e
00000090: a8d3 753e 852f cebd 4f97 35be b0cd 443e
000000a0: 1daa 603e e46d a4be 1a80 a5be 5972 213f
000000b0: ee30 b83d 224d 083f f267 8ebe 73b3 57be
000000c0: db9a 983e 76b2 923f c44f 153f 9143 383f
000000d0: 66e0 fd3f 3eb2 513f 8e20 023f 4a2f be3f
000000e0: 518c 1b40 bf4f 8d3f e68b a23f 7d95 2e40
000000f0: 9be5 743f 60fe a73f 2c57 563e 04d5 7c3f
1.1631266 0.35775718 0.5953068 0.24025472 0.27883974 0.42556128 0.33688104 0.993422
0.7619225 0.35205075 0.983192 1.487705 0.45028812 1.6734527 0.37864414 0.6456026
1.127838 0.81124115 0.29691947 0.98911095 0.6145936 0.23423061 0.38336802 0.31711137
0.11755742 0.65348494 0.61459935 0.41328177 0.43864146 0.4758332 0.3025733 0.4343101
0.39718032 -0.06659748 0.3004613 0.16272166 0.24006522 -0.100676574 -0.17733501 0.19219089
0.21939893 -0.3211509 -0.32324296 0.63065106 0.089937076 0.53242695 -0.2781368 -0.21064548
0.29805645 1.1460712 0.5832484 0.719781 1.9834106 0.819126 0.50830925 1.4858181
2.4304392 1.1039962 1.2698944 2.727874 0.9566285 1.3124504 0.20931691 0.98762536

lstm.bias_hh_l0 f4 [64]
00000000: 8719 9d3f 3e6c 033f ff30 0f3f a301 11be
00000010: db8e 23bd 546c 623f 213c 213f 6d34 673f
00000020: 5805 3e3f cfee ba3e 70a0 8f3f aa33 c03f
00000030: 0402 733e 2bd3 b93f 6382 843e f927 033f
00000040: 9f72 b33f 3acc 7f3f 4cb0 af3e cc07 753f
00000050: 6cfc 783f cc4b 073f 7a10 503e 95f6 fd3e
00000060: 36fa 963e 2d6a f33e d276 203f 41fe d83e
00000070: 1601 1a3f 6342 dc3e 2309 db3e 32eb 043f
00000080: 27d9 993e cc41 913e 569d b83e 7b69 8e3d
00000090: 6174 53bd 24d9 143e 477a d33d e32b 813e
000000a0: a769 583e 1a75 9ebe 5159 a1be 806a 563e
000000b0: 4cb9 d83d 8f90 f43d 996e 49be 899b 503c
000000c0: 7561 0e3d 6815 8d3f f67c ce3e 7c4d 823f
000000d0: 3e17 fd3f 2c12 043f 5ffc cf3e bee7 a33f
000000e0: 6100 2940 eecb 573f 4a45 a53f 7403 4740
000000f0: 94b5 913f e0b7 c93f fcbd 353e 6ae5 283f
1.2273415 0.5133704 0.5593414 -0.1416078 -0.03993116 0.88446546 0.62982374 0.9031437
0.74226904 0.36510321 1.1220837 1.5015767 0.23731238 1.4517568 0.25880727 0.5123287
1.4019355 0.99921 0.3431419 0.9571502 0.97260165 0.5285003 0.20318785 0.4960219
0.2948777 0.47541943 0.62681305 0.4238148 0.60157907 0.430194 0.42780408 0.5192138
0.30048487 0.28370512 0.36057538 0.069537126 -0.05162466 0.14535958 0.10326057 0.25228795
0.21134053 -0.30948716 -0.31513456 0.20939064 0.105822176 0.11941635 -0.19671096 0.012732395
0.03476091 1.1022158 0.40329713 1.0179896 1.9772718 0.5159023 0.4062223 1.2805097
2.6406481 0.84295547 1.291177 3.1095858 1.1383538 1.5759239 0.17748255 0.6597506

fc1.weight f4 [54, 16]
00000000: 34ff 823f 8108 4abe 1509 8a3e 65c9 82be
00000010: 25d0 a1be 0a2e a03f b159 7dbe 8e43 523f
00000020: e6b4 2b3f fef0 9bbc ecc4 77bf a1f1 f83e
00000030: 9ff0 02bf e12e 723e 288c 88bd 8cfc 29bf
00000040: 32fb dabf 90a5 c6be f836 863e 177c 26bf
00000050: 93ca 86bf 8e45 9fbf 78d8 38bd 8fd1 403d
00000060: ef98 713e d0df 783e f002 1d3f bb21 943e
00000070: cb37 00be 6575 efbd 65f1 b43e d916 97be
00000080: ad89 c6bf 397b aebe d1d8 cb3e 110d 8e3f
00000090: 401a ee3e 6528 b03d bf05 593f 9357 5f3f
000000a0: 0205 e53e 3b37 f13e 74cb e2be 2d25 e53e
000000b0: 3332 c7bf 8a90 2d3f a495 153f c4a4 3e3f
000000c0: aee5 54bf 06e1 01ba 155e 483f 0db4 5dbf
000000d0: 3809 6f3e 77fe ac3e 3996 39be 54b6 35bf
000000e0: ebe9 683c 2c6d 0d3f d525 943e 38c2 aa3d
000000f0: 0333 673f c4a0 ff3e 4844 15bf 495d 79bf
00000100: 25f8 a33f be5b 1f3f c769 df3e 891f 36bf
00000110: f70d 533f bcba 50be f1f9 90be e0bc c0be
00000120: be13 7c3f 962a 81bf 2471 24bd 74ad f53e
00000130: bb7d 663f ee54 953d 9a17 e93e 109e 083f
00000140: efc7 f7bf 4b08 ed3e 2881 98bc 7ca0 933d
00000150: a58a 26bf b0cf 83bf 3ffc d7be bb9f cabd
00000160: 5c13 773e c215 81be a031 273e d22a 83be
00000170: 9e00 dd3e 1c5e 633d ba0c fb3d 2aaa 83be
00000180: 62e8 e3bf 76de 6b3e 9f0c b73e d3eb c5be
00000190: 01cd 293f 9857 23bf 8c6c d63e 58e9 4c3e
000001a0: 1963 a33e fcd0 a03e ac01 903e c45a 103e
000001b0: 0360 453f d100 843e 04f4 3cbe a7cc a2ba
000001c0: 99dd f2bc 32b9 153f a255 4bbf ae7a 4f3f
000001d0: 90b2 853e 9360 ba3f c637 87bf e79d 403f
000001e0: d0bc 343f f378 373f f774 1bbf f9fc 343f
000001f0: a035 b1bf 8504 193f 3461 613d 5eaa 8b3f
00000200: 0ff2 1e3f 7c35 19bf 4b5f 09be a872 b33f
00000210: face 53bf 8cb0 3dbf 6ae9 aa3f 7155 be3e
00000220: 212b 163f cb53 f43d 7a48 66bf 5483 143f
00000230: 88cb f63d 430b 2d3f ad6d 43bb 7f8e 833e
00000240: e8c6 52bf 5a59 213f 323d 103e 9f37 a63e
00000250: 0639 bfbe f44b 41bf b00d 33bd e3b6 a3bd
00000260: ef43 ab3d 7919 673e 5e51 14be 83cc 28bb
00000270: 3205 82be 3fd5 4abd 4b1e a23e fdff 7f3d
00000280: bd3c 19c0 6b52 54be 5f42 cabe 7413 523f
00000290: 2d96 393f 4943 53bf 52a5 823f e435 053e
000002a0: 7d92 733e 4598 f4be f8d5 603f 14f5 4f3e
000002b0: d604 e6bf b8b0 1f3f c08f dabe 1dc0 17be
000002c0: 9635 37bf c80a b3be bdb6 d33e 2a67 dbbe
000002d0: ba33 38bf 1dc9 22bf 641c 833f 8984 da3e
000002e0: 2388 813e ecdc 58bf ad5c 273f 1d5d a13e
000002f0: 865c 5a3e 81b0 673e 4290 06bf 03c7 cbbe
00000300: e7cd e9bf d027 933e c6ae 4f3e 06b8 18be
00000310: faa7 9abf 0c3e 52bf ef2e d3be f561 c53e
00000320: 4f5d 583e 414d 20be 0d8f 80be 4bb3 15be
00000330: 0599 c93d 2467 643e 8d5f 08bd 3268 3dbf
00000340: 8b8f f0bf 87ba ec3e deec 873f d070 ed3e
00000350: 6260 703f 0b23 373f 879f 2e3f c936 363f
00000360: 4dc2 8bbd 5390 df3e 5a85 cd3d 96d9 273e
00000370: 41c0 be3f 0338 053f a359 2abf 8add bbbe
00000380: 8a37 9f3f 62c2 b7be 7f49 6bbf 15cd 223f
00000390: ea73 363f 3d5b 0bbf 95b5 76bf 0064 563f
000003a0: 6e39 f83e f393 583c 0f3f 2dbf 31eb 00be
000003b0: 8acd 143f cf8d 593e a7b4 b2bc af7f 50bf
000003c0: d40f 72bf fcbe 4f3f 717d 973d bc55 553f
000003d0: f7a8 51bf a847 21bf fa1c fdbe 7e8a b1bd
000003e0: ac8a 6e3e 7d92 2cbe 2550 e53e 301c 1d3d
000003f0: d7a7 1f3e 12b2 4f3e 0edd 8b3e a59c 963f
1.0234132 -0.19729806 0.26960054 -0.25544277 -0.31604114 1.251405 -0.24741246 0.8213433
0.67072904 -0.019035812 -0.96784854 0.48621848 -0.5114841 0.23650695 -0.06667358 -0.6640098
-1.7107909 -0.3879819 0.26213813 -0.65033096 -1.0530571 -1.2443101 -0.045128316 0.04707485
0.23593496 0.24304128 0.6133261 0.28931984 -0.12521283 -0.11692313 0.3534042 -0.2950962
-1.5510765 -0.34078386 0.39813855 1.1097738 0.46504402 0.08601455 0.8477439 0.87243
0.44730383 0.4711245 -0.44295847 0.44754925 -1.5562195 0.67798674 0.5843146 0.7447016
-0.83162963 -0.00049544906 0.7826856 -0.8660286 0.2334336 0.3378789 -0.18123712 -0.70981336
0.014215927 0.5524471 0.28935114 0.083378255 0.9031221 0.49927342 -0.58307314 -0.97407967
1.2810103 0.6224936 0.4363539 -0.7114187 0.82443184 -0.20383734 -0.2831569 -0.376441
0.98467624 -1.0091121 -0.04014696 0.47983897 0.900356 0.0729159 0.4552582 0.53366184
-1.935789 0.4629539 -0.018616274 0.07208344 -0.65055305 -1.0297756 -0.42184636 -0.098937474
0.24128479 -0.25211912 0.16327524 -0.25618607 0.43164533 0.05550967 0.12258287 -0.25715762
-1.7805293 0.23034081 0.35751817 -0.38656482 0.66328436 -0.6380553 0.4187969 0.20010889
0.31911543 0.31409442 0.28126276 0.14097124 0.7709963 0.25781873 -0.1845246 -0.001242061
-0.029646682 0.5848571 -0.7942754 0.8104657 0.26112795 1.4560722 -1.0563896 0.7524094
0.70600605 0.7166893 -0.6072535 0.70698506 -1.384449 0.5977252 0.05502434 1.0911367
0.620881 -0.59847236 -0.13415258 1.4019365 -0.82737696 -0.74097514 1.3352482 0.37174562
0.5865956 0.11930045 -0.8995434 0.5801289 0.12050539 0.6759531 -0.002982001 0.25694653
-0.82334757 0.63026965 0.14085844 0.3246431 -0.37348193 -0.7550652 -0.043714225 -0.07993867
0.08362567 0.22568311 -0.14484164 -0.0025756664 -0.2539459 -0.049519774 0.31663737 0.06249999
-2.3943322 -0.20734565 -0.39503762 0.82060933 0.72494775 -0.82524544 1.0206702 0.13008839
0.2378635 -0.47772422 0.8782649 0.20308334 -1.7970226 0.62379026 -0.42687798 -0.14819379
-0.7156614 -0.34969163 0.41350356 -0.42852145 -0.7195393 -0.63588125 1.0243039 0.4267924
0.25299177 -0.847121 0.65375787 0.31516352 0.21324357 0.22625925 -0.5256387 -0.3980027
-1.8265961 0.28741312 0.20281515 -0.1491395 -1.2082512 -0.82125926 -0.41246745 0.38551298
0.21129344 -0.1565447 -0.2510914 -0.14619176 0.09843639 0.2230497 -0.03329425 -0.73987114
-1.8793806 0.4623606 1.0619161 0.46375132 0.9389707 0.71537846 0.6821217 0.71177346
-0.06824169 0.43664798 0.100352004 0.16391596 1.4902421 0.5203859 -0.66543025 -0.36692458
1.2438824 -0.3589049 -0.9190902 0.6359418 0.7127062 -0.54436094 -0.9637082 0.8374634
0.48481315 0.013218868 -0.67674345 -0.12589718 0.5812613 0.21245502 -0.021814657 -0.8144483
-0.945554 0.81150794 0.07396973 0.83333945 -0.81898445 -0.62999964 -0.4943617 -0.086689934
0.23295087 -0.16852756 0.44787708 0.03835696 0.1559137 0.20282772 0.2731709 1.1766554

fc1.bias f4 [54]
00000000: 2574 8abd 5af2 0dbe ddec 173e f88c b8bb
00000010: 8b3f 373e a078 febe f538 b3bc a292 e23e
00000020: eaa2 9e3e 93d7 24be c7aa 923e 7fb7 663d
00000030: 25e7 dcbd 8d54 af3e bfdb 9a3e 7230 f4bd
00000040: ee5c f5be a91c 223e 37e5 8ebc 4b38 7cbd
00000050: d55d 79be ce57 8f3d 2094 febe 1f04 d3be
00000060: 83b6 07be beb4 523e 5e77 51bf 7ea3 4ebf
00000070: e102 2cbe d70f 28be c776 3ebf 865f 8dbe
00000080: 578c 5bbf af81 9cbe 5852 5abe fe59 38bf
00000090: 4c2a 5ebf db8d 6cbe 4340 94bf 7107 d5be
000000a0: bf69 6fbe 2b64 f6be 30c9 f3be bfd0 62bf
000000b0: 7fb5 3dbf 6c44 81be f944 bfbe 2340 43bf
000000c0: b783 1ebf 07a6 3cbf 0b20 8dbe 02ec 14be
000000d0: b9a7 6dc0 a294 0cbf
-0.06760434 -0.13861981 0.1483645 -0.005632039 0.17895333 -0.49701405 -0.021877745 0.44252497
0.3098367 -0.1609786 0.28645918 0.05632734 -0.10786275 0.34244195 0.30245778 -0.11923303
-0.47922462 0.15831245 -0.017443283 -0.061577123 -0.243522 0.06999169 -0.49722385 -0.41214082
-0.13253216 0.2057676 -0.81822765 -0.8071822 -0.16797973 -0.16412292 -0.7439999 -0.2761194
-0.85761017 -0.3056769 -0.21320474 -0.7201232 -0.8678329 -0.23100989 -1.1582111 -0.4160724
-0.23380183 -0.48123297 -0.4761443 -0.8859977 -0.74105066 -0.25247514 -0.3735731 -0.7626974
-0.6191973 -0.7369084 -0.2756351 -0.14543155 -3.713362 -0.54914296
