Checkpoints/first_checkpt.pth.tar (torch_old, 109684 bytes, 6 tensors)

lstm.weight_ih_l0 f4 [256, 32]
00000000: 77a8 a63e 5fa9 d13d ba76 76be 131c 543e
00000010: 8282 8c3d c920 f0bd 886c ea3e f123 5a3f
00000020: f5b8 ef3e fa60 313f f2a7 a63e 4d3d 50bf
00000030: b9e0 0e3e 744e 07bf a47f b2be d94c e8bd
00000040: 8f7e 83be ecf3 0f3f 904c 76bf 5d80 433d
00000050: e66a 163f 683e 8b3c 664e 213f 5e6b 323f
00000060: 66f6 c93f 503e ea3e de38 e43d 4120 fbbd
00000070: 9cea 2bbd 1874 77bd e805 efbd 2756 e7bc
00000080: 3849 86be aa60 b23e 4e51 803f 0196 a8bd
00000090: ce45 debb dd0a 963f b053 323f 5d31 30bf
000000a0: 4ca9 743f 6eba 16bf 8414 84be 2546 3b3f
000000b0: c470 88be 92b7 093f a535 ab3d 4692 85bf
000000c0: 4698 0b3f 8e12 8bbe 2456 813e 7d75 54be
000000d0: 458b f03e 3ed7 a13e c5ca bf3e b84f 973e
000000e0: 98f6 8f3f 98e7 333e b0fa 893c 8f7e 9e3e
000000f0: fc18 233d a8b6 a3bc 5c0e 3abd 3942 ecbe
00000100: 1a17 1d3f 27b8 72bd d458 d2be e0cb 113f
00000110: e789 793f d182 2dbe 8e41 5abe 5acd 623e
00000120: fb19 e2be 4e09 a13e dd9d 22bf fbaf f03e
00000130: 6b35 48bc 62b6 b63e 5286 a33e 9a5d 9bbd
00000140: cdd8 b3be 263a 8fbe fb95 8abe 04d5 403e
00000150: 9748 8d3f 4b10 a0bd 68e9 703d 8a25 b43e
00000160: a964 23bf 18ad ad3e 7c75 59bd c478 2b3e
00000170: a62c fa3d 6898 613d 505e debd 165c 26c0
00000180: a42e 313e 1f4e 153f f7f1 3ebf 6485 e1bd
00000190: b07d 67be a0d9 043e 9cdc 0d3f 7a9d 5abe
000001a0: 021b c0be a028 febd 3b88 4cbd efcc f0be
000001b0: e166 e73e 1259 febc 884a 153f 4669 19bf
000001c0: 7f5e 1e3f 162c c5be fe30 b23f ac74 98be
000001d0: 5c0b 273f 3982 a7bd a4ea b9bd f953 acbe
000001e0: 10f3 013f 1f81 893e f40b 9e3d 18bc bc3e
000001f0: 880e bc3d 707e b3bd a011 b9bc 6a66 02c0
00000200: e361 993d 1c5c 3e3f 7e8b e43e 140c 0fbe
00000210: 3e8b 71be f13a 8bbe 0698 d13e 957b 81be
00000220: e052 513e bf5d 9b3e c5b6 f5be 99ce b3be
00000230: 39c6 183f 3eb5 48bd 09b5 09bf 75fc a6bd
00000240: b0a2 d4be fe60 9b3e 9a82 953e 24e6 0c3f
00000250: 1483 b2bd b38e 933e 4c02 8d3e bf2f dd3e
00000260: 9124 3a3e 993d a63e f0f8 2a3c 86b8 893e
00000270: b44e 54bd d036 2abd 5468 a83d 453b c23f
00000280: 40d8 853e 8d58 b33e c45e 43be b815 853f
00000290: 08be ea3e 0111 74be 6318 3fbf 3a22 7dbe
000002a0: e89a 243e cf03 8a3f 2732 323d 4df3 cf3e
000002b0: 9a1d 96bf b917 59bf 26e0 e83e 37f5 803e
000002c0: f87f 8bbc 2a24 b3be b53d c5bf 295c 43bf
000002d0: ef42 fc3e 12a8 1abf 94e6 9e3d 52e7 de3e
000002e0: 64ab abbe 0fd4 8fbe e0fe abbc 892b 07bf
000002f0: 361c cfbd d2ff b23d 52e6 de3d e6df 493f
00000300: 2572 063e 5e68 623e ccc5 3d3e 82be 593e
00000310: aded 113f debb 5fbe 9fd8 e2bc 09fa 05be
00000320: e91a 0abf 034b f8be 4a74 0e3f c6a9 083f
00000330: 7570 bb3e 24dc c63d a015 ad3d 4e1f 003f
00000340: 7b25 7c3d c481 97bd 16f7 d03d ec63 f6be
00000350: 6987 013f 3c7a 193f 0e25 76be fd39 84be
00000360: 522e 2fbe 167d 8d3d 04a2 16bd 06bc 263d
00000370: c84f 653d 6430 383d b0d6 813d d956 ecbe
00000380: 95b6 1cbe 84c6 383e 8f78 243f 778b 193d
00000390: c90b a9be 2fd2 a23d 1372 6c3e 0bd2 14be
000003a0: 48d8 ae3d 8b61 833d 30bd c43e 9249 e6bc
000003b0: 92df 953e 4cb4 a63e 9c8d 883e d15f 2cbc
000003c0: f0cc 30be 98dd 4b3e 4eea bebe ad42 fdbd
000003d0: 0158 053f b473 00be d97e 12bf 7d40 2ebf
000003e0: c0a1 6bbf 93ad 0f3e 40b0 e13c d793 513d
000003f0: c843 e53c 4421 893d 00b4 e2b9 e4e5 8d3d
0.32550403 0.10237383 -0.24068728 0.20713834 0.0686083 -0.11725003 0.45785928 0.8521109
0.468208 0.692886 0.32550007 -0.8134354 0.13952912 -0.52854085 -0.34863007 -0.113427825
-0.25682494 0.5623157 -0.96210575 0.04772984 0.58756864 0.016997531 0.6301025 0.6969508
1.577832 0.45750666 0.11143659 -0.12262011 -0.041971788 -0.06041345 -0.116710484 -0.028239323
-0.26227736 0.34839374 1.0024812 -0.08231736 -0.0067832237 1.1722065 0.69658947 -0.6882532
0.95570827 -0.5887822 -0.25796902 0.7315391 -0.26648533 0.5379573 0.08359841 -1.0435264
0.54529226 -0.27162594 0.25261033 -0.20747943 0.46981254 0.3160953 0.37459388 0.29553008
1.124713 0.17568815 0.01684317 0.30955932 0.03981875 -0.019984558 -0.04542385 -0.46144274
0.61363375 -0.059257653 -0.41083395 0.56951714 0.9747605 -0.16944434 -0.2131407 0.22148648
-0.44160447 0.3145241 -0.6352213 0.47009262 -0.012219767 0.35686022 0.31938416 -0.075862125
-0.35126343 -0.2797405 -0.2706755 0.18831259 1.1037778 -0.07815608 0.058816344 0.3518489
-0.6382547 0.33921123 -0.053090557 0.16745287 0.12215547 0.055076987 -0.108578324 -2.5993705
0.17302948 0.5832233 -0.7458796 -0.1101177 -0.2260654 0.12973642 0.5541475 -0.21349135
-0.37520605 -0.12410092 -0.049934607 -0.47031352 0.45195678 -0.031048331 0.5831685 -0.5992626
0.6186294 -0.38510197 1.3921201 -0.29776514 0.6525171 -0.08179135 -0.09077957 -0.33657816
0.5076151 0.26856324 0.07717124 0.36862254 0.09182459 -0.087643504 -0.022591412 -2.0375009
0.074893735 0.743593 0.44637674 -0.13969451 -0.23588273 -0.27193406 0.40936297 -0.25289598
0.2044177 0.3034496 -0.47991005 -0.3511856 0.59677464 -0.04900097 -0.5379186 -0.08153621
-0.4153037 0.30347437 0.29201204 0.55038667 -0.087164074 0.28819808 0.27540815 0.4320049
0.18178011 0.3246887 0.010435328 0.26898593 -0.05183287 -0.04155618 0.08223024 1.5174338
0.26141548 0.35028496 -0.19079119 1.0397253 0.45848107 -0.23834611 -0.74646586 -0.24720088
0.16074717 1.0782412 0.04350486 0.4061531 -1.1727784 -0.8480182 0.45483512 0.25187084
-0.017028794 -0.34988528 -1.5409456 -0.763125 0.49269816 -0.60412705 0.07758823 0.43535858
-0.33529198 -0.28091475 -0.020995557 -0.52800804 -0.10112803 0.087402 0.10883774 0.78857267
0.1312948 0.22110125 0.18532485 0.21264079 0.5700329 -0.2184901 -0.027691184 -0.13083662
-0.5394731 -0.4849473 0.55646193 0.53384054 0.36609235 0.09709957 0.0845139 0.5004777
0.06155918 -0.07397798 0.10203378 -0.4812311 0.50597245 0.5995214 -0.24037573 -0.25825492
-0.17107514 0.06908624 -0.036775604 0.040706657 0.05598429 0.044968024 0.063397765 -0.4616001
-0.15304025 0.18044478 0.6424646 0.03748652 -0.33016804 0.079502456 0.23090391 -0.1453325
0.08537346 0.06415089 0.3842559 -0.028111253 0.29272133 0.3255943 0.2667054 -0.010520891
-0.17265677 0.1990875 -0.37288135 -0.12366233 0.5208741 -0.12544137 -0.57224804 -0.6806715
-0.92043686 0.14031057 0.027549863 0.05116638 0.027986422 0.06695798 -0.0004324019 0.06928614

lstm.weight_hh_l0 f4 [256, 64]
00000000: 828b b9be 22c0 9fbd c078 963e 8cee a13c
00000010: 75d4 e73e 8151 8a3e 9c47 fe3d b7d9 213e
00000020: 7e91 b73e a903 a1be 4538 a5be e85f 99be
00000030: 30bc 943d 1f6a 71be 7ace e3bd f015 5dbe
00000040: 268c eabd 6778 843e b831 493e 744a 903e
00000050: 6adb cc3c 7cca 04bf 6b37 3a3e 49c8 40bd
00000060: fce5 fe3d dc22 49be d8ff 86be d0a1 9a3d
00000070: 2d48 053e 4bd1 3b3e ba42 053e 42bb 90bd
00000080: ed42 2e3e a9bd 3dbe 6e53 2dbe d991 ff3e
00000090: a25c cebd 9c15 b0bd f8f3 debd bebe 423c
000000a0: 75ff c33e 9f53 25bf 0363 83be bb92 91bd
000000b0: f51f a4bd f06a 5b3e 97e2 a6bd cd1a febe
000000c0: c760 acbd 9973 af3d d88c 7abe e67a 523e
000000d0: 65f3 263f d754 22be beda cebe ce0c d3bc
000000e0: 125d 01be 099b 29be 1dd0 b3be 959a 483e
000000f0: d3fc 213e 3777 cb3d af53 493c 76c6 afbc
00000100: 65a7 c63d 2507 663e a2c4 bfbe 4a1b 803e
00000110: 984d 153f bfb4 9f3e 7bd1 473d d0f0 febe
00000120: 2079 56bd 9d88 273f 4e40 ae3c 8b2a a0be
00000130: 1143 ba3e 3056 fdbe 3215 29bf 5091 28bd
00000140: d639 e03d ee66 c03e 8897 b7bc a3fc 523e
00000150: b323 3a3e 9314 fa3e 25a7 86be 1b93 77be
00000160: 2ea8 4b3f c4d4 18bf fb4e 08bf ee18 2abe
00000170: dbd5 013d b6a7 23bb be15 febd 5a04 183e
00000180: 2acc d0be 2d17 58be cf97 943e b8e8 eb3e
00000190: b863 593e e056 aabe 438c 903e b5ce 843e
000001a0: 5ad8 303e b4e2 063c 947a 8bbe 04b1 19be
000001b0: 90b7 6d3c f632 043d e8a6 f73c 53e8 2ebc
000001c0: 95c6 99be f6b3 303e d997 d2bd 2ebe d1bd
000001d0: 79a1 3a3e 5b9b dfbd fa5f d1bd 007f 303e
000001e0: dab0 a7be dfbb 243e d26d 56be 63d6 60be
000001f0: ca2e 4ebe a9b4 6ebe 9936 da3d f45d 403e
00000200: 38e0 86be 320d 0fbf ab6f 183e c453 15bf
00000210: 2a65 02bf 5397 e13d 385e aa3d 6f93 4d3e
00000220: 189d f4be 2a76 6e3e 6f0c 18be 0cc4 3f3f
00000230: cd50 eabe c47a 283e c70f 8e3d 0b28 cf3d
00000240: 23bc fd3b fc13 01bd f96c 40bf f230 bcbe
00000250: c56f ac3e 4d46 1fbe 6c13 08be a23c 653e
00000260: dc5c 563e 6960 96be 2b36 b13e 8452 89be
00000270: d6b2 51bf 8a24 a73f 5e0a ae3e 31d3 833e
00000280: fa65 513e 0f76 6c3d 0d67 06bf 12c3 413f
00000290: 7076 163f 33b7 43bf 89a4 c0bd a167 8c3e
000002a0: bc1a 803d 1414 f7be a480 8cbf de4e 183f
000002b0: 5f8a cb3e f44b 27bf 058b 3abe 4f93 3dbe
000002c0: 4f08 663e d787 d43e b448 3a3e 4306 9ebe
000002d0: dd61 50be 7bb3 a83e ff1b 19be 1624 84be
000002e0: 3c1a 66be 19f2 adbe 34df 903e 2e12 413f
000002f0: 88d6 923e 4a9e ce3d 74bf e93e fb61 10bf
00000300: 8db3 5dbe ab11 a93e 6559 8ebe a25b 283f
00000310: c3c3 13bf 246e 3bbe d89d 0bbe ff1e 80be
00000320: 35ef 84bd fe36 84be 9dcc 32be 919a a43e
00000330: 94cd 1dbe c1d0 05be fd4b 7abd 2cfa 883d
00000340: ece4 4abe dbc8 83be ec90 0f3e d278 40bd
00000350: b852 123e 9c5f 3bbd a495 b63e 756b 173c
00000360: c921 df3d 5cb0 18be 981a af3b e365 a13e
00000370: b328 a8be beec 353d 9ddc fa3e f056 90be
00000380: b9bd 413f 3f7c 14be 412c 573e 3998 7f3f
00000390: fe00 d6be 0c2e 47be 7c1d 133e 8dd9 85be
000003a0: 4d58 4b3e 3402 083e 4533 7c3e 7c0f a2bd
000003b0: f691 5d3e 159c d8be ff0f 89be bc0e 27bd
000003c0: a030 1cbd 08f4 df3d b219 f33e c63e 313d
000003d0: 3f41 e5bd 69a1 5cbe 65a0 883c 99a0 73be
000003e0: 41df 46be be82 94be 40cd 98bd 40c0 d13c
000003f0: 9f4b 77bd 7483 f5bd 852e a9bd 6917 0c3d
-0.3623925 -0.07800318 0.29389 0.019767068 0.4527928 0.27015308 0.12416002 0.15805708
0.3585319 -0.31448105 -0.32269493 -0.29955983 0.072624564 -0.23575638 -0.11123367 -0.215904
-0.114525124 0.2587311 0.19647872 0.28181803 0.025006969 -0.51871467 0.18185203 -0.047066007
0.1244621 -0.19642204 -0.26367068 0.075503945 0.13015814 0.18341558 0.13013735 -0.070669666
0.17017718 -0.18529381 -0.16926357 0.4991596 -0.10076262 -0.08597872 -0.10886377 0.011886297
0.38280836 -0.6458072 -0.25661477 -0.07108065 -0.08013908 0.21427512 -0.08148687 -0.49629822
-0.08416896 0.085669704 -0.2446779 0.20554695 0.6521514 -0.15852676 -0.40401262 -0.025762942
-0.1263316 -0.16563047 -0.35119715 0.19590218 0.15819101 0.09934848 0.012288018 -0.021456938
0.09699897 0.22463663 -0.37454706 0.2502082 0.58321524 0.31192586 0.04878376 -0.497931
-0.052361608 0.6544283 0.021270897 -0.31282458 0.36379293 -0.49479818 -0.66047966 -0.041154206
0.10948531 0.3757853 -0.022411123 0.20604186 0.1817768 0.48843822 -0.26299396 -0.2417721
0.79553497 -0.59699655 -0.53245515 -0.16611072 0.03169809 -0.002497179 -0.12406491 0.1484541
-0.40780765 -0.21102591 0.2902207 0.46075988 0.21229446 -0.33269405 0.2823201 0.25938955
0.17270032 0.008232761 -0.27241957 -0.15008932 0.014509097 0.032275163 0.030230954 -0.010675508
-0.3003432 0.1725615 -0.10282869 -0.10241352 0.1822566 -0.109183036 -0.10223384 0.17235947
-0.32752115 0.16087292 -0.2094033 -0.21956782 -0.20135036 -0.23311104 0.10654945 0.1878584
-0.2634294 -0.5587951 0.14886348 -0.5833094 -0.50935614 0.11015191 0.08318752 0.20075773
-0.47776103 0.23287264 -0.14848493 0.7490852 -0.4576477 0.16453081 0.06936603 0.101150595
0.007743375 -0.0315132 -0.7516628 -0.36756092 0.33679023 -0.15554161 -0.13288659 0.22386411
0.2093386 -0.2937043 0.3461164 -0.26820767 -0.81913507 1.3058026 0.33992285 0.25747064
0.20449057 0.057729777 -0.52500993 0.7568828 0.5877447 -0.76451415 -0.094063826 0.27422813
0.06255099 -0.48257506 -1.0976758 0.5949534 0.39754006 -0.6535027 -0.18217094 -0.18513225
0.22464107 0.41509888 0.18191797 -0.30864152 -0.20349832 0.32949433 -0.14952086 -0.2580878
-0.22470945 -0.33973768 0.2829529 0.75418365 0.286793 0.10088785 0.4565388 -0.56399506
-0.21650524 0.33021292 -0.27802578 0.6576482 -0.57720584 -0.18303734 -0.13634431 -0.25023648
-0.064909376 -0.25823206 -0.17460866 0.32149175 -0.15410453 -0.13067915 -0.061107624 0.066883415
-0.1981389 -0.25739178 0.14020127 -0.046990223 0.14289367 -0.045745477 0.35661042 0.009241928
0.10895116 -0.14911026 0.0053437464 0.31523046 -0.3284355 0.044415228 0.4899644 -0.28191328
0.7568012 -0.14500521 0.21012975 0.9984165 -0.41797632 -0.19451159 0.14366716 -0.2614254
0.19857903 0.1328209 0.24628933 -0.0791311 0.21637711 -0.4230658 -0.26770017 -0.040785536
-0.03813231 0.10935217 0.4748054 0.043272756 -0.11194085 -0.21545948 0.016678045 -0.23791732
-0.19421102 -0.29005998 -0.07461023 0.025604367 -0.060374852 -0.11987963 -0.08260826 0.034202013

lstm.bias_ih_l0 f4 [256]
00000000: c4b3 e03b 070b dc3e eb98 b73d 9127 a6bb
00000010: 62e4 283e 816a 9a3e c2b8 943e 9a99 05be
00000020: cc37 ecbd 0201 6a3e b4fb a7be 3dfe 463e
00000030: bb24 86bd 79a3 583e 3d8e b13e a09d 00bd
00000040: 4221 afbe 7f7b 0ebe 86ec ba3e 0f9b 81be
00000050: 5696 9a3c 650e f83e bacc ec3e a810 013e
00000060: 19e4 39be e0d4 adbe eb32 db3d 5ee6 b03e
00000070: 2def 0cbf 3bfc 6f3d 0e13 fd3d fb78 05bf
00000080: 9bb5 71be 5ded 973e 3d4b 4dbe be63 26bf
00000090: 8845 98be f732 1fbc f198 b6bd 1a06 9abe
000000a0: 37d8 afbd 636f 563d cfa1 983e a01f 26be
000000b0: 6196 1dbe 8ba8 41bd 6eeb 10bf 7dbe 113d
000000c0: 80c8 21bf 4239 cabd 55a7 dcbd de34 d83d
000000d0: 82ff 10be 9cc9 9bbe de65 8a3c a064 073e
000000e0: 74ed f33d 3a48 aa3c bfe8 23bd 8d95 02bf
000000f0: 8ec5 c2bc fde6 1dbf 24ee 31bd 0752 963e
00000100: a1de 2d3f c3bb db3e d1e6 a73e 0fb5 493e
00000110: 093d f33c 2972 813e 1c76 263f 2d22 373f
00000120: 6cf3 f63e d308 1a3e 5ca2 1c3f 4716 a5bc
00000130: 5a2f c53e 23d4 ac3e 7b7b ae3d 249f 123f
00000140: 306b c33d d0c5 b73e 9381 783f 7f7a 32be
00000150: 7d32 753e 909d a73e 31a3 af3e f014 f13d
00000160: c41c 823e 89e2 c63e feb1 d23e b3c1 a2be
00000170: f7f2 943f 9c52 063e 8403 2dbd b70a a73f
00000180: f67e 8f3f 82bc ff3d 8002 f63e afef 673f
00000190: d76d d03e f83c ce3d 419d 613e f0dc 653f
000001a0: 8f9a 103e 3a6c 423e 4271 fe3c e07e 063f
000001b0: fd56 fd3d bf87 0bbe f845 593f 8fe7 423f
000001c0: 19a6 6c3f 78bb 273c c911 b23e b3cc ef3e
000001d0: 9380 0f3e 42bc 553f 514d 313f 5f97 883e
000001e0: 05b2 303f daff 7b3e 8e9f 823e 0f07 893f
000001f0: ca16 54bd a81b 913f 366f a1be 88a5 553e
00000200: 04ff 27be 4ea2 bd3e a5ba c6bd f6f6 09be
00000210: 1a1d f3be 928f 39be 5f37 edbd 6e27 9c3e
00000220: 9962 d9bc 9303 3abe 3520 69be e121 ad3e
00000230: 5b0a 793e dbbb a63e ca33 8ebe 6ecc f53d
00000240: f5fc 3bbe 9272 1dbe 535d ee3e 22d5 863d
00000250: 4b99 8ebe 6285 acbc 9c7d a33e 71c6 cd3d
00000260: df2d c23e f5a3 6dbe feb9 afbd 396b 5fbe
00000270: 6fea 41be 5bb7 263e 8366 003f 5842 6cbe
00000280: 8e69 ffbc 2308 cc3e f030 913c 0db8 09bd
00000290: 1cc0 e43d d5a9 f43d b922 e5bd bb1e 0abe
000002a0: e6b7 05be 6dae a7bd 92e0 2abc 528b 36bd
000002b0: 7fcc 583d e82e 2cbe ae41 1bbd 2758 b03c
000002c0: 884c 24bd b683 cabc 8708 9b3e 05ee a43e
000002d0: 1d62 033e bbe5 e6bd 0146 4abe 3497 8c3d
000002e0: ab3d 853e 2670 3dbe cee1 833e 6e26 163b
000002f0: 844b d4be 39e8 c9bc 246b d43d 35c5 c93e
00000300: 7dd3 fc3e e9ce 333f a003 c63e d539 fe3e
00000310: c5af a4bd 29c0 a73e 0184 4e3d 3b6b 103f
00000320: 5695 943e 3450 aa3e eebf 013e 8696 1fbc
00000330: bdfd 993e cd42 4c3f 1730 ea3e c340 423f
00000340: 56c8 2b3e 52c6 dd3d 08bb ed3e 16c1 dcbd
00000350: 3e67 053e b849 4c3e 97a3 343e f4b6 283f
00000360: c17e d53d 91d5 f73e 5a15 453e ca69 093f
00000370: 8cc8 1e3f 59d8 da3d 1247 923e 780b a53e
00000380: b983 b83e e069 ae3d 7e3c 1c3f 4937 ee3e
00000390: 83ba 0c3f 060b 983e e3ef 053f 0672 c63e
000003a0: 2f87 343e 0eed a33e 1c70 6c3e af1e 8b3e
000003b0: b438 a03e 5a19 dabd f48a 153f 03e7 ae3e
000003c0: b054 963e 117f 693e be19 09be c0a8 d93e
000003d0: 5672 cf3e 9fbd cb3e debe 2d3f 14df 1e3f
000003e0: f4d6 eb3e b640 f1bd 7d87 d03e c828 b43e
000003f0: f6ef 973d f923 5d3e 3284 dc3e 7435 043f
0.006857367 0.42977163 0.08964714 -0.0050706347 0.16493371 0.3015938 0.2904721 -0.13046876
-0.1153408 0.22851947 -0.32809222 0.19432922 -0.065499745 0.2115611 0.34678832 -0.031400323
-0.3420506 -0.13914298 0.36508578 -0.25313613 0.018870514 0.48448482 0.46249944 0.1260401
-0.18153419 -0.33951473 0.10703071 0.34550756 -0.55052453 0.058590155 0.1235715 -0.52137727
-0.23604433 0.2967328 -0.20048232 -0.64995944 -0.29740548 -0.009716741 -0.0891589 -0.3008278
-0.085861616 0.05235232 0.2981095 -0.16223001 -0.15389396 -0.047279876 -0.5660924 0.035582054
-0.63196564 -0.09874202 -0.107741036 0.105569586 -0.14159968 -0.30427253 0.016894277 0.13221979
0.11910525 0.020786393 -0.040016886 -0.51009446 -0.023775842 -0.61680585 -0.04344 0.29359457
0.6791783 0.42916688 0.32793286 0.19697975 0.02969219 0.2528241 0.6502397 0.71536523
0.4823259 0.15042429 0.6118524 -0.020152224 0.3851269 0.33755597 0.08519646 0.5727408
0.09541929 0.35893106 0.97072715 -0.17429541 0.23945041 0.32737398 0.34304193 0.11771572
0.2541257 0.38844708 0.41151422 -0.31788406 1.1636647 0.1311745 -0.04223968 1.3050145
1.121062 0.12487127 0.48048782 0.90600103 0.407088 0.100702226 0.22032644 0.8979025
0.1412146 0.18986598 0.031059865 0.52537346 0.12370107 -0.13626002 0.8487239 0.7613458
0.92440945 0.010237567 0.34779194 0.4683586 0.14013891 0.83490384 0.692586 0.26677987
0.69021636 0.24609318 0.25512356 1.0705279 -0.051779546 1.1336565 -0.3153016 0.20863926
-0.16405874 0.3703789 -0.09703568 -0.13473114 -0.4748314 -0.18121174 -0.11582827 0.30498832
-0.026536273 -0.18165426 -0.22766192 0.3381491 0.24320357 0.32565197 -0.27773887 0.120018825
-0.18358214 -0.15375736 0.46555576 0.065836206 -0.27851328 -0.021059696 0.3193177 0.10047615
0.37925622 -0.23207076 -0.08580397 -0.21818246 -0.18937086 0.16280882 0.5015642 -0.23072183
-0.031178262 0.39849958 0.01772353 -0.03362279 0.111694545 0.119464554 -0.111882634 -0.13488285
-0.13058433 -0.08187566 -0.010429518 -0.04456646 0.052929398 -0.16814768 -0.037904434 0.02152641
-0.04011205 -0.024721008 0.30279943 0.32212844 0.12830396 -0.11274286 -0.19753267 0.06864777
0.2602361 -0.18499812 0.25758213 0.002291109 -0.41463864 -0.024646865 0.10371998 0.3940827
0.49380103 0.70237595 0.3867464 0.49653497 -0.08041338 0.32763794 0.050418857 0.5641362
0.29020184 0.33264315 0.12670872 -0.009740477 0.300764 0.7978943 0.45739815 0.7588007
0.16775641 0.10828842 0.46431756 -0.10779016 0.13027665 0.19949996 0.1764053 0.65904164
0.10424567 0.48405126 0.19246426 0.53677046 0.6202476 0.10685796 0.28569847 0.32235312
0.36037996 0.08516288 0.61029804 0.46526554 0.54972094 0.2969591 0.52319163 0.38758868
0.17629693 0.32016796 0.23089641 0.27171847 0.3129326 -0.10649367 0.5841515 0.34160623
0.29361486 0.22802378 -0.13388726 0.4251156 0.4051692 0.39793107 0.67869365 0.6205914
0.46062434 -0.11779921 0.4072837 0.35187364 0.07418816 0.21595754 0.43069607 0.51644063

lstm.bias_hh_l0 f4 [256]
00000000: 82cb 313d d94a 8e3e a1cf f73c cda8 bbbd
00000010: 8ccd 3b3e bf2d 763e a449 b33e e8c2 efbc
00000020: a55d 2bbe 2c1a 5a3e 899a 82be ad07 213e
00000030: f773 0fbd 4c22 fa3d 5bf8 ae3e 91d8 81be
00000040: 0ac1 83be 9165 1cbe 8aa3 123e 8eaf b0be
00000050: c64f f63d b40e fe3e b8ab ec3e e2da 713e
00000060: 231c e8bd 1a5e 8fbe d8a4 653b 4642 bf3e
00000070: 53b5 01bf 45ca 063e 6d17 383e 55a1 febe
00000080: aa14 0dbe 0772 863e 9c71 a9be 280c 15bf
00000090: 9a00 71be 3f52 983c 7140 0dbe 2d5d 37be
000000a0: a4b6 09be 46a6 053e 99a7 ed3e 106f c1be
000000b0: 3335 91be e7e1 48be 91b2 11bf 3395 8abd
000000c0: 412f f2be 7d41 0c3d 3bde e4bd af29 963e
000000d0: 865f e0bc cd19 9ebe 2ffc 3f3e 8624 18bd
000000e0: ac59 803e 3c7d 263d b76a d7bc 607c 19bf
000000f0: c237 293e 1b28 33bf 5a9f fbbd 6588 d93d
00000100: 1c20 0c3f f1ea b93e b154 8d3e 158e 263e
00000110: d84f 503e 972c b33d 603a 1f3f 7764 193f
00000120: d96f 063f 39b0 7e3d 562e 1a3f 8fc1 e3bd
00000130: f225 d93e 4534 e13e 2639 be3c ea52 163f
00000140: 9389 4d3d f8bf f23e 3d5e 4f3f cb3a 09bd
00000150: eb55 6f3e cbcf b03e 5973 c23e f8b8 dfbc
00000160: 4828 c33e d2a8 e53e acd6 d33e 776a 8fbe
00000170: 4579 903f d27e 143e 48e9 81bc c98b a33f
00000180: 9e2b 793f 8dcb 4e3e 5a19 d33e 5297 7b3f
00000190: 5901 d63e a8b1 5a3d a9b9 5c3e 8ac0 753f
000001a0: a4bc d8bb 32b9 3d3e 8369 38bc d282 003f
000001b0: 7339 203e 1126 48be 4ed3 743f 5d39 193f
000001c0: 3c46 863f 2ce0 50bc 0d8d c13e 0395 873e
000001d0: 4b4b a33d a8b5 2d3f f95a 383f 8083 b93d
000001e0: ed11 583f a2b6 793e 4c03 623e 6833 6e3f
000001f0: 1444 9dbd b45a a63f 0f24 60be 0601 933e
00000200: 436c 05be eb8b 183f 8771 71be afff afbc
00000210: 1c7c bdbe 830c aebd 8f75 abbd dda4 af3e
00000220: 47bc 183c 560f 80bd ebcb 51be 2300 e53e
00000230: e6e6 053e ebe6 9e3e d019 40be 13ce 86bc
00000240: f187 8e3a 1846 b6bd 4560 f53e 0bee 2e3c
00000250: 8d46 a9be 585c 89bc 1976 fa3e 5628 963e
00000260: 1b58 af3e b223 4fbe d4ca f7bc d164 b6be
00000270: ff49 50be e98c d23d 3b2a fb3e c287 50be
00000280: d510 f83c 65bb 033f ef69 773e c33d 9cbd
00000290: c5ba ddbd 3ab0 b63e b144 b0bd d393 1cbe
000002a0: a7f1 1cbd 80a2 04be b633 db3d be51 8e3c
000002b0: f325 a0bc a64e 00be e731 4c3c d04d 1d3c
000002c0: cda2 72be b679 d73d 8bab 923e 7b4a d43e
000002d0: c349 a53d 5074 ec3c 97c9 38be 1715 cfbb
000002e0: 4d83 b63d 87a0 26be da58 693e dd28 55be
000002f0: 9aa8 f3be 91e4 093d f541 6e3e 03ed 7f3e
00000300: e470 a73e 45c3 343f 9a75 e43e afde fd3e
00000310: b53f a8bd 8d11 c23e 2051 dfbc 9a37 113f
00000320: df8a da3e 5260 da3e d143 833e 5c98 3b3e
00000330: 9172 e43e 2b2b 383f 7c4b 103f 2efa 733f
00000340: 4081 773e 518e 083d 216c 003f 4340 5dbe
00000350: 6168 6b3e 7274 da3e dd6e 8c3e 1fee f13e
00000360: fa02 2c3e 9062 033f 56be 873e ac88 033f
00000370: 48b8 1b3f 170f 043e f0a0 9b3e 0e6d bc3e
00000380: f083 683e 3b5f 6a3e 6c12 1f3f 331b bc3e
00000390: efa1 cc3e 3ed5 ce3d 3761 fb3e d65d b93e
000003a0: d4d3 9d3e 9689 bd3e 79b4 513e 6bce 8e3e
000003b0: 2c16 c13e 1fb7 5b3d 3c68 d73e 29b3 033f
000003c0: 241d ae3e 9a2b d43e 5dbe 19be 7c72 dc3e
000003d0: 20d9 f43e a187 e63e 5269 203f c6b2 463f
000003e0: ac33 ad3e 632a 8f3d 15a8 f53e a338 243e
000003f0: 6dd0 393d 312a be3e 56b8 af3e bee8 1e3f
0.04340697 0.2779148 0.030250372 -0.091630556 0.18340129 0.24040888 0.3501712 -0.029267743
-0.16734941 0.21299046 -0.25508526 0.15725584 -0.035022702 0.12213573 0.34173855 -0.2536054
-0.25733215 -0.1527312 0.14320198 -0.34508938 0.12026934 0.49620593 0.4622476 0.23618653
-0.11333492 -0.2800148 0.0035040881 0.3735525 -0.50667304 0.13163097 0.17977686 -0.49732462
-0.13777414 0.2625887 -0.3309449 -0.58221674 -0.23535386 0.018593905 -0.13794114 -0.17906637
-0.13448578 0.1305171 0.4641693 -0.37780046 -0.283609 -0.19617425 -0.56913096 -0.06766739
-0.47301677 0.034242142 -0.111751996 0.29328677 -0.0273893 -0.3087906 0.18748544 -0.037144206
0.25068414 0.040646777 -0.026296003 -0.59955406 0.16525176 -0.6998307 -0.12286253 0.10621718
0.54736495 0.3631206 0.27603677 0.16265137 0.20342958 0.08748739 0.6219845 0.5991892
0.52514416 0.062179778 0.60226953 -0.11120903 0.42411762 0.4398519 0.02322061 0.58720267
0.05018003 0.47412086 0.8100317 -0.033503335 0.23372619 0.34533533 0.37978628 -0.02730988
0.3811667 0.44855362 0.4137472 -0.28010914 1.1287009 0.14501503 -0.015858307 1.2777034
0.9733218 0.20194836 0.4123028 0.9827777 0.41797903 0.053392082 0.21555199 0.95996916
-0.0066142846 0.18527678 -0.011255625 0.50199616 0.15646915 -0.19545771 0.95634925 0.59853154
1.0490184 -0.012748759 0.37802926 0.26480874 0.07973345 0.6785531 0.72013813 0.09058285
0.8440235 0.24386075 0.2207157 0.9304719 -0.076790005 1.299643 -0.21888755 0.28711718
-0.1302958 0.595885 -0.23578463 -0.021484224 -0.3700875 -0.0849848 -0.08372032 0.34305468
0.009322233 -0.06252925 -0.20487945 0.44726667 0.13076362 0.3103555 -0.18759847 -0.016455686
0.0010874254 -0.08900088 0.4792501 0.010676871 -0.33061638 -0.016767666 0.48918226 0.2932765
0.34246907 -0.2022846 -0.030248083 -0.35623792 -0.20340727 0.10280783 0.49055657 -0.20364287
0.030281464 0.51457816 0.24161504 -0.076289676 -0.10826639 0.35681325 -0.08606852 -0.15290765
-0.038316395 -0.12952614 0.107032225 0.017372962 -0.019549346 -0.12530002 0.0124630695 0.0096010715
-0.23694916 0.105212614 0.28646502 0.41463074 0.080707096 0.028864056 -0.1804565 -0.006319653
0.089117624 -0.16272174 0.227878 -0.2081637 -0.4758957 0.033665244 0.23267348 0.24992757
0.32703316 0.7061046 0.44620973 0.49583957 -0.08215276 0.37904015 -0.027260363 0.56725466
0.42684075 0.42651612 0.25637677 0.18319839 0.44618657 0.7194087 0.5636518 0.9530362
0.24170399 0.03333885 0.5016499 -0.21606545 0.22989036 0.42666966 0.27428332 0.47251984
0.1679801 0.5132227 0.26512402 0.5138042 0.60828066 0.12896381 0.30396223 0.36801952
0.2270658 0.2288789 0.62137485 0.367395 0.39967296 0.100992665 0.49097607 0.36204404
0.30825675 0.37019032 0.20479001 0.2789186 0.37712228 0.053641435 0.42071712 0.5144525
0.34006608 0.41439515 -0.15014024 0.43056095 0.47821903 0.45025352 0.62660706 0.77616537
0.33828485 0.069905065 0.479798 0.1603723 0.045364786 0.37141564 0.34320325 0.62073886

fc1.weight f4 [32, 64]
00000000: 6221 7bbd fd89 813e 4a6d 203e fa3d 0b3e
00000010: 3b6b 1bbf e523 c9be a6c8 703f dc28 523e
00000020: 7ee0 f83e 56ae 3dbf f623 95bf 2f09 e13e
00000030: 1c3e 6dbe a40c 033e ff74 75bf cda3 dcbe
00000040: 964b 1d3f be17 69be 62cc 353f 9c99 1d40
00000050: 6fec 60be a4bf acbd 1528 fc3e 7f11 eb3e
00000060: fabb 35bf b154 383c 7cba 88be 0ee0 7f40
00000070: 886f aa3d 94db 463e ff32 963e 4589 4e3f
00000080: f0cf d8be ac28 b03f 570d 2bc0 c47b 33bf
00000090: 51fb ebbc 1fa5 8cbf 08ef cfbf 113f 0a3f
000000a0: 86ce 8dbe e5dc 88bf c6df d2be 5110 643e
000000b0: 58e8 abbf 605c 15c0 7f8e 633d 0625 03bf
000000c0: 7201 e13e ce4f 313f 4c79 8f3f d2eb ed3d
000000d0: 4a9c c2bf fe40 1fbf deee 223f f20c 74bd
000000e0: 6e16 7a3d 7a98 ce3e da1d 873f cf4f 3fbe
000000f0: 814f c9bf 12a2 9fbe e32c 683e 6648 3ebf
00000100: 584a 90be ecf7 b4bd bf97 9d3f ed76 1cbf
00000110: a14b fc3e 3d2a ad3f 69d3 14bf 60dc 0cbf
00000120: c69b e13f 8bf6 82bf b606 723c 3346 a2bf
00000130: d35c 94be 13c7 193f cf6b 8ebf 4bf3 0840
00000140: c825 93bf 7e7e 53be dc05 aa3e d277 6abd
00000150: d0d9 53bf 2d86 0d3f d9c2 bbbd bd8c bb3f
00000160: f01d 423e 1add 1040 be32 3b3f 6728 08bf
00000170: 0786 a1be 32e9 193f 3e6c d43e 0211 41bf
00000180: bd75 88bf 7995 a1bf e801 2a3e 1b17 453e
00000190: 102d fc3e 0676 9cbe 2592 293e 1900 c03f
000001a0: 5858 323f 9c6c 3e3e f845 803e 23bc 5c3f
000001b0: b24c 30bf 9f0e 86bb e3b9 5cbe d8dc 3ec0
000001c0: 4a06 d53e 727c 313e 0714 bbbf 0f66 3cbf
000001d0: c122 14be 903b 88bf cf5a a63d a129 1140
000001e0: 1cbd 55be 80ab ae3e bc70 21bf 1036 4f3e
000001f0: 66b8 2b3f ce8a febe c359 1a3f 2972 1640
00000200: d224 8d3f bcaf 863e 6bc9 efbf 5640 a83f
00000210: f9a8 523d d9b2 0bbf c423 f4bc bf17 bcbe
00000220: 9af7 b33f d37d 893f 93a4 2340 9dca 12c0
00000230: 10e9 0040 9693 873f 3f3f 40bf 8152 febe
00000240: dc07 62be 983f 283e 8499 3a3f 5c0a 1e3f
00000250: bf26 24be 0088 643e 387e e7bf 9e7b 2640
00000260: 75df d4be deab c13d 8c52 4abe 634f acbd
00000270: 489c 00be 6d02 e6be 6b10 583f c8a4 033f
00000280: 1114 5fbf 5025 c83f 5858 263f 24e2 de3e
00000290: df82 72bf d9ce dfbe 17f3 403f b9b8 5b3f
000002a0: 81ef febc 1cc9 fa3f f63c 0d3f 4bd3 b13f
000002b0: b9c6 c3bc 0b4a a43e 7e54 c03e 14ff a23f
000002c0: bcde de3e 662e 36bd e446 b6bf d091 9ebf
000002d0: 2176 c6bf 0013 3e3f 8d3a 013f c642 cd3e
000002e0: 1add 933d c998 213e bace c5bf 4f0e 703e
000002f0: e900 863f e6fb 933f c1f7 69bd 7be5 08c0
00000300: e417 0abf 51fe 25c0 c4ae 1e40 8d92 fa3c
00000310: 302b 303f 53c8 9e3f 4c02 3f3e 40d3 513b
00000320: 9858 813e 81cc 843f 1d51 9ebf fcb2 3bbf
00000330: 46c3 d0bf 1161 c73f 9fe3 403f bd38 b23f
00000340: 12a2 40bf 4b9d 403f 39c9 1b3e 8936 f93e
00000350: d101 7a3d 6d60 ce3f aa93 6c3f d83e 44be
00000360: 2507 213e 35d1 57bf 57b7 c7bc 491e 1ebf
00000370: 996c 093f 7589 b5bf 2ffd f33d 32c4 ad3e
00000380: c9a1 71bf e7c3 07be 34ae c6bd fc65 cfbd
00000390: b4e0 b93e 642e 51bf a9c3 973a c41b a73d
000003a0: dc2b fabe 8dbd a03f ba80 2fbf 6748 bbbe
000003b0: 5757 653f ce6c c13e be02 12bf 022c f83e
000003c0: f5ca 66bf 0eef e83e 0aae e7bf df00 523f
000003d0: 6190 643e 59da 803f 2fcf 613f 2f3a febf
000003e0: 6a73 963f 81ab 9ebf 8c51 d53f 8f0e 8dbe
000003f0: 0b98 be3e 7280 c73d 413d 403e 60bb d53f
-0.061311133 0.2530059 0.1566669 0.13597861 -0.60710496 -0.39285198 0.94056165 0.20523399
0.48608774 -0.7409414 -1.16516 0.4395232 -0.23168224 0.12797791 -0.95881647 -0.4309372
0.6144346 -0.22762963 0.7101499 2.4625006 -0.21965192 -0.0843499 0.4924933 0.45911786
-0.70989954 0.011250661 -0.26704776 3.9980502 0.08322054 0.194197 0.29335782 0.80678207
-0.42346144 1.3762412 -2.6726892 -0.70110726 -0.02880636 -1.0987891 -1.6244822 0.5400248
-0.27696627 -1.0692412 -0.4118635 0.22271849 -1.3430281 -2.3337631 0.055555817 -0.5122837
0.43946415 0.692624 1.1208892 0.11617245 -1.5203946 -0.62208545 0.6364573 -0.059582658
0.061056547 0.40350705 1.0555985 -0.18682788 -1.5727388 -0.31178337 0.22673373 -0.7432922
-0.2818172 -0.0883635 1.2311934 -0.61118966 0.4927645 1.3528515 -0.58135086 -0.55023766
1.7625663 -1.0231489 0.014772108 -1.2677673 -0.2897707 0.6006939 -1.112665 2.1398494
-1.1495905 -0.20653722 0.33207595 -0.057243176 -0.8275423 0.5528286 -0.091680236 1.4652325
0.18956733 2.263495 0.731243 -0.5318665 -0.31547567 0.6012145 0.41488832 -0.75416577
-1.0660931 -1.262374 0.1660229 0.19247095 0.4925313 -0.30558795 0.16559656 1.500003
0.6966605 0.18596119 0.25053382 0.86224574 -0.6886703 -0.0040910984 -0.21555285 -2.9822292
0.4160636 0.17332628 -1.4615487 -0.7359323 -0.14466383 -1.0643177 0.08122789 2.2681658
-0.20872921 0.3411522 -0.63062644 0.20235467 0.67078245 -0.49715275 0.60293216 2.3507178
1.1026862 0.2630595 -1.8733343 1.3144634 0.051430676 -0.54569775 -0.02980221 -0.36736867
1.4059937 1.0741524 2.5569198 -2.2936165 2.014225 1.0591915 -0.75096506 -0.4967232
-0.2207331 0.16430509 0.72890496 0.6173456 -0.16030405 0.22317505 -1.8085394 2.601295
-0.41576734 0.09456609 -0.19758052 -0.08413579 -0.12559617 -0.44923726 0.8440005 0.5142331
-0.87139994 1.5636387 0.6497855 0.43531907 -0.94730943 -0.437125 0.75370926 0.8582874
-0.031120064 1.9592624 0.55171144 1.3892606 -0.02389847 0.3208774 0.37564462 1.2734094
0.43529308 -0.044477843 -1.4240384 -1.2388248 -1.55048 0.7424774 0.50479966 0.40090007
0.07219906 0.15780939 -1.5453713 0.23442958 1.0469028 1.1561248 -0.057121042 -2.1390064
-0.53942704 -2.5936472 2.4794168 0.030587459 0.688159 1.2404884 0.1865322 0.0032016784
0.25262904 1.037491 -1.2368504 -0.73319983 -1.6309593 1.5576497 0.7534732 1.3923565
-0.752473 0.7524001 0.15213479 0.4867442 0.06103689 1.6123177 0.9241282 -0.19164598
0.15725382 -0.843036 -0.024379415 -0.6176496 0.5368133 -1.4182574 0.11913525 0.33938748
-0.9438749 -0.13258325 -0.09701195 -0.10126874 0.36304247 -0.8171141 0.0011578697 0.08159593
-0.48861587 1.2557846 -0.68555796 -0.36578676 0.89586395 0.37778324 -0.57035434 0.48471075
-0.9015344 0.45494884 -1.8099988 0.8203258 0.22320701 1.0066634 0.8820676 -1.9861506
1.1753972 -1.2396089 1.6665511 -0.2755017 0.37225375 0.09741296 0.18773367 1.6697807

fc1.bias f4 [32]
00000000: ceb1 0cbe de4f 4e3e f093 45be 77b2 adbd
00000010: f2cd e6be 7f5d cd3e d1d9 4a3e 68f3 07bf
00000020: cad4 f2be 16fe 723d 2f47 3b3e 9bc5 e7bd
00000030: aaae 93be a55b 0f3e 2690 fbbd 2103 033e
00000040: 9ea1 16bf 407b b83d 5fa6 3e3e e820 15be
00000050: cb3c d5be 767c b6be 901f e6be 78f8 923e
00000060: 9df3 b9bd 7e52 343c 9a36 0abf a528 8d3d
00000070: 7419 b4c0 dff6 b4c0 8f18 b5c0 8ada 8bbf
-0.13739702 0.20147654 -0.19294715 -0.08481305 -0.45079 0.40110394 0.19809653 -0.53105783
-0.4742797 0.059324346 0.18288873 -0.11316987 -0.28844196 0.13999803 -0.122833535 0.12794162
-0.5884036 0.09007883 0.18618153 -0.14563334 -0.41647944 -0.3564183 -0.44945955 0.28705192
-0.09079669 0.011005996 -0.53989565 0.06892518 -5.628107 -5.6551356 -5.659248 -1.0926068
